model/(59)-net.pkl (torch_old, 254784 bytes, 8 tensors)

weight f4 [16, 1, 5, 5]
0.15275373 0.09993407 0.0647052 0.1325377 -0.10748472 0.091720894 0.21751273 0.33271718
0.40752137 0.054695938 0.2146336 0.2703658 0.49342766 0.16841826 -0.11733894 0.04965629
0.3986265 0.4396182 0.016797418 -0.18350658 0.12792765 0.14152986 0.18711546 0.12661052
-0.4578173 0.15181114 -0.13269721 -0.057323277 -0.05519591 0.025994167 0.04581138 -0.031959128
-0.06289876 -0.08297644 0.08859582 -0.13267682 0.025949711 0.08365877 -0.09082246 -0.0052017253
-0.06212569 -0.016628196 -0.022382403 -0.15442504 -0.025901906 -0.14519547 0.075415686 -0.059542578
0.17773943 0.06772021 -0.22481875 -0.11714402 -0.078962415 -0.16141094 -0.17013448 0.04924896
0.12989011 0.129925 0.08087027 0.32333922 -0.014597993 -0.054565117 0.23663351 0.28301933
0.3873827 -0.26198557 -0.11698324 -0.18335795 -0.12506461 0.09308946 -0.033313457 -0.16069575
-0.25252423 -0.34956616 -0.0057089995 -0.1539013 -0.10747506 -0.26193082 -0.093741424 -0.020021707
-0.19005062 -0.18450347 0.016977612 -0.08794737 0.25626063 0.16773222 -0.0051005958 0.11716865
0.29263967 0.40168133 -0.20482734 0.22237837 0.25988603 0.43935317 0.28576192 -0.23749433
0.18107785 0.31273413 0.37561637 -0.0011722664 0.22815375 -0.019221622 0.05642092 -0.052610062
-0.41289917 0.3053506 0.22458826 0.35121232 0.065304406 -0.16767572 0.3001769 0.17581937
0.39530182 -0.039246246 -0.16122584 0.19516903 0.16767932 0.39635164 0.12111253 -0.0548824
0.18272044 -0.05805154 0.3106481 -0.092664175 -0.03353774 -0.19157562 -0.40361372 -0.45613772
-0.59186894 -0.62182266 -0.24519336 -0.19100937 0.005813259 0.012253626 -0.37421948 0.32615677
0.27694747 0.28906605 0.36477217 0.18673977 0.40325588 0.47863206 0.3166752 0.40103412
0.4963367 0.023948614 0.29922256 0.5660339 0.30621403 0.17629649 -0.18009253 -0.13075788
-0.12241199 0.07522179 -0.107638456 -0.068831876 0.029925138 0.08300991 -0.06542477 -0.07089046
-0.06563127 -0.018298596 0.13257994 -0.08438003 0.12136687 0.047709793 0.18056016 -0.17352219
0.07257189 -0.15724127 -0.15980466 -0.029629558 -0.108721994 0.083080396 -0.042843908 -0.07812486
-0.08709724 -0.18215537 -0.11871137 -0.010907248 -0.0054641906 0.15425907 0.09736645 0.09807852
-0.021850552 0.033493448 -0.16585036 0.12120914 -0.061089255 -0.04049578 -0.020960385 0.14435704
0.062990665 -0.062371623 0.18426393 0.111806095 -0.15359777 -0.102310464 -0.031984184 -0.11076384
-0.17482708 -0.06244326 0.15145399 0.16442068 -0.05274657 0.0984026 -0.17558217 0.06160902
-0.11466991 0.11974886 -0.12692416 -0.017267833 -0.12832096 -0.017781585 -0.17355533 -0.1742581
0.11426233 -0.088138565 0.11112987 -0.15725325 0.01830146 -0.12156316 0.14700972 -0.04232029
-0.07007365 0.08911431 0.2981453 0.48879862 0.40404743 -0.09642945 0.30987757 0.30168533
0.65077907 0.4163991 0.14110224 -0.010981524 0.41018847 0.5118524 0.35014328 0.38663533
-0.20508765 0.16289553 0.15657416 0.46941766 0.42372245 -0.8036135 -0.54811174 -0.26115844
0.05103443 0.21004254 0.32926747 0.5315467 0.17980038 0.4495786 0.19063906 0.4409397
00000000: 796b 1c3e 3caa cc3d 2984 843d f6b7 073e
00000010: f320 dcbd 2ad8 bb3d a8bb 5e3e e859 aa3e
00000020: a4a6 d03e d908 603d e9c8 5b3e 636d 8a3e
00000030: 8da2 fc3e d675 2c3e 664f f0bd 6564 4b3d
00000040: c618 cc3e a315 e13e bd9a 893c 26e9 3bbe
00000050: 77ff 023e 34ed 103e 329b 3f3e 30a6 013e
00000060: 0767 eabe 6174 1b3e c7e1 07be d0cb 6abd
00000070: 1b15 62bd b8f1 d43c b7a4 3b3d 93e7 02bd
00000080: 11d1 80bd 8def a9bd ba71 b53d 6fdc 07be
00000090: 7d94 d43c 4a55 ab3d 2001 babd 3c73 aabb
000000a0: 8277 7ebd db37 88bc 4d5b b7bc 9921 1ebe
000000b0: 3c30 d4bc 1fae 14be 8a73 9a3d ebe2 73bd
000000c0: 5301 363e e5b0 8a3d e336 66be 34e9 efbd
000000d0: 0cb7 a1bd e948 25be bc37 2ebe 47b9 493d
000000e0: ea01 053e 0f0b 053e 509f a53d b88c a53e
000000f0: 6c2c 6fbc ac7f 5fbd 0e50 723e e9e7 903e
00000100: 0657 c63e f922 86be e994 efbd 30c2 3bbe
00000110: f010 00be b0a5 be3d b173 08bd 6d8d 24be
00000120: db4a 81be 56fa b2be 8f12 bbbb 4d98 1dbe
00000130: e21b dcbd cc1b 86be 81fb bfbd 9004 a4bc
00000140: a19c 42be 7aee 3cbe a214 8b3c c01d b4bd
00000150: 9834 833e ffc1 2b3e e622 a7bb 1ef6 ef3d
00000160: ded4 953e 2da9 cd3e 42be 51be 28b7 633e
00000170: c80f 853e e6f2 e03e 634f 923e b731 73be
00000180: 796c 393e b01e a03e ca50 c03e bca6 99ba
00000190: 23a1 693e aa76 9dbc 9f19 673d a67d 57bd
000001a0: 8567 d3be ea56 9c3e 77fa 653e 1ad2 b33e
000001b0: 51be 853d 2fb3 2bbe c9b0 993e fe09 343e
000001c0: 0065 ca3e acc0 20bd 6318 25be 64da 473e
000001d0: 21b4 2b3e 9aee ca3e d909 f83d 5ecc 60bd
000001e0: 111b 3b3e 74c7 6dbd 450d 9f3e b7c6 bdbd
000001f0: df5e 09bd 662c 44be 75a6 cebe e28a e9be
00000200: b984 17bf c52f 1fbf f813 7bbe f697 43be
00000210: 277d be3b 6fc3 483c b299 bfbe 05fe a63e
00000220: 0fcc 8d3e 7700 943e 6bc3 ba3e b638 3f3e
00000230: 8e77 ce3e 430f f53e 4023 a23e 5854 cd3e
00000240: d81f fe3e e22f c43c b333 993e 99e7 103f
00000250: 16c8 9c3e 1187 343e 2d6a 38be 65e5 05be
00000260: 23b3 fabd e20d 9a3d 8d71 dcbd baf7 8cbd
00000270: 9025 f53c 1a01 aa3d 6cfd 85bd 042f 91bd
00000280: b069 86bd f0e6 95bc 09c3 073e 70cf acbd
00000290: 328f f83d 586b 433d c3e4 383e cdaf 31be
000002a0: 92a0 943d db03 21be d5a3 23be b0b9 f2bc
000002b0: a3a9 debd 0e26 aa3d 187d 2fbd edff 9fbd
000002c0: 0a60 b2bd f086 3abe f21e f3bd 50b4 32bc
000002d0: f40c b3bb 17f6 1d3e 1068 c73d 64dd c83d
000002e0: eeff b2bc 6d30 093d add4 29be 7f3c f83d
000002f0: ba38 7abd e7de 25bd 1db5 abbc 55d2 133e
00000300: 4001 813d 6379 7fbd afaf 3c3e 98fa e43d
00000310: bc48 1dbe 2688 d1bd d901 03bd 27d8 e2bd
00000320: df05 33be 81c4 7fbd c116 1b3e e55d 283e
00000330: ca0c 58bd 4d87 c93d d0cb 33be bd59 7c3d
00000340: 0fd8 eabd e43e f53d 68f8 01be 4575 8dbc
00000350: 9266 03be b0aa 91bc 7db8 31be b770 32be
00000360: 5e02 ea3d fe81 b4bd 0f98 e33d ff06 21be
00000370: f2ec 953c 1bf6 f8bd b789 163e 0a58 2dbd
00000380: c682 8fbd 9081 b63d 80a6 983e d043 fa3e
00000390: 4edf ce3e ce7c c5bd 46a8 9e3e 8076 9a3e
000003a0: 7599 263f 4332 d53e 1b7d 103e daeb 33bc
000003b0: 3904 d23e c208 033f fb45 b33e 11f5 c53e
000003c0: 7f02 52be 16ce 263e fa54 203e 8357 f03e
000003d0: 26f2 d83e 9db9 4dbf 0d51 0cbf 8fb6 85be
000003e0: 7a09 513d 6415 573e bf95 a83e 7213 083f
000003f0: 971d 383e 2b2f e63e e336 433e d9c2 e13e

bias f4 [16]
-0.98701334 -0.009793045 0.46993205 -0.499482 -0.81043744 -0.29991412 -0.11302724 -0.19044015
-0.15716845 -1.2736247 0.72259825 0.86997753 -0.52287763 -0.67245597 -0.49704164 -0.58952665
00000000: e8ac 7cbf 0273 20bc ef9a f03e 1bbc ffbe
00000010: d478 4fbf 588e 99be d37a e7bd be02 43be
00000020: c4f0 20be 2206 a3bf 33fc 383f d9b6 5e3f
00000030: 4fdb 05bf 1326 2cbf 3e7c febe 38eb 16bf

weight f4 [16, 16, 5, 5]
0.13172221 0.17746174 0.046358556 -0.025603876 -0.0101718465 0.11721237 0.17050669 0.007699216
-0.17505544 -0.18585381 0.09362735 0.15151402 0.14061825 -0.099824436 -0.27803335 -0.014063611
0.15784998 0.23895761 0.00020314484 -0.41120073 -0.07288676 0.16062006 0.17841056 -0.124271244
-0.22686696 0.047543775 -0.028845616 -0.0034125608 -0.002659957 -0.01886348 0.0029928053 0.012953972
-0.043579746 -0.009721589 -0.0042489176 -0.04136105 -0.008986401 -0.0035647748 0.035656467 0.03137264
-0.009114427 -0.046036437 0.024247102 0.032584105 0.028556144 0.009365022 0.03602415 -0.03720158
-0.04549415 -0.007584815 -0.08432509 -0.03917258 0.022483915 0.08530964 0.08565362 -0.03248471
-0.027493712 -0.05430961 -0.010150715 0.034011737 -0.05286062 -0.00362988 -0.014303575 0.07108023
0.090543665 -0.02800711 -0.016294507 -0.05966789 -0.07239718 0.051215038 0.089524716 0.029823981
-0.038995422 -0.009971753 -0.022668647 0.11159137 0.03174383 -0.060655385 -0.096862726 -0.14402425
0.031095808 0.052109964 -0.03529879 -0.050147567 -0.10770903 0.088303566 0.07116427 0.01794698
-0.09873533 -0.14641605 0.07222309 0.2179458 0.04820263 -0.21663901 -0.2056029 0.053424917
0.03794672 -0.04657161 -0.014952165 0.012596358 0.15313654 0.078796044 0.021388693 -0.08203148
0.0031766838 0.12556809 0.19166636 0.042874068 -0.12905632 -0.13159755 0.049511973 0.11781667
0.17516258 -0.056616332 -0.15726379 0.0049565556 0.15517272 0.18266138 0.056919906 -0.2212816
-0.10265354 0.058013123 0.19393381 0.088326894 -0.07720514 0.16880015 0.03611873 -0.14604326
-0.2217109 -0.1529293 0.114722334 0.049282283 0.03951041 -0.13964413 -0.095068194 -0.008037859
0.102040365 0.17193894 -0.024578566 -0.07574607 0.029046923 0.17858072 0.17390871 -0.07148601
-0.25754288 -0.13481058 -0.12996925 0.0547786 0.13552228 0.1790806 -0.009714097 -0.022607941
-0.023381198 0.022512157 0.033242885 0.0051616244 0.019215744 0.043465856 -0.0010840818 0.02485292
0.00058944896 0.011603542 -0.0035435855 -0.0005894713 -0.012060642 -0.025301052 0.025318798 0.01181706
-0.014289189 0.002248846 -0.037633143 -0.020429587 -0.042240478 -0.03879819 0.0037513971 0.027323361
0.009452518 0.0072810603 0.027203767 -0.009674984 0.0006754852 -0.047629457 -0.045578774 -0.048642814
0.017633174 -0.027940018 0.017804097 0.04808954 -0.008993118 0.029172309 -0.021880938 -0.0020459716
0.034333475 -0.00715554 -0.029727312 0.02768401 -0.0134791415 0.014422083 -0.036323596 -0.0072643314
0.014827909 -0.046343148 -0.04556973 -0.040911388 -0.001843106 -0.043629374 -0.049929917 0.03279713
-0.03875368 -0.034200773 0.04958187 0.04058714 -0.008031495 -0.040347643 -0.006745875 0.03050435
-0.0024512224 -0.024688482 -0.008935381 -0.03801926 0.03165509 0.044375617 0.023773555 0.049343977
0.007684119 0.10029207 -0.07775004 -0.048540507 0.06613859 0.0042065247 0.22903168 0.22460228
-0.087010376 -0.27401444 -0.21056028 0.19420423 0.20857444 -0.04209885 -0.29834563 -0.15441453
0.32474685 0.3424096 0.0743146 -0.34384456 -0.46464673 0.16632918 0.42063257 0.3671519
-0.072668664 -0.47302854 -0.105615675 -0.12859868 -0.024695398 0.13137797 0.14652345 -0.08926158
00000000: 30e2 063e 88b8 353e 78e2 3d3d 38bf d1bc
00000010: d1a7 26bc 0a0d f03d 4e99 2e3e b449 fc3b
00000020: bc41 33be 7650 3ebe b2bf bf3d 7e26 1b3e
00000030: 3bfe 0f3e c170 ccbd 635a 8ebe 0f6b 66bc
00000040: 6da3 213e 4eb1 743e 4703 5539 e788 d2be
00000050: a745 95bd 9679 243e 42b1 363e ec81 febd
00000060: d04f 68be 43bd 423d a44d ecbc 45a5 5fbb
00000070: ac52 2ebb 9687 9abc f122 443b e63c 543c
00000080: ad80 32bd 4d47 1fbc 813a 8bbb 346a 29bd
00000090: b33b 13bc ff9e 69bb 840c 123d 9980 003d
000000a0: ad54 15bc b490 3cbd dca1 c63c e976 053d
000000b0: 93ee e93c c06f 193c 0f8e 133d af60 18bd
000000c0: 1358 3abd 0a8a f8bb a2b2 acbd 6d73 20bd
000000d0: 3030 b83c d2b6 ae3d 2a6b af3d b00e 05bd
000000e0: 7e3a e1bc c173 5ebd 2f4f 26bc e44f 0b3d
000000f0: 6184 58bd 48e3 6dbb 8b59 6abc 8392 913d
00000100: f56e b93d 2b6f e5bc 0f7c 85bc 5166 74bd
00000110: f944 94bd dcc6 513d bc58 b73d 6c51 f43c
00000120: aab9 1fbd 9060 23bc 99b3 b9bc 048a e43d
00000130: d105 023d c871 78bd f75f c6bd 187b 13be
00000140: a3bc fe3c 4271 553d 7795 10bd 8967 4dbd
00000150: 8d96 dcbd 80d8 b43d 93be 913d 8c05 933c
00000160: c035 cabd 17ee 15be b3e9 933d 2f2d 5f3e
00000170: 1f70 453d 9ed6 5dbe 9189 52be 16d4 5a3d
00000180: 056e 1b3d dfc1 3ebd edf9 74bc f460 4e3c
00000190: d3cf 1c3e d25f a13d 5737 af3c 1f00 a8bd
000001a0: e92f 503b ec94 003e 3044 443e b89c 2f3d
000001b0: 5727 04be 82c1 06be 11cd 4a3d de49 f13d
000001c0: d25d 333e 87e6 67bd c209 21be 9a6a a23b
000001d0: 99e5 1e3e 960b 3b3e d924 693d a597 62be
000001e0: 053c d2bd 2b9f 6d3d 9696 463e bbe4 b43d
000001f0: ba1d 9ebd f2d9 2c3e 3cf1 133d 5d8c 15be
00000200: 2f08 63be 8099 1cbe 8bf3 ea3d 38dc 493d
00000210: abd5 213d dffe 0ebe 1db3 c2bd 39b1 03bc
00000220: 8afa d03d c310 303e fd58 c9bc c120 9bbd
00000230: d0f3 ed3c dddd 363e 2015 323e 4267 92bd
00000240: a9dc 83be c90b 0abe a916 05be 865f 603d
00000250: 5ac6 0a3e e860 373e e027 1fbc 4a34 b9bc
00000260: ed89 bfbc 6a6b b83c b129 083d d822 a93b
00000270: 566a 9d3c 4109 323d c017 8eba 5a98 cb3c
00000280: 4085 1a3a c81c 3e3c 803b 68bb c086 1aba
00000290: 009a 45bc 2744 cfbc 5e69 cf3c 589c 413c
000002a0: 341d 6abc 6061 133b 3625 1abd f35b a7bc
000002b0: 5a04 2dbd daea 1ebd 00da 753b 3ed5 df3c
000002c0: bcde 1a3c f695 ee3b 6fda de3c d383 1ebc
000002d0: 0b13 313a 1b17 43bd cfb0 3abd b03d 47bd
000002e0: 7273 903c 77e2 e4bc e6d9 913c 8af9 443d
000002f0: df57 13bc c4fa ee3c a73f b3bc b515 06bb
00000300: 42a1 0c3d 0579 eabb b186 f3bc 94c9 e23c
00000310: 9ed7 5cbc 9a4a 6c3c 0dc8 14bd a109 eebb
00000320: c2f0 723c 50d2 3dbd 53a7 3abd b392 27bd
00000330: 6094 f1ba b7b4 32bd 5083 4cbd 4956 063d
00000340: 2ebc 1ebd 1c16 0cbd 5c16 4b3d b33e 263d
00000350: 8896 03bc 9243 25bd 800c ddbb 42e4 f93c
00000360: b0a4 20bb 803f cabc b465 12bc 15ba 1bbd
00000370: c5a8 013d 35c3 353d c2c0 c23c e91c 4a3d
00000380: 10cb fb3b ee65 cd3d 6a3b 9fbd 69d2 46bd
00000390: ab73 873d e3d6 893b 4887 6a3e 24fe 653e
000003a0: 7f32 b2bd 9f4b 8cbe 1d9d 57be 79dd 463e
000003b0: 8a94 553e d86f 2cbd c2c0 98be d81e 1ebe
000003c0: 3845 a63e 5050 af3e 4132 983d 650c b0be
000003d0: 2de6 edbe 3252 2a3e 275d d73e 55fb bb3e
000003e0: 4fd3 94bd cc30 f2be 084d d8bd 5faf 03be
000003f0: 014e cabc f287 063e 3e0a 163e c6ce b6bd

bias f4 [16]
-0.053948916 0.040586952 0.076314874 0.11300294 -0.043363314 -0.01721465 -0.011607979 0.008363596
-0.04729126 -0.11409185 -0.23903656 -0.12942514 0.015783058 -0.09433912 0.038696196 -0.07740597
00000000: 8af9 5cbd 813e 263d f94a 9c3d 166e e73d
00000010: bb9d 31bd bd05 8dbc 652f 3ebc 7707 093c
00000020: 7bb4 41bd fda8 e9bd 00c6 74be 0688 04be
00000030: 794b 813c de34 c1bd e77f 1e3d 0587 9ebd

weight f4 [120, 400]
-0.072599106 0.11297954 0.07649501 0.015440192 -0.28610468 0.16105993 -0.12573096 -0.09386157
-0.1481365 0.21358328 0.15685523 -0.02990444 -0.080631204 -0.19192713 0.16175866 -0.018147305
0.12225374 0.0063742762 0.07590558 0.10267627 -0.037000496 -0.12704635 0.046136376 0.042327374
-0.11169956 -0.08082955 -0.0381841 0.04561334 -0.04171643 -0.006967867 -0.045169573 -0.054079615
-0.031150378 0.05456731 -0.049062807 -0.03953153 0.015494672 -0.04137328 -0.18559644 -0.21115929
-0.007902533 0.08544116 0.030234054 -0.0029109037 0.09572966 0.010521024 -0.010452506 -0.11882721
0.0010834122 -0.089366026 -0.11304377 0.11744236 0.07811382 -0.04254286 -0.093483575 -0.12856624
-0.18151702 -0.1662041 -0.009635153 0.10093188 0.051353127 0.1325832 -0.060708955 -0.058912024
-0.0065969555 0.06184119 -0.009926895 -0.062817544 0.1624704 0.16758253 0.06711374 -0.09333017
-0.14912966 -0.08995917 -0.18357514 -0.061095104 0.0032055732 0.010501653 0.052404363 -0.104479834
-0.113452636 0.29369932 0.18120329 -0.026617883 -0.033590574 -0.15445554 0.030345432 -0.092474364
-0.07992223 0.13902983 -0.13608482 -0.14935036 -0.21188402 -0.012146756 0.035976227 -0.021150768
-0.0045450483 0.024702575 0.007659875 -0.024184251 0.009488024 -0.01898237 0.0014127865 -0.016384732
0.002113223 0.006466735 0.023554955 -0.015563805 0.021329638 -0.012055844 0.02530777 0.008291219
0.029348869 0.030582843 0.04411732 -0.030739784 0.01777662 0.032845054 0.003031034 0.033199657
-0.021133984 0.0021566078 0.03688884 0.022742663 -0.02077589 0.04175971 0.04239174 -0.034889944
0.025643911 0.023534395 0.028932827 0.048748415 0.02694083 -0.025207901 0.030563915 -0.037069704
-0.008402201 -0.018638792 -0.040026274 0.04961118 -0.012214173 -0.035716098 0.046800885 0.033675887
-0.047348887 0.012179038 0.04479983 -0.008494102 0.007420266 0.023841424 0.01582225 0.025489092
-0.020400733 -0.026174594 -0.028285703 -0.00889092 -0.036721054 -0.04542632 -0.014116303 -0.0032669685
-0.019142024 0.021265052 0.032165963 0.040777795 0.03763252 0.026250513 0.03528777 0.038205434
-0.024550032 -0.029209936 -0.019995075 -0.010409327 0.012089193 -0.0006592647 0.043956313 -0.024993943
0.00440849 -0.029665489 0.03644762 -0.010310721 -0.028947754 0.024234865 0.014943566 0.006651871
0.033509243 -0.037733767 -0.02397641 0.04906312 -0.047308385 0.020514537 0.04345273 -0.049545463
0.03132769 -0.04058954 0.046795797 -0.027023906 -0.005259324 0.022624139 0.021460924 0.0036086328
-0.04794843 0.0038654394 -0.018935472 -0.009458214 -0.00020698458 -0.013451625 -0.007758934 -0.048085798
0.045907553 -0.005435623 0.038214955 0.033899132 0.03201567 -0.032672614 0.033984285 -0.011203755
-0.035072863 -0.037591983 -0.034741748 -0.012735419 0.033408318 -0.023152906 0.00089422613 -0.039780825
-0.032956377 2.2151593e-05 -0.032420292 0.032912694 0.2168918 0.10661477 -0.009394563 0.1028019
-0.010243906 -0.11498174 -0.03690359 -0.1362718 -0.21318065 -0.2139823 -0.01503072 0.083723195
-0.12440743 -0.11763838 -0.12843217 -0.10592309 -0.15410875 -0.00868834 -0.06870836 0.0031325042
0.039056927 0.09482328 -0.046829473 -0.033099823 0.096040055 0.1023864 0.06769866 -0.07321877
00000000: d7ae 94bd d161 e73d 6aa9 9c3d dcf8 7c3c
00000010: 507c 92be e5ec 243e 9ebf 00be 7f3a c0bd
00000020: 18b1 17be 93b5 5a3e a89e 203e 28fa f4bc
00000030: f921 a5bd 8c88 44be 10a4 253e a8a9 94bc
00000040: 2b60 fa3d 4edf d03b 6274 9b3d f047 d23d
00000050: d58d 17bd 7018 02be 7ff9 3c3d 785f 2d3d
00000060: bdc2 e4bd f789 a5bd ee66 1cbd 0ed5 3a3d
00000070: d9de 2abd b452 e4bb bb03 39bd 9682 5dbd
00000080: 142f ffbc f981 5f3d 15f6 48bd d0eb 21bd
00000090: 5ddd 7d3c 0777 29bd fe0c 3ebe 243a 58be
000000a0: a079 01bc c6fb ae3d 68ad f73c dcc4 3ebb
000000b0: e90d c43d 6060 2c3c fd40 2bbc ae5b f3bd
000000c0: 4801 8e3a 8905 b7bd 7e83 e7bd 9f85 f03d
000000d0: 23fa 9f3d 6c41 2ebd 5174 bfbd dea6 03be
000000e0: 99df 39be 6831 2abe c3dc 1dbc 60b5 ce3d
000000f0: a857 523d e4c3 073e f4a9 78bd bc4d 71bd
00000100: 462b d8bb 304d 7d3d 6aa4 22bc 7ca6 80bd
00000110: a45e 263e c19a 2b3e ee72 893d e323 bfbd
00000120: 72b5 18be 833c b8bd 1ffb 3bbe dc3e 7abd
00000130: 9814 523b 200f 2c3c f5a5 563d 86f9 d5bd
00000140: db59 e8bd c25f 963e 5b8d 393e bf0d dabc
00000150: 4596 09bd 9829 1ebe fc96 f83c 3363 bdbd
00000160: 44ae a3bd d65d 0e3e d259 0bbe 4def 18be
00000170: 20f8 58be 3003 47bc cf5b 133d 6044 adbc
00000180: a1ee 94bb 0e5d ca3c b0ff fa3b 0d1e c6bc
00000190: a873 1b3c ea80 9bbc 402d b93a 4639 86bc
000001a0: 007e 0a3b e8e6 d33b 52f6 c03c 54ff 7ebc
000001b0: 7ebb ae3c e085 45bc 3e52 cf3c e5d7 073c
000001c0: 0a6d f03c df88 fa3c 5db4 343d 00d2 fbbc
000001d0: 46a0 913c 8988 063d 50a4 463b 5dfc 073d
000001e0: 2d21 adbc e055 0d3b c118 173d d24e ba3c
000001f0: 3332 aabc 3b0c 2b3d f6a2 2d3d c2e8 0ebd
00000200: 2e13 d23c 34cb c03c 8904 ed3c 6bac 473d
00000210: 04b3 dc3c cd80 cebc 2d61 fa3c 67d6 17bd
00000220: 63a9 09bc 61b0 98bc 97f2 23bd 1835 4b3d
00000230: f41d 48bc 0b4b 12bd 49b2 3f3d baef 093d
00000240: e8f0 41bd 968a 473c 0780 373d d92a 0bbc
00000250: b425 f33b 174f c33c aa9d 813c 80ce d03c
00000260: 701f a7bc 1a6c d6bc 6bb7 e7bc 39ab 11bc
00000270: d168 16bd f310 3abd 1148 67bc a31a 56bb
00000280: bccf 9cbc 0c34 ae3c 75c0 033d 9e06 273d
00000290: 8f24 1a3d 510b d73c e989 103d 4d7d 1c3d
000002a0: 261d c9bc ad49 efbc b6cc a3bc e28b 2abc
000002b0: c011 463c 81d2 2cba 890b 343d 19c0 ccbc
000002c0: 1875 903b 0a05 f3bc 194a 153d 4cee 28bc
000002d0: d723 edbc 3288 c63c dcd5 743c f0f7 d93b
000002e0: fd40 093d b98e 1abd 2d6a c4bc 69f6 483d
000002f0: 70c6 41bd 1a0e a83c 7dfb 313d 2ff0 4abd
00000300: 7751 003d 3841 26bd f3ac 3f3d 3d61 ddbc
00000310: 6856 acbb 4256 b93c d2ce af3c d07e 6c3b
00000320: 9365 44bd 5053 7d3b 901e 9bbc a0f6 1abc
00000330: 000a 59b9 3464 5cbc a83e febb 9df5 44bd
00000340: 8f09 3c3d 501d b2bb 4987 1c3d d1d9 0a3d
00000350: dd22 033d b8d3 05bd 1b33 0b3d f48f 37bc
00000360: 90a8 0fbd 0dfa 19bd 5d4d 0ebd 38a8 50bc
00000370: 29d7 083d 2aab bdbc 806a 6a3a 38f1 22bd
00000380: 44fd 06bd 2fd2 b937 24cb 04bd 76cf 063d
00000390: e218 5e3e d858 da3d a7eb 19bc cd89 d23d
000003a0: 0ed6 27bc 8c7b ebbd 3828 17bd d68a 0bbe
000003b0: 074c 5abe 2d1e 5bbe 6943 76bc 1177 ab3d
000003c0: 53c9 febd 64ec f0bd b983 03be 34ee d8bd
000003d0: afce 1dbe 8a59 0ebc f8b6 8cbd b34a 4d3b
000003e0: 28fa 1f3d b532 c23d 43d0 3fbd ae93 07bd
000003f0: a6b0 c43d f6af d13d 98a5 8a3d b9f3 95bd

bias f4 [120]
-0.04075561 -0.0309716 0.043333896 -0.0139820175 -0.022384476 0.024723805 0.048424195 -0.013289862
0.005222682 0.053835217 -0.028142063 -0.030338407 -0.017143125 0.0028536129 0.014998275 -0.05367215
-0.030325526 0.0250936 0.0135439085 -0.012813831 -0.013114595 -0.014703617 -0.02194169 0.07318303
0.036161907 0.0031940807 0.009878341 0.018505273 0.03752263 0.0017639508 0.02141264 0.04254637
0.028440902 -0.047964707 -0.049287256 -0.07177116 0.042171035 -0.002830407 0.024706045 0.011097987
0.08671851 0.043806463 -0.03749027 0.043880876 0.010185754 0.03007463 0.008693826 -0.02146872
-0.017424861 0.059554074 0.015082608 -0.046327177 -0.03412282 0.003437374 0.022714574 0.0069099334
-0.011289342 -0.011117718 -0.043360744 -0.025420366 0.038398422 0.026530154 -0.053432584 0.027568823
0.06338516 -0.0032323203 -0.036907826 -0.02469844 -0.04790212 -0.027526444 0.09425922 -0.04677287
0.038137905 0.033768926 -0.023670351 -0.010927914 0.009527259 -0.0135377925 0.03103979 -0.008363054
-0.019740552 -0.025957331 0.034366578 0.040819857 0.046758763 -0.025821734 -0.034409065 0.033860788
-0.020922761 -0.014274022 0.056542102 0.030807441 0.013352834 0.09774371 -0.040818147 -0.020340504
-0.024302749 -0.03515651 -0.02279214 -0.007633563 -0.008334892 -0.017970957 0.05676454 -0.022250231
-0.054675337 0.053834368 0.020552699 -0.038071267 0.020781765 0.0028518445 0.081406176 0.0068153404
0.0018779687 0.07977224 0.082099564 -0.008785129 0.00064876885 -0.018936554 -0.04390349 -0.026836757
00000000: 5bef 26bd 27b8 fdbc e27e 313d d514 65bc
00000010: a65f b7bc 9489 ca3c 7358 463d b9bd 59bc
00000020: 0823 ab3b 5182 5c3d 2f8a e6bc 4088 f8bc
00000030: bd6f 8cbc ae03 3b3b 53bb 753c 54d7 5bbd
00000040: 3d6d f8bc 1891 cd3c 45e7 5d3c 1af1 51bc
00000050: 99de 56bc 71e7 70bc 0fbf b3bc fce0 953d
00000060: 821e 143d c853 513b c4d8 213c 5f98 973c
00000070: 54b1 193d 5e34 e73a 9069 af3c 1a45 2e3d
00000080: e5fc e83c a476 44bd 6fe1 49bd c2fc 92bd
00000090: 89bb 2c3d 597e 39bb 5564 ca3c 55d4 353c
000000a0: 7999 b13d 686e 333d 668f 19bd 6fbc 333d
000000b0: 26e2 263c 125f f63c 8d70 0e3c 2bdf afbc
000000c0: 95be 8ebc f9ee 733d 0b1d 773c 91c1 3dbd
000000d0: 5fc4 0bbd 9145 613b ea13 ba3c b96c e23b
000000e0: eff6 38bc 1727 36bc 099b 31bd 5f3e d0bc
000000f0: aa47 1d3d c455 d93c 20dc 5abd 03d8 e13c
00000100: 14d0 813d 56d5 53bb a92c 17bd 6254 cabc
00000110: 0335 44bd 237f e1bc fa0a c13d e994 3fbd
00000120: 7e36 1c3d 4951 0a3d 53e8 c1bc fe0a 33bc
00000130: 3818 1c3c 9ecd 5dbc 2847 fe3c 3105 09bc
00000140: f0b6 a1bc 78a4 d4bc f8c3 0c3d b932 273d
00000150: 1e86 3f3d 1a88 d3bc 85f0 0cbd 9cb1 0a3d
00000160: 3666 abbc 96dd 69bc b198 673d e35f fc3c
00000170: d8c5 5a3c db2d c83d ee30 27bd 21a1 a6bc
00000180: 8f16 c7bc 4600 10bd 95b6 babc f822 fabb
00000190: 128f 08bc d437 93bc ef81 683d 1e46 b6bc
000001a0: 3ff3 5fbd 6d81 5c3d 225e a83c 9ef0 1bbd
000001b0: 853e aa3c 03e6 3a3b 48b8 a63d 3853 df3b
000001c0: 2c26 f63a a15f a33d d123 a83d 80ef 0fbc
000001d0: 2412 2a3a d520 9bbc 25d4 33bd c2d8 dbbc

weight f4 [36, 120]
-0.08257041 -0.08163087 -0.20424025 0.07983433 -0.0019572997 -0.08234271 0.05825711 -0.039989304
-0.04084991 -0.06537131 0.05853619 0.047490712 0.04743909 0.020935848 0.075134434 0.04829999
0.08006983 0.073657535 0.040896155 -0.030630924 0.008600905 0.08288565 -0.038202148 -0.15348814
0.01943793 0.007019863 0.015028088 -0.004170775 -0.21162805 -0.056420833 0.00021875952 -0.007237477
-0.07936242 0.060514815 -0.013708096 0.0054723723 0.0048087314 -0.089386195 0.012598054 -0.0058588358
-0.06853043 -0.07469343 -0.07064739 -0.13870823 -0.06711835 -0.05285659 -0.25426474 0.0795424
0.0517588 -0.11347798 0.05783029 -0.049646135 0.016002117 0.007886002 -0.042977307 0.040046263
0.037333675 -0.05154454 0.06600262 0.07572894 -0.08698608 -0.090787545 0.056047667 -0.019658934
0.060254343 0.01647093 0.07212675 0.06468636 -0.007431922 -0.038217075 -0.12111101 0.05981894
0.004117851 -0.08345995 0.016967176 0.08699059 -0.011788706 0.017735926 0.015546957 0.015959423
-0.10732489 -0.14400396 -0.0024698689 -0.003105474 -0.026889442 0.03128863 -0.021220716 -0.17460644
0.08088163 0.043126687 -0.122000575 -0.08268578 0.04773275 -0.1728829 -0.0883917 0.021985978
-0.059189565 0.074569665 0.018911924 -0.014776106 -0.1222325 -0.09080082 -0.1267363 -0.05601841
-0.03695105 0.08925655 -0.091389544 0.006084271 0.066108495 0.07728844 0.029880954 0.083202876
0.06010257 -0.18075301 -0.0155078275 -0.09108133 0.0010062006 -0.0761287 -0.007606145 0.014299134
-0.019956075 -0.0069047324 -0.23778547 0.049595177 -0.009267402 -0.07968579 -0.03359993 -0.15847927
-0.002198109 -0.07204716 0.055856094 0.07098702 0.0075226333 -0.04001925 0.049059246 -0.033105053
0.025940798 0.03721718 0.07216749 -0.09274136 0.05950733 0.004500339 -0.12527941 -0.05793403
0.020008704 -0.0364384 -0.019014765 0.030875664 -0.1687089 0.00032162305 -0.09705157 0.03604952
-0.0725903 -0.012945849 0.06570537 -0.0865409 0.03325482 0.014159957 0.051276166 -0.017744625
-0.04794631 0.06410557 -0.078439735 -0.23771288 0.04205472 -0.1355384 -0.122515194 0.035758916
-0.06011748 -0.12210414 -0.07367982 -0.032567088 0.04890615 -0.042344965 -0.08121713 -0.109474204
0.08227974 0.038767897 -0.030888729 -0.056770235 -0.03007383 0.07581573 -0.05998689 -0.08962945
0.0242701 0.013397415 -0.03064611 0.08514863 0.082599886 -0.037157368 -0.14308456 0.02507002
-0.071162425 -0.047016356 -0.056071073 -0.042157788 0.052809108 -0.07818717 0.030459385 -0.026167639
0.0046632322 -0.11540401 -0.02249586 -0.054963235 0.0681599 0.08609646 0.0632002 -0.09214512
-0.085544996 -0.022599684 -0.24373162 0.068712726 0.07992331 -0.2113164 0.0520568 0.052114885
-0.07869628 0.06629201 0.008549658 -0.087091036 0.018093769 0.055312935 -0.10294353 0.037870303
0.035497427 0.045618415 -0.09569146 0.00024395004 0.08126845 -0.015370012 0.06479713 0.0014241678
-0.00048196703 -0.19101173 0.020396441 0.06309288 -0.0047033825 0.086676516 0.016291121 0.029338935
-0.034497175 -0.23960206 0.33086634 -0.020361824 -0.02422529 -0.0145260235 -0.09893118 0.0422636
0.14753906 -0.015231257 -0.046792693 0.09396376 -0.13738084 0.11649513 -0.03953103 0.22823042
00000000: ad1a a9bd 162e a7bd 5b24 51be 2e80 a33d
00000010: 0a46 00bb 4ba3 a8bd 029f 6e3d d3cb 23bd
00000020: 3c52 27bd 65e1 85bd a5c3 6f3d 9f85 423d
00000030: 7e4f 423d a881 ab3c 15e0 993d 36d6 453d
00000040: a7fb a33d c3d9 963d ba82 273d b4ed fabc
00000050: cfea 0c3c f4bf a93d db79 1cbd ff2b 1dbe
00000060: 4b3c 9f3c e106 e63b 5f38 763c ffaa 88bb
00000070: 06b5 58be 8819 67bd d062 6539 5c28 edbb
00000080: c488 a2bd 62de 773d ec97 60bc 9651 b33b
00000090: 9092 9d3b 1c10 b7bd 1168 4e3c 7afb bfbb
000000a0: af59 8cbd def8 98bd 94af 90bd 8809 0ebe
000000b0: 5875 89bd 2780 58bd fd2e 82be 20e7 a23d
000000c0: 0901 543d 2567 e8bd 74df 6c3d bf59 4bbd
000000d0: df16 833c 4a34 013c f908 30bd 8d07 243d
000000e0: 32eb 183d 5e20 53bd 622c 873d c617 9b3d
000000f0: c225 b2bd d2ee b9bd 3d92 653d c60b a1bc
00000100: 42cd 763d 0bee 863c 31b7 933d 487a 843d
00000110: 7b87 f3bb 8289 1cbd 0d09 f8bd b404 753d
00000120: 0aef 863b 0ded aabd bffe 8a3c 1f28 b23d
00000130: 6b25 41bc ef4a 913c aab8 7e3c 56bd 823c
00000140: 27cd dbbd c675 13be 86dd 21bb 3585 4bbb
00000150: 3f47 dcbc 8228 003d 11d7 adbc 08cc 32be
00000160: 45a5 a53d 9ca5 303d 70db f9bd 2a57 a9bd
00000170: 6b83 433d 3708 31be b506 b5bd f01b b43c
00000180: c270 72bd fbb7 983d 2eed 9a3c 7b17 72bc
00000190: 0855 fabd c8f5 b9bd 29c7 01be 8f73 65bd
000001a0: fc59 17bd 23cc b63d 712a bbbd 905e c73b
000001b0: e463 873d 6749 9e3d e7c8 f43c 4566 aa3d
000001c0: 1d2e 763d 5117 39be 8b14 7ebc d988 babd
000001d0: 7de2 833a 5de9 9bbd f83c f9bb ea46 6a3c
000001e0: ec7a a3bc 1841 e2bb 097e 73be 5024 4b3d
000001f0: 4dd6 17bc 4e32 a3bd 15a0 09bd 6448 22be
00000200: 260e 10bb 768d 93bd 5cc9 643d a561 913d
00000210: 6c80 f63b 3aeb 23bd 59f2 483d 2a99 07bd
00000220: cc81 d43c 0b71 183d 8dcc 933d 2fef bdbd
00000230: f5bd 733d 9477 933b 3f49 00be 3c4c 6dbd
00000240: 4be9 a33c 6f40 15bd dac4 9bbc f6ee fc3c
00000250: 07c2 2cbe 849f a839 f9c2 c6bd a9a8 133d
00000260: 39aa 94bd d41a 54bc 8990 863d 5b3c b1bd
00000270: 3536 083d 2aff 673c f506 523d 2d5d 91bc
00000280: 5a63 44bd c849 833d 03a5 a0bd 016b 73be
00000290: 9241 2c3d 94ca 0abe 3fe9 fabd f177 123d
000002a0: bf3d 76bd bc11 fabd 72e5 96bd 1165 05bd
000002b0: d151 483d ea71 2dbd 2b55 a6bd 0334 e0bd
000002c0: 4882 a83d 16cb 1e3d 5c0a fdbc e887 68bd
000002d0: 655d f6bc 4745 9b3d d0b4 75bd a58f b7bd
000002e0: 17d2 c63c d580 5b3c 8d0d fbbc 6862 ae3d
000002f0: 212a a93d 5332 18bd c284 12be a55f cd3c
00000300: 9bbd 91bd 3994 40bd c8aa 65bd a5ad 2cbd
00000310: 5d4e 583d 9820 a0bd f685 f93c 845d d6bc
00000320: 07ce 983b f058 ecbd 3d49 b8bc 2121 61bd
00000330: 6b97 8b3d 5753 b03d 1b6f 813d 95b6 bcbd
00000340: 3732 afbd f922 b9bc c894 79be 42b9 8c3d
00000350: d5ae a33d 5463 58be 8339 553d 6b76 553d
00000360: 842b a1bd 1bc4 873d dd13 0c3c c95c b2bd
00000370: 6239 943c d18f 623d 0fd4 d2bd e41d 1b3d
00000380: c065 113d 60da 3a3d e2f9 c3bd d7cc 7f39
00000390: 1370 a63d 81d2 7bbc 5cb4 843d 24ab ba3a
000003a0: 85b0 fcb9 9498 43be 7016 a73c d736 813d
000003b0: d51e 9abb 7583 b13d f574 853c 3558 f03c
000003c0: e94c 0dbd 3e5a 75be 5067 a93e d7cd a6bc
000003d0: 1e74 c6bc 8ffe 6dbc 6e9c cabd 991c 2d3d
000003e0: 7b14 173e 868c 79bc b2a9 3fbd 1270 c03d
000003f0: 90ad 0cbe 0095 ee3d 4aeb 21bd 3cb5 693e

bias f4 [36]
-0.14183453 -0.09773593 0.018503789 0.08359402 -0.038381178 -0.1684569 -0.09681225 -0.041382354
-5.2623777e-06 -0.028692853 0.010825329 0.060958143 0.04429398 -0.07048823 -0.006972209 0.019561814
0.08065937 -0.03553921 -0.07849988 0.081704 -0.004313385 -0.077453196 0.13193862 0.0512461
-0.13957554 -0.0146320425 -0.15034229 0.043677416 0.076881826 -0.01416405 -0.047149874 0.06651357
0.15268275 -0.15499592 0.06428321 -0.0059614494
00000000: 123d 11be c629 c8bd 4295 973c 5733 ab3d
00000010: 9535 1dbd f77f 2cbe 8045 c6bd 8b80 29bd
00000020: 7b93 b0b6 460d ebbc b95c 313c 3faf 793d
00000030: 9b6d 353d 225c 90bd 2177 e4bb 1940 a03c
00000040: bd30 a53d 9091 11bd 8cc4 a0bd 6d54 a73d
00000050: 4c57 8dbb c89f 9ebd eb1a 073e 6ee7 513d
00000060: e4ec 0ebe 3cbb 6fbc 54f3 19be 17e7 323d
00000070: 3874 9d3d 5510 68bc 3a20 41bd 4438 883d
00000080: de58 1c3e 40b7 1ebe eaa6 833d 4358 c3bb
