model/(60)-net.pkl (torch_old, 254784 bytes, 8 tensors)

weight f4 [16, 1, 5, 5]
00000000: dd52 543d 0e11 043e 0ac0 8ebd 8f39 8d3d
00000010: e534 18be 9612 1e3d c266 7b3d 7e69 d2bd
00000020: 29cb 1abe e65e 293e 7603 d4bd 1d62 c83d
00000030: 10fb 643d 43d8 81bd 9f7e 29be 1fac 293e
00000040: 22a3 00be b1c4 123e c401 b3bd 8efd 0ebe
00000050: 9250 b7bd ba01 d13c b497 12bd f2b2 fd3d
00000060: 3d50 11be daa2 9c3d 3a6e 9d3d 05f8 db3d
00000070: a058 fcbd 1c04 f23c b6f4 14be f8c8 09bd
00000080: 2fdd 633e 9a78 fb3d bfc6 b1bc a994 51be
00000090: 7416 2d3e 8214 23be c8c3 2b3e e428 16be
000000a0: 12b7 76be 5fe9 41be 903d 27bd 8966 55bc
000000b0: 0d8d e23d a023 5ebd bfa9 45bd 4010 d63d
000000c0: c456 ecbd 7ce0 4b3e 40ff 023f c1a4 0f3f
000000d0: 5227 123f 0c5d e83e 7613 cb3e 97f0 953e
000000e0: 0b8f d23e 61d3 fb3e 8a7b 443e 41f5 693e
000000f0: efbc 813d 4f6a 1b3d 77e3 d73e 0b76 943d
00000100: 1cd5 803e c1b3 6fbe f429 c6bc 420e 9cbe
00000110: a18a 7abd f4c0 98be 6aef c8be 5f6e e7be
00000120: 730c 8bbe b71e c1be 4a19 0ebf 06b6 133f
00000130: fe8e 2c3f a04b 0c3f b41a 1c3f edc2 a93e
00000140: 9e3d b83e cca2 d73e ee49 933e 40ca b03e
00000150: 7eb6 95bd 25cb d83e 738e 783e ed07 12be
00000160: 3252 b9be 3567 cbbe 4a2d 063c 3ec2 45be
00000170: 05d6 08bf 6280 07bf 37cc 2bbf 4279 65bc
00000180: cbd2 2fbe 369b 1bbf 9aa0 1bbf 5912 1fbf
00000190: 63fa e8be 04eb 30bd fb77 163e bff4 1f3e
000001a0: 3b80 7bbe 76d2 c5bc 42c5 dd3e 2ea3 d93e
000001b0: 451a c43e 1244 e93e 9523 6e3e 554a 073f
000001c0: b893 143f 2f7a 213f 86d3 2d3e 8f8f 213e
000001d0: d89a 0d3f cb00 143f 92d7 213f 7c12 1b3e
000001e0: 28bd 63bd aa2d 563e 8724 b43e a00f 3c3e
000001f0: e2d0 38bd ddd1 1abd 3d04 d43d 00ce 003e
00000200: 3a72 593c 0787 00be 77c5 a2bd b462 16bd
00000210: 9665 1b3e f8c8 c63d f499 1cbe 1805 b1bc
00000220: e900 25be 0d92 d9bd 1bc9 cb3d 1366 b83b
00000230: ba95 7dbd 563f edbd 7fef d93d 71ac 92bd
00000240: 6c94 23be 2dc1 f9bd f11e 39be 6ae7 183e
00000250: e4f9 c2bc 4203 06be c5e4 82bd c2d1 46bc
00000260: c3f1 2abe 3f3c 03be 27bd 22be 015e 5a3e
00000270: 6b09 813c b81a 7dbc 2150 16be f861 47be
00000280: 9149 193e 7761 db3d e833 5bbd 0268 3abe
00000290: 1ff0 cc3d 65dd 6a3d 1551 bfbd 4e4d 2fbe
000002a0: 782a b8bd 328b 9abd 922e d73d 6c0b 713d
000002b0: 4e39 003d 9e10 673e a19c 80bd 0afc 9d3e
000002c0: 9e90 223e 9b84 6d3e 9ed7 28bc fd95 18be
000002d0: f2a2 b43e 9e3c fe3d cf18 203d 90c5 453d
000002e0: bba7 96be a144 b73d ccf7 953e 303d 813d
000002f0: 52d2 39be 454c bdbe d825 02be f9ab 483e
00000300: 7a65 9c3d 420f 2dbd 7437 03be faed ae3d
00000310: 6377 53be 33c7 8b3d b823 60bd 5331 153e
00000320: fb28 49be 20fe 5dbd d100 39be 3c8d 3dbd
00000330: fd14 723d f777 4a3e b31a 1fbd 378c 2d3d
00000340: 5d95 72bd 7464 e63d 77f0 13be 3984 633c
00000350: 1dcf 423e 459b 5a3b 279c 393e 76da 27be
00000360: bbeb 1d3d 0161 ecbd 5282 1bbd 380a 103e
00000370: 5e3c 21be 9553 f3bd 2738 a43a 7316 1dbd
00000380: 218f 0c3e ae45 a33c 527e 483e 6d8a 813d
00000390: ef63 acbd 59c8 5cbd 1912 d9bd 020e 98bc
000003a0: 02ef 43bd 9cbf 953c c078 40be e39a f73d
000003b0: 193d ef3d bf32 05be a2bf 0bbe 06eb 15bc
000003c0: 9ba9 81bd bdbe 6abb 64c6 1abe 360c cf3b
000003d0: 5def 753d f857 d93c 5b00 48bd d16b 3cbd
000003e0: 38eb 10be a16d 8bbd a886 97bd 8415 883e
000003f0: ff86 f43e 987f 9b3e 8640 923e 96be 7f3e
0.051836837 0.12897131 -0.06970222 0.06895744 -0.14863928 0.038591944 0.061377294 -0.10274027
-0.15116562 0.16540107 -0.103522226 0.097843386 0.055903494 -0.06340077 -0.16552208 0.16569565
-0.1256223 0.14332844 -0.08740571 -0.13963911 -0.089509144 0.025513519 -0.035789207 0.12387647
-0.14190765 0.07648249 0.0768704 0.10740665 -0.123215914 0.029542975 -0.14546475 -0.033638924
0.22252344 0.12278862 -0.021701215 -0.20466866 0.16903096 -0.15925792 0.16773903 -0.14664036
-0.24093273 -0.1893668 -0.040830195 -0.013024935 0.110620596 -0.054233193 -0.048257586 0.10452318
-0.11539987 0.19909853 0.5117073 0.5611077 0.5709125 0.4538349 0.39663285 0.29285118
0.41124758 0.49184707 0.19187751 0.22847463 0.06334864 0.03794318 0.4216573 0.072490774
0.2516259 -0.23408414 -0.024189927 -0.30479628 -0.061167363 -0.29834712 -0.39245158 -0.45201394
-0.27157936 -0.37718746 -0.5550734 0.5769962 0.6740569 0.54802895 0.60978246 0.3315653
0.3598451 0.42116392 0.2876734 0.34529305 -0.07310198 0.42342487 0.2427309 -0.14260836
-0.36195523 -0.39727178 0.008189509 -0.19312379 -0.5345157 -0.5293027 -0.6710848 -0.014005961
-0.17170255 -0.6078371 -0.60791934 -0.6213737 -0.4550353 -0.04319288 0.14694206 0.15620707
-0.24560635 -0.024148207 0.43314558 0.4250731 0.38301292 0.45559746 0.23255761 0.52847797
0.580379 0.6307706 0.16975221 0.1577742 0.553144 0.5781371 0.6321956 0.1514377
-0.055600315 0.20915857 0.35184118 0.18365335 -0.04512108 -0.037797797 0.10352371 0.12578583
0.013271863 -0.12551509 -0.0794782 -0.036715224 0.1517547 0.097063005 -0.15293103 -0.021608874
-0.16113628 -0.1062356 0.09950467 0.0056274026 -0.06191037 -0.11584346 0.106413834 -0.07161797
-0.15974587 -0.121950485 -0.1807821 0.14932027 -0.023800798 -0.1308718 -0.063912906 -0.012134971
-0.16693787 -0.12815951 -0.15892468 0.21324922 0.015751561 -0.015448265 -0.14679004 -0.19470966
0.1496947 0.10711949 -0.0535163 -0.18203738 0.10006737 0.057340045 -0.09341637 -0.17119333
-0.08992475 -0.07546081 0.105069295 0.058848783 0.03130465 0.22564933 -0.062798746 0.30856353
0.1587548 0.23195116 -0.010305313 -0.14900966 0.35280567 0.124139056 0.03908616 0.048284113
-0.29424843 0.08948637 0.29290617 0.06310499 -0.18146637 -0.36972252 -0.12709749 0.19596852
0.076365426 -0.04225088 -0.12814122 0.08541484 -0.20651011 0.068251036 -0.054721564 0.14569597
-0.19644539 -0.05419743 -0.18066718 -0.04627727 0.059102047 0.19772325 -0.03884382 0.042370047
-0.059224475 0.11249629 -0.14447199 0.013886505 0.1902432 0.0033356708 0.18125974 -0.1639193
0.03855489 -0.115419395 -0.03796608 0.14066398 -0.15745685 -0.118811764 0.0012528942 -0.038351487
0.13726474 0.019930687 0.19579437 0.06325231 -0.08417498 -0.053902004 -0.10599155 -0.018561367
-0.047835357 0.018279843 -0.18796062 0.12090089 0.11681575 -0.1300764 -0.13647321 -0.009150272
-0.06331178 -0.0035819255 -0.15114743 0.0063185943 0.060042728 0.026531205 -0.048828464 -0.04600126
-0.14152229 -0.068080194 -0.073987305 0.26578915 0.47759244 0.30370784 0.28564852 0.24975047

bias f4 [16]
00000000: 3bdb efbd 47e2 553e a7e4 dabe 1511 303f
00000010: 56b4 ccbf 18ac 97bd 20db 7b3e 87c8 82be
00000020: 58fc e3bc b5f2 e5bd c7c5 aabe 8503 af3d
00000030: baea 9dbf 80cc 8b3e 74ce e3bc 24b5 6cbd
-0.11711737 0.20887099 -0.42752573 0.68776065 -1.5992534 -0.07405871 0.24595308 -0.25543615
-0.027830288 -0.11227933 -0.33354017 0.08545593 -1.2337258 0.2730446 -0.027808405 -0.057789937

weight f4 [16, 16, 5, 5]
00000000: e5f2 aeba f0d1 e33b ab4a 43bd 5087 343d
00000010: e828 133d a294 06bc 028a e0bc e8ff 283d
00000020: 336f 4b3d 0a55 9d3b 87e2 92bc 8696 b43c
00000030: 86c2 893a 638e 14bd 56e4 b83c 9692 653b
00000040: a5a4 0dbd c634 173d 0b43 a4bc 74aa a63c
00000050: 575b 01bb a1cb edbb 5279 0f3c d941 66bc
00000060: 626a 573d b9b7 19bd 65a4 be3d 9287 473d
00000070: a805 633d 3adc d1bb 3cab 75bd fac5 583c
00000080: aa03 0b3d e693 fb3a 2bee 2d3b 2096 373a
00000090: 84ec 6d3c fd5b e3bb 7aa1 5a3d 2ad6 9a3b
000000a0: c136 90bc 5e40 4cbd d2ab 70bd a316 b0bc
000000b0: 93be c9ba 51db 673c 5e29 eabc b00a 47bd
000000c0: 4231 2c3c d669 50bd 6376 d8bb 62e3 063d
000000d0: 230b d2bd 5b6f f5bd d556 ffbc e6f1 16be
000000e0: 29dd 9dbe 6f32 24be cb75 123e fc91 3a3e
000000f0: 75c7 3abe 3a6a 61be 8000 bb3d fbbe 533e
00000100: 452a 763e b700 0dbe a646 57be 1bdc ddbd
00000110: a63d 2d3d 6dd2 2e3d 6c35 d33b a7f9 df3a
00000120: e50b 323d 6623 873d 8d23 993d 961d e13e
00000130: 58b3 7a3e 9d56 a5bd 6ccb 82be 03c4 83be
00000140: f13c 543e 6e64 a3bd ef58 86be 2668 29bd
00000150: 2c6e 2f3d 4752 093d f4a2 18be 1066 4abd
00000160: 5d16 693d 5d2c 883d 892e febd cf3e 33be
00000170: e68d f1bd 97ab f03b 4d7c 363b f45b dfbb
00000180: f51c d8bc c5c7 64bc e9c3 443d 2b18 933c
00000190: ee23 d2be 3f4b 25bf cccc 64be 3ba0 873e
000001a0: 519d db3e 79fc 09bf 99a2 1abf bd9a 553d
000001b0: a480 003f 99d0 053f 9e30 b9be f4ef bcbe
000001c0: 4c27 ec3c e344 4e3e 1b02 813e d678 c5bd
000001d0: 754d 8bbd 0688 d53d f0ce b03d 3437 a83d
000001e0: 446e 68ba 1e7b b63d 2ff3 263e efb7 d83d
000001f0: b7e7 053e e7b5 453c 6145 b1bc cf40 0e3d
00000200: 1b0e 473d e9cb 2f3d b513 8dbb c591 f5bb
00000210: e3f1 f4bc e047 0a3b a3c2 3ebd 89ce 36bd
00000220: f860 c63b 05f6 94bc 8473 0d3d a5e3 e2bc
00000230: a9c7 4f3c ae9c dbbc 19cf a43c 244e 87bc
00000240: e832 463d a311 a43c 59e7 053d eb22 48bc
00000250: ffe3 10bc 2c89 babb 76f0 833d 4c37 913d
00000260: 6b5c dd3c 2652 1fbc f212 983c 6bf5 da3c
00000270: 6015 823d 5634 913c a1e4 52bc 0d33 ea3c
00000280: 666a b43d d007 8b3d 3205 133d 1982 c0bc
00000290: 000f b03c 6dc0 1ebd 54ac 67bb f5a2 b4bc
000002a0: 9cc8 45bd b910 4dbc 294f 1a3d f6e0 173d
000002b0: bbf0 043d b837 5f3c b670 d23c f8d5 4f3d
000002c0: 2351 a4bc b826 9c3b bc18 fdbc 7578 8bbc
000002d0: f437 e63d 48ca 8bbd 8f4e edbd d7b7 c1bc
000002e0: a19f 193d 3144 673d dec0 6dbd 7bf7 eabd
000002f0: 43a2 793c 44f7 de3d 0796 953c aecf b9bc
00000300: a8b6 87bc ffa6 ed3c 8b02 0dbc 9894 a6bc
00000310: 87a8 4fbd c5ae 893c b2a8 7bbc efbf 80bc
00000320: d796 ccbc 47b5 0f3d abf0 e83c bba4 3e3c
00000330: 96e2 2a3d a4fd 4fbd 0bc3 2fbd a87a 903d
00000340: 52df eabc 6e39 9e3c e934 77bc 0321 913c
00000350: 75fb 033c 7735 10bd 117c 2bbc 398b 113d
00000360: 0794 193d d2c2 983c 8c0b 02bd 7e4f e13c
00000370: b638 953c 3ff4 80bc 6da6 c63b 3369 603c
00000380: bb89 efbc ad3a 573c adef d53b 4a0d dabc
00000390: a806 603c 7edf 223d d83e d2bc 2a63 44bc
000003a0: ed8c 243d 7d6a 2c3d a819 d3bc d692 26bc
000003b0: de75 45bd 7540 13bd 514e f6bc 2f3c b5ba
000003c0: e7b8 133d 3e78 9dbc 6070 30bd b1b0 20bd
000003d0: 37f1 9bbc 515d 3ebd 8f46 803c bac2 0d3d
000003e0: 07cf 9e3c 134e 353d f2f7 c1bc 3358 babc
000003f0: 4158 a3bd 13d9 9dbd a0fc 99bd d87e 70be
-0.0013347535 0.0069525167 -0.04767863 0.044074357 0.035927683 -0.008214148 -0.027409557 0.041259676
0.049666595 0.004801397 -0.017930282 0.022044431 0.0010510243 -0.036268603 0.022569817 0.003503
-0.034580845 0.036915563 -0.0200515 0.02034495 -0.001973828 -0.0072569405 0.008756952 -0.014053785
0.05259169 -0.037528727 0.093086995 0.048713274 0.055425316 -0.006404427 -0.059977755 0.013230795
0.03393904 0.0019193857 0.0026539664 0.00070032664 0.014521722 -0.006938456 0.053376652 0.0047252374
-0.017604234 -0.049866073 -0.05875761 -0.021495169 -0.0015391879 0.01415141 -0.028584179 -0.048594177
0.010509791 -0.050882183 -0.0066059097 0.032931693 -0.102560304 -0.1198413 -0.031169334 -0.14740714
-0.30832794 -0.16034864 0.14302747 0.18219751 -0.1824015 -0.22013178 0.09130955 0.20678322
0.24039562 -0.13769804 -0.21023044 -0.108329974 0.04229512 0.042681146 0.0064455774 0.0017087952
0.043468375 0.065985486 0.07477484 0.43967885 0.24482477 -0.08073161 -0.25545824 -0.25735483
0.20726372 -0.0797814 -0.26239726 -0.04135909 0.042829677 0.03352573 -0.14905912 -0.04941374
0.056906093 0.066490866 -0.124112196 -0.17504428 -0.11794643 0.007344674 0.0027845085 -0.0068163816
-0.026380995 -0.013963644 0.048038397 0.01795586 -0.41043037 -0.6456794 -0.22343749 0.26489434
0.4289346 -0.5390087 -0.60404354 0.052149523 0.5019629 0.5227142 -0.36169904 -0.3690182
0.028827332 0.20143466 0.2519692 -0.09642188 -0.06801883 0.10426335 0.0863322 0.08213654
-0.00088665285 0.089102015 0.16303705 0.105819575 0.13076673 0.012067295 -0.021639528 0.034729775
0.048597436 0.042919073 -0.004305328 -0.0074941837 -0.029900497 0.002109997 -0.04657234 -0.04463056
0.00605404 -0.018183718 0.034533992 -0.02769644 0.01268188 -0.02680811 0.020118283 -0.016516753
0.04838839 0.020027941 0.032691333 -0.012215356 -0.008843421 -0.0056926217 0.06442349 0.07090625
0.027021607 -0.009724176 0.018563721 0.026728353 0.06351733 0.017725151 -0.012871892 0.028588796
0.088093564 0.067885995 0.035893627 -0.023499535 0.021491528 -0.03875773 -0.0035350518 -0.02205036
-0.04828702 -0.012516194 0.03767315 0.037079774 0.03245614 0.013624124 0.02568851 0.050741166
-0.02005822 0.004765358 -0.030895583 -0.017025212 0.11241141 -0.068256915 -0.115872495 -0.023647232
0.03750575 0.056461517 -0.05804526 -0.114729844 0.01523644 0.10887006 0.018260015 -0.022682037
-0.01656659 0.029010294 -0.008606563 -0.020334527 -0.05069783 0.01680697 -0.015360044 -0.015716521
-0.02497427 0.03508499 0.028435072 0.0116359545 0.041719995 -0.050779 -0.042910617 0.07054645
-0.02867094 0.019314494 -0.015088298 0.017715937 0.0080555575 -0.035207238 -0.010466591 0.035533164
0.037494686 0.018647585 -0.031749293 0.027503725 0.018215518 -0.015741466 0.00606232 0.013696956
-0.02924048 0.013136548 0.0065288157 -0.026617665 0.013673462 0.03976392 -0.025664732 -0.011986533
0.04017346 0.042093743 -0.02576907 -0.010166844 -0.04820811 -0.035950143 -0.030066641 -0.001382714
0.03606501 -0.019222375 -0.04307592 -0.039231006 -0.019035919 -0.046475712 0.015658645 0.034609534
0.019385828 0.04426391 -0.0236778 -0.022747135 -0.079758175 -0.07707419 -0.075188875 -0.23485887

bias f4 [16]
00000000: 4919 c83c e560 aebd 2f6f 003d 3129 e23b
00000010: 01af d63d 2aa2 c0bc 635e 31bd 6ec3 e03d
00000020: 39fc fd3a 889e 08b7 cffe 97bc 9968 bebd
00000030: 24db 76bc 9df0 58bd 8344 13bd 5d45 8f3c
0.02442612 -0.08514575 0.031356033 0.006901883 0.10482598 -0.023514826 -0.043302905 0.10974775
0.0019377536 -8.143143e-06 -0.01855412 -0.09297294 -0.015066896 -0.05296384 -0.03595401 0.01748913

weight f4 [120, 400]
00000000: d104 35bc 8d03 babc 9903 79bd b1dc 5bbb
00000010: e75f 75bd b44a 27be bb41 92bd b355 a5bb
00000020: 81d4 55bd ab1b 1ebe c4cf a9bd 9520 b43c
00000030: d620 5f3d 7ce7 b13d 9de3 f6bd e985 33bd
00000040: 7d65 ab3d 7e1e 533e 838e 223e d34a 7ebd
00000050: 9302 9ebd b61a 903d 27f7 f83c 7ffc 893d
00000060: 1aee 6bbd dc31 bfbd 8d7b 8ebd 0ac9 32bd
00000070: 3a8c 8dbb edd8 0d3c 5a2e e73d 1ac9 e33d
00000080: 3788 bcbd a827 033d 9afd 35bd 669d c63d
00000090: 45f2 1c3d 054a cdbd d297 4dbd dd08 88bd
000000a0: 8e7e 9f3d bde0 b13d 86a8 9bbc b4a1 763d
000000b0: 9cda a63c e128 ba3b 5edb f83c 7b69 c8bb
000000c0: da9f 853d 78d0 b63d 8cc3 30bd 9677 123c
000000d0: b501 013b c216 043e 7c09 ed3b 8623 14bc
000000e0: 78a2 043d 91d9 8e3c 86d1 17bc f73c afbd
000000f0: 753c 9b3b 2fb0 6d3e 4bfe 21bd 7b55 4ebd
00000100: 6d3f c3bd b945 95bd 07a7 223d 4e44 bebc
00000110: 654d 533c 2b41 b5bc 0258 7dbc e0b4 1dbd
00000120: e202 1f3c 1e57 54bd 521c 5c3d 3feb 30bd
00000130: 0e8e a6bc 59d0 233d e26e 983d adb0 fe3c
00000140: 68fb 733d f3cd 6e3d fdd9 c3bd 1a5d 7dbd
00000150: 4143 313c 590c ef3b 908d 593d 0709 70bd
00000160: 7984 083e 3f11 29bc 931d e8bc e908 0cbe
00000170: e979 7cbd 8b43 38be d35b 92bd 2595 09bd
00000180: fe00 2b3d 956c 003d ead6 eb3d 5cda c83c
00000190: dd08 a5be ed77 6abe c873 81be 3ff5 97bd
000001a0: 8ff7 ec3d bbab 00bc 8e3f 44bc 2eb5 113c
000001b0: 0b26 95bc bdad 6d3d 7770 4fbd 1d27 e23d
000001c0: 579d 913c 0cdc c1bc b86e 78bd 2f32 043e
000001d0: 85c8 3b3d 8885 bc3d afe6 4e3d 0560 b03d
000001e0: 96b5 b53b a3d4 66bd 4313 833c 183a 8bbc
000001f0: 994a 5f3d b440 4fbc 6420 633c 686d fd3b
00000200: 343c 97bc 0c64 08bd 456e 6abc 076b e5bc
00000210: 0136 c63c c0e7 39bd 6bf7 f73b c4e1 583c
00000220: 542c e93b 8e05 dabc da68 99bc 935b 023d
00000230: cab7 2cbd 7a18 e2bc 0da9 a7bb a5c9 f7bc
00000240: 273e a6bc 8029 0e3b 1345 4abd 0055 49bb
00000250: 603e 273b a03e 00bd 12e2 083e d991 633d
00000260: 6f91 713d eec4 4abd 5341 18be bef1 76ba
00000270: 9a2b 4fbe ba20 8fbd b6c2 c63c 977f 633d
00000280: 3b6d f13c b05e a33d 12d1 8f3d 6eaa d33d
00000290: b70b 3cbd 0410 0a3d a8fb 3b3b cfa7 6c3d
000002a0: b0e3 8c3d 2ac6 1f3e eea8 b3bb 12c1 143d
000002b0: 8548 b93a 0b53 77bd 7039 59be 6fc8 023b
000002c0: 928f 113c ab6e 163d e439 853d 3ecf d03d
000002d0: 3803 803c 9807 57bd c296 c43b 73a0 8f3d
000002e0: 342a cc3d 3895 8c3c a477 c73c c5ac c93d
000002f0: 7213 0a3e 7675 003d e6d4 c43b 894e 813c
00000300: 1feb c6bd e51d 2b3b 6f79 91bd 0c32 2ebd
00000310: f727 d03c d949 8e3c ab42 b73b 00c8 0f3e
00000320: e9b3 893c 2636 61bd c58b 04bc 81fd 873d
00000330: 4b6d 5bbd 9619 5bbd f670 c8bd a868 54bd
00000340: 4ebf b93d f852 323e 617f 85bc 9bb3 6ebb
00000350: bfcd cc3c 677f 3a3d 76e0 663d 79fe 5f3d
00000360: 7bab 3a3c 45ed f3bd bb26 15be b370 19be
00000370: e8a6 abba 3414 4b3c 6c55 38ba 3a89 01bd
00000380: 4b68 8b3d 5b49 3b3d e723 76bd 463a 073d
00000390: 8c18 c73d f1cb 4fbd cd6b 043d a9d8 26bd
000003a0: bb0a b3bd 9e47 d83c e26a 123d c053 ec3c
000003b0: f658 5d3d 0640 e9bd d24b 9d3c 1aaa 72bd
000003c0: 0324 123d 1ea8 5b3c 791b 793d 6a0e 6bbd
000003d0: 5cdd 673d 76d2 9d3c d577 9b3c 68b1 17bc
000003e0: 6cd6 10bd efad cebb 1f57 853c a838 2d3d
000003f0: d5a1 3c3d c45c 2ebc 81c6 383c f3ca d1bb
-0.011048512 -0.022706771 -0.060794447 -0.003354829 -0.059905913 -0.1633709 -0.07141443 -0.0050456165
-0.052204613 -0.15440242 -0.08291581 0.021988193 0.054474674 0.0868673 -0.120551325 -0.04382888
0.08368967 0.206171 0.15874676 -0.062083077 -0.07715335 0.07036345 0.030391289 0.06737613
-0.05760012 -0.09335682 -0.06957159 -0.043648757 -0.004319695 0.008657676 0.11288138 0.111223415
-0.092056684 0.03202024 -0.044431306 0.0969799 0.038316984 -0.10023884 -0.050193615 -0.066423155
0.0778781 0.086854436 -0.019001257 0.060212806 0.020367913 0.0056811427 0.03037804 -0.00611609
0.0652463 0.08926481 -0.043155238 0.008939644 0.0019684855 0.12899306 0.0072337966 -0.009041673
0.032381505 0.017437728 -0.009266263 -0.0855655 0.0047374316 0.2321174 -0.039549153 -0.05037449
-0.09533582 -0.07288689 0.03971007 -0.02322593 0.01289687 -0.022125801 -0.015462877 -0.038502574
0.009705277 -0.051840894 0.053737946 -0.0431931 -0.020331409 0.039993618 0.07443024 0.031090105
0.05956593 0.058301877 -0.09563062 -0.061856367 0.010819257 0.007295173 0.05311352 -0.05860236
0.13331784 -0.010319053 -0.028334415 -0.13675274 -0.0616397 -0.17994516 -0.0714642 -0.0335895
0.041748993 0.031353552 0.11515601 0.024518184 -0.32233325 -0.2289731 -0.25283647 -0.07419824
0.115706556 -0.007853444 -0.011978043 0.008893294 -0.018206617 0.058027018 -0.050644364 0.110426165
0.01777522 -0.023664497 -0.060652465 0.12909769 0.045845527 0.092051566 0.050512966 0.08612064
0.0055453284 -0.05635513 0.016000396 -0.016995475 0.0545145 -0.012649704 0.013862703 0.0077339895
-0.018461324 -0.033298537 -0.014308517 -0.028005136 0.024195673 -0.04538703 0.0075673363 0.0132374205
0.00711588 -0.026613977 -0.018726755 0.031825613 -0.042167462 -0.027599562 -0.005116588 -0.030247519
-0.020293308 0.0021692216 -0.04938228 -0.003072083 0.0025519356 -0.031309724 0.13367489 0.055559013
0.058976587 -0.049504213 -0.14868669 -0.00094201777 -0.20231476 -0.06988664 0.024262767 0.0555416
0.02947103 0.079770446 0.07022299 0.10335241 -0.04590961 0.03370668 0.0028683934 0.057777222
0.068793654 0.15602937 -0.0054827845 0.03631694 0.0014135992 -0.06038193 -0.21213317 0.0019955894
0.0088843275 0.036726635 0.065051824 0.10195778 0.015626535 -0.052497476 0.005999417 0.07013025
0.09968987 0.017160997 0.024349041 0.09847406 0.1348398 0.03136202 0.006006825 0.015784519
-0.097128145 0.0026110348 -0.0710324 -0.042528197 0.025409682 0.017369198 0.0055926642 0.14041138
0.01680942 -0.05498328 -0.008089964 0.06640149 -0.053571027 -0.053491198 -0.097871706 -0.05185762
0.090696916 0.17414463 -0.01629609 -0.0036422971 0.025000451 0.045531657 0.056366406 0.054686043
0.011393423 -0.1191049 -0.14565556 -0.14984398 -0.0013096007 0.0123949535 -0.0007031772 -0.03162501
0.06807002 0.045724254 -0.060092833 0.03301456 0.09721479 -0.050731603 0.03232937 -0.040733967
-0.08742281 0.026401337 0.035746463 0.028848529 0.054039918 -0.113891646 0.019201193 -0.059244253
0.035678875 0.0134067815 0.060817216 -0.057386793 0.05660759 0.019265395 0.018978039 -0.009258606
-0.03536074 -0.0063073556 0.016276894 0.04229036 0.046052773 -0.010642234 0.011277796 -0.0064023673

bias f4 [120]
00000000: 193d c1bc 6e28 a2bb 7512 11bc e2de 8dbc
00000010: 9e26 30bd 44de 203d a9d9 0bbd 4eb9 49bc
00000020: 3c9a 933c 05b5 3abb 9d52 84bd 74e1 d93d
00000030: 74a7 0a3c 813f 3d3d 5a7a c2bb dc39 b93d
00000040: 5c8b 07bd 8d46 fc3c 842c e8bb 770f 12bc
00000050: a0bd a03d ff0e 4d3d d71f 17bd ffea 27bb
00000060: 7c05 1c3c 0c73 02bd dfbc 0e3d 07eb a1bc
00000070: 2638 763c 9f0b c83c 87b1 f1bb 4472 5fbc
00000080: 0c20 303d a6ad 033d 6353 02bd fdd2 26bd
00000090: ffe5 bdbb 8ac8 783d 3feb b63c cadf 063d
000000a0: 03a9 4ebc 5336 463a 88ff 1d3d cc91 663d
000000b0: c1e1 81bd dc78 a53c 8274 d4bc b266 a4bc
000000c0: 8b34 8fbc b2bc 22bd 2376 c8bc 1bbd 813d
000000d0: 0100 813b 09fb 80bc b38e 28bd 0042 bebc
000000e0: 9fff 573c 6c5b a8bc 7804 3b3d a2d8 863c
000000f0: 8027 9d3d abdf 9c3c c9db 04bd 7bb3 42bc
00000100: 8f4f ccbc 7286 1fbd bb95 833c a1fa c3bc
00000110: 6a53 99bb 4456 033d 28dd 5abd 76f7 4e3d
00000120: 07c0 8abb cc15 e13c 5f3a 123c b8ec d03c
00000130: 3523 4f3d 1f65 8c3b 2e57 58bd f06c 3cbd
00000140: 1d8b 8e3d c024 993d 11e5 5dbb a150 693c
00000150: 9756 933c bdd4 08bd d8bb 57ba 8b59 a3bc
00000160: 3cad 18bd 1adc 803d 7b21 473d e25a a03d
00000170: e3d5 6cbc 93ec 8f3d 1ce8 b6bc ee46 26bd
00000180: 38c0 123c b78c 3e3d b160 4ebb b496 a73c
00000190: fb81 8c3d caf4 c9bc 8555 7b3c 9241 8fbd
000001a0: 9b9d 503b 8958 25bd 005e fd3c eb77 b63c
000001b0: 0985 843d b5f3 3dbb b97c 823c 4556 443c
000001c0: bd48 9c3c ec72 973b efa5 253d 5f6a b73d
000001d0: 2de7 53bd c406 9cbc e0f0 d63c 1415 26bd
-0.023588704 -0.0049486673 -0.008854498 -0.017318193 -0.04300558 0.03927447 -0.034143124 -0.0123122465
0.01801788 -0.0028489244 -0.0646107 0.10638705 0.0084627755 0.04620314 -0.0059349956 0.09044239
-0.033091888 0.03079536 -0.007085385 -0.00891482 0.07848668 0.05006313 -0.0368956 -0.0025622246
0.009522792 -0.031848 0.03484809 -0.01976539 0.015028035 0.024419604 -0.0073758992 -0.013638083
0.042999312 0.032148026 -0.031817805 -0.040728558 -0.00579524 0.060738124 0.022328971 0.032928266
-0.012613538 0.00075611955 0.03857377 0.056291386 -0.06341887 0.020199232 -0.025934462 -0.0200685
-0.01748111 -0.039730735 -0.024470394 0.06334897 0.003936768 -0.015744703 -0.041151714 -0.02322483
0.013183503 -0.020551406 0.04565856 0.01646072 0.0767355 0.019149622 -0.032436166 -0.011883612
-0.02494028 -0.038946576 0.016062608 -0.02392322 -0.004679133 0.03206469 -0.053433567 0.050528966
-0.004234317 0.027476214 0.00892505 0.025503501 0.050570685 0.0042845155 -0.052817516 -0.04600233
0.069601275 0.07477713 -0.0033858458 0.014240415 0.017985625 -0.033406008 -0.000822959 -0.019940158
-0.037274584 0.06291981 0.048615914 0.078298345 -0.014455291 0.07027545 -0.022327475 -0.040594988
0.008956961 0.046520915 -0.0031490738 0.020457603 0.06860729 -0.024652857 0.015340214 -0.069949284
0.0031832221 -0.040367637 0.030928612 0.022273978 0.06470687 -0.0028984372 0.015928613 0.011983459
0.019077653 0.004621854 0.04044145 0.089558356 -0.05173414 -0.019046195 0.026237905 -0.040547445

weight f4 [36, 120]
00000000: df2d a8bd 8d1c a53b 16a4 0c3d 9d47 9dbd
00000010: aca8 83bd fa36 843c 99f6 413d 56a0 c8bc
00000020: 59b2 1aba 6e9b 8d3d 3f45 8abd 424f 81be
00000030: 2f2c a43d 73e0 08be 546d 6a3d 48f3 54be
00000040: 37a4 67bd e515 e9bd fd11 703d 9adf c4bd
00000050: 64d8 70bd f84b 9cbd 8f5c 253d 8995 803d
00000060: c765 b03d f5fb 033a a72c a8bc 7910 4bbe
00000070: 9dcd 683d a495 0f3d a01d 0fbd 8c07 973d
00000080: 4eca cabc 87e9 7a3d 93c2 153d 8935 1ebd
00000090: 6790 9abd 72db 90bd f8ec 3cbd fc26 86bd
000000a0: ef4f b2bd 7151 7d3d 2558 493d 0ee2 1cbd
000000b0: cd50 eb3c 535f ab3d 8d99 b73c f5c9 f43c
000000c0: 5a7c 53bc 8816 37bd 796d 073d 9b2f 593c
000000d0: a972 05be e63a f93c bea6 983d 0589 52be
000000e0: f16f 01bd 51d6 4fbb a4d1 0abc 1b04 073c
000000f0: 3882 09be c813 313d 533f cbbc ccee 473c
00000100: f4a4 99bd ebfc 5f3d 84d8 ac3d 4ead ed3c
00000110: d38c f03c a6cb 46bc 401a cabc e8e8 f0bd
00000120: f191 e0bc 6368 8b3d 1753 6d3d f42f 9dba
00000130: 40b1 01be 3750 8b3d ae2e 9a3d ebdb 263c
00000140: 7013 a53c c11a a8bd d64e 403d 7084 25bd
00000150: 6515 91bd c1cb eebb de2f bdbd b4c5 123d
00000160: da3d f53c 237c 07be bb9d fbbc fee0 abbd
00000170: 4a55 8c3d 75b7 06be 1e19 323d 0ed7 cabd
00000180: 5a6d 7a3d 54b5 febd 8a5f 8fbd c7d9 97bc
00000190: e1d6 373d bc1c 17bd f550 8c3d 6979 253d
000001a0: 0e9b 053d 5cf3 84bd 01f1 863d d75a dabd
000001b0: f04a edbd 1020 d33c 309c 323d 3c63 553d
000001c0: 5954 8f3d e1f3 13bd cd9f 1fbe 26c4 1fbe
000001d0: 876f 203d b816 873d 2957 e03c c1f4 3f3c
000001e0: dd6f 9e3d de3c 4b3b cab9 10bd 0cd2 9e3d
000001f0: 4e59 0abd 4478 60bd 7f5b 9bbb 80b7 ab3d
00000200: f697 19bc 33f9 df3c aa28 edbc 9dc1 02be
00000210: dc41 9fbd 47b1 12be 6a16 183d d7f6 0fbe
00000220: ff43 bcbc 7b9c 8cbd ad83 8ebd b571 01be
00000230: 3ec8 f73c 29c2 eebb 59af 2fbd 7031 de3c
00000240: 3e16 21ba a8b7 683c 0b7b cebd 761a 39be
00000250: abfd 5b3d 7242 453d 4b0f 8bbc c54b 5d3b
00000260: 47b3 933d 87cd 6abd 9920 85bd 1976 9f3d
00000270: a6dc 33be 7888 4abd e7ab 623d 9477 023d
00000280: 1e8d 1fbd 165e a43d b364 a7bd 7bf2 39bd
00000290: 1948 ea3b c587 883d ae58 66bd 6b86 8f3d
000002a0: 345a 73bd b66f a0bd 8b38 4b3d dc0c 8dbd
000002b0: 3715 8abd 5aef a3bd be9f 8a3c b385 a6bd
000002c0: abaf febd da25 b3bd 3fad bb3b 3707 b03c
000002d0: 5fcb b1bd e15f 64bd 57bf 1439 a96f b5bd
000002e0: f4ea 5cbd 52a4 383a 2ccd 20bc 6a3f 7f3d
000002f0: 3164 b7bd 742e 843d 3731 abbd 4477 f0bd
00000300: f5cd 1cbd 8b63 10bd 7ab5 7c3b d039 a43b
00000310: 763e 2dbe 8ab2 11bd 28b7 803c 62b2 003d
00000320: 25d3 12bc bf1a 1dbe c0f9 babd 0316 2e3c
00000330: f644 9dbc 1aa9 2c3d b820 1b3d 6777 2dbd
00000340: 6fc3 80bd 25be 68be 1341 4bbc 9331 363b
00000350: 5b61 3ebd e2a5 d2bd c0f0 9dbd dcfb 4f3c
00000360: 767d 433d cd42 d5bd 949a cd3c 9cc0 afbc
00000370: f0f2 49bd bd1b 773c 584d 863d 1e25 ae3d
00000380: 7c3f c9bc 70ac 6d3c 4077 3b3a 85a8 95bd
00000390: 5af4 3fbe e1c4 143d 1830 9d3d 6640 6d3d
000003a0: 90ce 903d f107 6d3c 40b7 26be 0dbf 30be
000003b0: 4f59 813d 3d09 03bd edb2 dcbd 9de2 b63c
000003c0: e015 893d c98e 49be ad69 78be d55a 1b3d
000003d0: 6d46 d4be f8ad 243d dc99 14bd f21b a33d
000003e0: cc6c c63c 6f60 a43c 7991 f3bd d14c 333c
000003f0: 2543 7cbd 91e5 8a3e 3e46 e3bc 47de 5d3e
-0.08211874 0.005038804 0.034336172 -0.07679675 -0.06428656 0.016139496 0.047354314 -0.024490517
-0.00059012097 0.069144115 -0.06751489 -0.2525578 0.0801624 -0.1336687 0.05723317 -0.2079593
-0.05655309 -0.11381129 0.058610905 -0.09612961 -0.058800116 -0.076316774 0.040371474 0.062785216
0.086131625 0.0005034798 -0.020529104 -0.19830503 0.056836713 0.035054818 -0.034940362 0.07374486
-0.02475467 0.061257865 0.036562514 -0.038625274 -0.07547074 -0.07073106 -0.04612443 -0.065504044
-0.087066524 0.061845247 0.049156327 -0.03830152 0.028725052 0.08367791 0.022412086 0.029881457
-0.012908066 -0.04469922 0.033063386 0.013255979 -0.1303202 0.030423593 0.074536785 -0.20560081
-0.031600896 -0.0031713436 -0.008472834 0.008240725 -0.13428581 0.043231755 -0.024810469 0.01220293
-0.075021654 0.05468456 0.084397346 0.029013302 0.029364025 -0.0121335145 -0.02467072 -0.11763173
-0.02741334 0.068070196 0.05794057 -0.001199244 -0.12665272 0.06802409 0.07528435 0.0101842685
0.02015087 -0.08208228 0.046950184 -0.040409505 -0.07084159 -0.007287473 -0.092376456 0.035833076
0.02993672 -0.13230948 -0.03071486 -0.08392523 0.06852205 -0.13155921 0.043480985 -0.099043
0.061139442 -0.12436929 -0.070006445 -0.018536462 0.04488266 -0.036892638 0.06851379 0.04039899
0.032618575 -0.064917296 0.065889366 -0.106618576 -0.11586559 0.025772125 0.043605983 0.05209659
0.0699851 -0.036121253 -0.15588303 -0.15602168 0.03916886 0.0659613 0.027385311 0.011716069
0.0773618 0.0031011621 -0.035333432 0.07754907 -0.033776574 -0.054802194 -0.004741132 0.08384609
-0.009374609 0.027340507 -0.028950054 -0.1276917 -0.077762336 -0.14325438 0.03713075 -0.14059006
-0.022981642 -0.06865784 -0.06958709 -0.12641032 0.03024685 -0.0072863293 -0.042891834 0.027123183
-0.0006144977 0.014203943 -0.10082062 -0.180765 0.053708714 0.04815907 -0.016975066 0.0033767086
0.07211929 -0.057324912 -0.06500358 0.07786197 -0.1756464 -0.049446553 0.05533972 0.03185232
-0.03895294 0.08025758 -0.08173504 -0.045397263 0.007149708 0.06666521 -0.056236915 0.0700806
-0.059412196 -0.07833807 0.04961447 -0.06887218 -0.06742328 -0.08004637 0.016921874 -0.0813097
-0.1243585 -0.08747454 0.0057274397 0.021487815 -0.08681368 -0.0557555 0.0001418566 -0.08859188
-0.053935006 0.00070435286 -0.009814542 0.062316336 -0.08954657 0.06454173 -0.08358996 -0.11741498
-0.038282353 -0.03525118 0.0038560317 0.0050117746 -0.16918358 -0.03557066 0.015712336 0.03142012
-0.008961474 -0.15342234 -0.09129667 0.010625365 -0.019197922 0.042153455 0.037873 -0.0423502
-0.06287276 -0.22728784 -0.012405652 0.0027800545 -0.046479564 -0.10285546 -0.07711935 0.012694325
0.04772707 -0.10413132 0.025098123 -0.021454148 -0.04930395 0.015082297 0.06557721 0.08503173
-0.024566405 0.014506444 0.00071512535 -0.07307533 -0.18745556 0.03632057 0.07675189 0.057922743
0.07070649 0.014467225 -0.16280842 -0.1726038 0.063158624 -0.031991232 -0.10776315 0.022324855
0.066936255 -0.19683374 -0.24259062 0.03792842 -0.4145998 0.040204972 -0.036279544 0.079643145
0.0242218 0.020065514 -0.11892981 0.010943607 -0.06158747 0.2712827 -0.027743455 0.21666823

bias f4 [36]
00000000: 657b 27be b062 4bbe b216 253e 0b08 203c
00000010: 4ec1 4d3c f97c e0bd 0494 a43c 12a8 b6bc
00000020: a34e 03be 77dd cb3c af46 443e 39d5 0b3e
00000030: cef0 213d ed13 98bd 9128 4bbc 8e7e 62bd
00000040: ef04 f03c 7213 01bd 3e10 753c b38b 6b3c
00000050: 532b 683d 4eb0 07bd ae42 023e bb4f 03bd
00000060: c9a2 6dbe 218e 453d b24f 02be aedc 69bc
00000070: ba79 9b3d 8cff 2f3c 0a48 4f3d 7ced ff3d
00000080: 3e32 4d3e 06a3 c8bb 4ee2 e03d 568f 8a3d
-0.16355665 -0.19861865 0.16121939 0.009767543 0.012558294 -0.10961337 0.02009011 -0.022296939
-0.12822966 0.024885876 0.19167589 0.13655557 0.03953629 -0.074256755 -0.0123998085 -0.055296473
0.029299228 -0.031512685 0.014957486 0.014376569 0.056681942 -0.03312712 0.12720749 -0.03205846
-0.23206629 0.048231248 -0.12725714 -0.014273806 0.07591577 0.0107420795 0.05060581 0.124964684
0.20038697 -0.0061229495 0.10980664 0.067656204
