model/(62)-net.pkl (torch_old, 254773 bytes, 8 tensors)

weight f4 [16, 1, 5, 5]
0	0xbd9e48b6	-0.07728712
1	0x3e4ed5cd	0.20198746
2	0x3e424234	0.18970567
3	0x3ebc85ac	0.36820734
4	0x3ec03872	0.37543064
5	0x3db81f14	0.08990303
6	0x3e2b66ce	0.16738436
7	0x3ef5ec08	0.4803164
8	0x3e91768c	0.28410757
9	0x3e992bac	0.29916131
10	0x3e6630ad	0.22479506
11	0x3eabf9f3	0.33589134
12	0x3e9768b2	0.29572064
13	0x3ef699ae	0.48164123
14	0x3ee2408a	0.44189864
15	0xbe948f17	-0.2901542
16	0xbde73b86	-0.1129065
17	0x3d8e76dd	0.06956265
18	0x3db9eff7	0.09078973
19	0x3e445086	0.19171342
20	0xbef0f05d	-0.47058383
21	0xbe84a976	-0.25910538
22	0xbe9173b6	-0.28408593
23	0xbd21d394	-0.039508417
24	0xbc226faf	-0.009914323
25	0x3d65194f	0.05593234
26	0x3dcc603c	0.09979293
27	0x3e36da68	0.17856753
28	0x3cf8b8bf	0.030361531
29	0x3dcb45cc	0.09925422
30	0x3e1f30a0	0.15545893
31	0xbd332a21	-0.04374135
32	0xbdd316f6	-0.10307114
33	0xbe04621d	-0.12928052
34	0xbe1288f2	-0.14310053
35	0x3dada55d	0.08478806
36	0xbdf59d30	-0.11992872
37	0x3d945ab3	0.07243862
38	0xbd4125f3	-0.04715533
39	0x3dcaf9b6	0.0991091
40	0xbe4b0e3e	-0.19829652
41	0xbc2f9ac7	-0.010718054
42	0xbb76dc1c	-0.0037667817
43	0x3cf678cc	0.030086897
44	0xbe15b778	-0.14620769
45	0xbde0fd4f	-0.10985815
46	0xbd5d5f2f	-0.054045852
47	0x3ceafab2	0.028683994
48	0xbd2f56c3	-0.04280735
49	0xbe382288	-0.17981923
50	0xbec057f4	-0.37567103
51	0xbe42a0b9	-0.19006623
52	0xbe7ea3fa	-0.2486724
53	0xbe15f876	-0.14645562
54	0xbe9c6c91	-0.3055158
55	0xbcaafb41	-0.02087176
56	0xbe8b70de	-0.27234548
57	0xbe66b620	-0.22530413
58	0xbd5064b8	-0.050877303
59	0xbe9ebf7b	-0.31005463
60	0x3d9ce775	0.076613344
61	0x3d4f5798	0.050620645
62	0xbe2b893d	-0.16751571
63	0xbe5dce62	-0.2166076
64	0x3bead4e9	0.007166494
65	0xbd2477b1	-0.04015321
66	0x3e2a83c3	0.16651826
67	0x3e97c3d5	0.29641595
68	0x3c90ab2d	0.017659748
69	0x3d0ab33a	0.03386233
70	0x3ed8b2e9	0.42323998
71	0x3ed71f15	0.420159
72	0x3e1a5c1c	0.150742
73	0x3eeab83d	0.45843688
74	0x3e945043	0.28967485
75	0x3e8cc684	0.27495205
76	0x3ed02c6b	0.40658888
77	0x3f1ed8bf	0.6204948
78	0x3f1a758d	0.6033562
79	0x3ec59e1e	0.38597196
80	0x3ee2aae3	0.44271
81	0x3ebf06b0	0.3730979
82	0x3edb38ec	0.42816865
83	0x3e8dfc6a	0.2773164
84	0x3e8ba7de	0.2727651
85	0x3eaa95ba	0.33317357
86	0x3e917a5f	0.28413674
87	0x3ca638e1	0.020290794
88	0xbe19202b	-0.14953677
89	0xbd9410c3	-0.072297595
90	0x3d0beda2	0.03416217
91	0xbe617f69	-0.2202126
92	0xbeece397	-0.46267387
93	0xbf129ba7	-0.57268757
94	0xbf2332ac	-0.63749194
95	0xbe5c400f	-0.21508811
96	0xbf231e66	-0.6371826
97	0xbf001f27	-0.50047535
98	0xbef89e56	-0.485583
99	0xbf0b50b8	-0.5442004
100	0xbf1f6313	-0.6226055
101	0xbef6448f	-0.4809918
102	0xbf12a59f	-0.5728397
103	0xbefb03e5	-0.4902641
104	0xbf2119a3	-0.62929744
105	0xbe203aaa	-0.15647379
106	0xbe9dba6f	-0.308063
107	0xbecfdf6d	-0.40600148
108	0xbe9810ef	-0.2970042
109	0x3d809427	0.06278258
110	0x3e35ddab	0.17760341
111	0x3e9b7433	0.3036209
112	0x3e988c41	0.29794505
113	0x3e978724	0.29595292
114	0x3ea85f29	0.328851
115	0xbc7aba7e	-0.015303252
116	0x3e0c4e77	0.13701807
117	0x3f11f164	0.5700896
118	0x3eee72b0	0.46571875
119	0x3f10a7a1	0.5650578
120	0xbd0f6665	-0.03500976
121	0x3ed0a827	0.4075329
122	0x3e3ec249	0.18628801
123	0x3f118ee0	0.56858635
124	0x3eee76c2	0.4657498
125	0xbe96c93b	-0.29450402
126	0xbf0de942	-0.5543405
127	0xbf0690b8	-0.52564573
128	0xbf33e025	-0.7026389
129	0xbf21f5d0	-0.63265705
130	0xbe2f491e	-0.17117736
131	0xbec3b95f	-0.38227364
132	0xbec3cd35	-0.38242498
133	0xbe1c4eda	-0.15264454
134	0xbeb7b401	-0.3587952
135	0x3d7c4cd5	0.06159671
136	0xbc9a6623	-0.01884753
137	0x3dee0be9	0.116233654
138	0x3e679af1	0.22617699
139	0x3e81014d	0.25196305
140	0x3eeecfd2	0.4664293
141	0x3f08c003	0.53417987
142	0x3ef69a65	0.4816467
143	0x3e1b7ca0	0.1518426
144	0x3e43cbfd	0.19120784
145	0x3ee0de00	0.43919373
146	0x3f10c6da	0.56553423
147	0x3e68467d	0.22683139
148	0x3e95eff2	0.29284626
149	0x3ebad0ca	0.36487418
150	0x3df9fe4c	0.122067064
151	0x3e822667	0.25419924
152	0x3cc78d36	0.024359327
153	0x3e057b84	0.13035399
154	0x3e5ce70a	0.2157251
155	0xbdde3056	-0.10849063
156	0xbeba6b54	-0.3641001
157	0xbf2cdd26	-0.67524946
158	0xbf269508	-0.65071154
159	0xbee6c5eb	-0.45072874
160	0xbea4bf1a	-0.3217705
161	0xbeacbb2f	-0.3373656
162	0xbeef5bd6	-0.46749753
163	0xbec2fa79	-0.3808172
164	0xbeae8b42	-0.3409062
165	0x3e18c6ab	0.14919536
166	0x3db4f335	0.088354506
167	0x3e6dad88	0.23210728
168	0xbd978c89	-0.07399852
169	0x3e84ebd2	0.25961167
170	0x3ec8aec2	0.3919583
171	0x3e9d3cbb	0.30710396
172	0x3f01e145	0.5073436
173	0x3ecb6307	0.3972399
174	0x3ee169b0	0.44025946
175	0x3e7344a4	0.23756653
176	0x3e572360	0.21009588
177	0x3e08f7ca	0.13375774
178	0x3c85c5db	0.016329696
179	0x3dd06f05	0.10177425
180	0xbe10e6c3	-0.14150529
181	0xbe404753	-0.18777208
182	0x3e4fc4c1	0.202899
183	0xbb037dd2	-0.0020064008
184	0x3dda5461	0.10660625
185	0xbe6c8b11	-0.23099925
186	0xbe1fbac6	-0.15598592
187	0xbe8eb800	-0.27874756
188	0xbeb9e87b	-0.3631018
189	0xbd596fe1	-0.05308521
190	0xbe8334d4	-0.25626242
191	0xbe35ddc1	-0.17760374
192	0xbdacf056	-0.08444278
193	0xbe7ded2d	-0.24797507
194	0x3e077d4d	0.13231392
195	0xbd03c981	-0.03217459
196	0x3dfccd0e	0.123437986
197	0x3e90ec8f	0.2830548
198	0x3e2cf500	0.16890335
199	0x3ea4aace	0.32161564
200	0xbdc3f316	-0.09567849
201	0xbc336e55	-0.010951598
202	0xbe07fc4e	-0.1327984
203	0xbc9f8377	-0.019471867
204	0xbd2ed894	-0.042687014
205	0x3e1b737e	0.15180776
206	0xbde44c89	-0.111474104
207	0xbe8fdf05	-0.28099838
208	0xbdb8fafd	-0.09032247
209	0xbe94c8cd	-0.2905945
210	0x3e4099fd	0.18808742
211	0xbc965827	-0.018352581
212	0x3dc74051	0.09729064
213	0xbdc2f3ed	-0.095191814
214	0xbe376069	-0.17907871
215	0x3e170d8e	0.14751264
216	0x3e8ed2f3	0.27895316
217	0x3e818a46	0.25300807
218	0x3e79b0c9	0.24383844
219	0x3e7b1162	0.2451835
220	0x3d099f0a	0.033598937
221	0xbd7b954d	-0.06142168
222	0xbde25e9e	-0.11053203
223	0xbdfb591c	-0.12272856
224	0xbdcc8710	-0.09986699
225	0x3e86688e	0.26251644
226	0x3ca98071	0.020691128
227	0x3e05e53e	0.1307573
228	0xbe36a288	-0.17835438
229	0xbf00a721	-0.5025502
230	0x3edc189b	0.42987522
231	0x3e8b1633	0.27165374
232	0x3e1f0116	0.15527758
233	0x3e0bedc1	0.13664915
234	0xbe8b0881	-0.27154925
235	0x3e83c362	0.25735003
236	0x3ec7343f	0.38907048
237	0x3e959bb4	0.29220355
238	0x3c869ed0	0.01643315
239	0xbe6f2bfb	-0.23356621
240	0x3eb3cc25	0.35116687
241	0x3ec9a12a	0.3938077
242	0x3e58ce6f	0.21172498
243	0xbc1a29a2	-0.00940934
244	0x3e130000	0.14355469
245	0xbb7968d8	-0.0038056877
246	0xba482d99	-0.0007636189
247	0x3da35029	0.07974274
248	0x3de59c19	0.11211414
249	0xbe53774b	-0.20650975
250	0x3d2e8f98	0.04261741
251	0xbe00c328	-0.12574446
252	0xbe0a1666	-0.13485107
253	0xbe00c17a	-0.12573805
254	0x3de991a2	0.114047304
255	0x3cf8dbd0	0.030378252

bias f4 [16]
0	0xbf6f1772	-0.9339515
1	0xbe2d48ac	-0.16922253
2	0x3ef45561	0.4772139
3	0x3ea975f7	0.33097813
4	0x3e8bc8aa	0.27301532
5	0x3ee5553c	0.4479159
6	0x3f38823c	0.7207372
7	0x3e213c08	0.15745556
8	0x3db91063	0.09036329
9	0xbf308f63	-0.6896879
10	0xbe07e296	-0.1327003
11	0x3e9fffc9	0.31249836
12	0xbfbf0164	-1.4922299
13	0x3f2bdedc	0.6713693
14	0x3e9953af	0.29946658
15	0x3e0caf79	0.13738813

weight f4 [16, 16, 5, 5]
0	0x3d384378	0.04498622
1	0x3d37049e	0.044682138
2	0x3d083461	0.033253077
3	0xbc4075b7	-0.011746815
4	0xbbbb5ab2	-0.005717599
5	0xbc9d47ce	-0.019199278
6	0xbd542e43	-0.05180193
7	0x3c434c24	0.011920009
8	0xbc35f32f	-0.011105343
9	0x3d13d183	0.036088478
10	0x3c6eb0e7	0.014568544
11	0x3c256eff	0.010097264
12	0xbd113a17	-0.03545579
13	0x3bfcf5d7	0.007719736
14	0x3d19fd36	0.037594996
15	0xbcb6a05d	-0.022293264
16	0x3d3cf2c0	0.046129942
17	0x3c4325b8	0.011910848
18	0x3cc2f8eb	0.023800334
19	0x3cbc85c6	0.023013007
20	0xbc88feb8	-0.016723022
21	0xbd3b3447	-0.045704152
22	0xbcab2a9b	-0.02089434
23	0xbd30cdd4	-0.043165043
24	0x3c5f2fc7	0.013622231
25	0xbd32451b	-0.043522935
26	0xbd12d1cc	-0.03584461
27	0x3d45cb42	0.048289545
28	0x3d40d68e	0.047079615
29	0xbc89a023	-0.016799992
30	0x3cdb5b82	0.026777033
31	0xbd2d4eab	-0.04231135
32	0x3cd0a89c	0.025471024
33	0x3d39e8aa	0.0453879
34	0x3cd539ed	0.026028598
35	0x3d34cfb4	0.044143394
36	0xbcc201c8	-0.02368249
37	0x3cd21afa	0.025647629
38	0x3d054eb5	0.032545764
39	0x3bb20a14	0.0054333303
40	0x3d46cc3f	0.048534628
41	0xbd3069cb	-0.043069642
42	0x3b9107df	0.004425987
43	0xbd01533e	-0.031573527
44	0xbcd2c70a	-0.025729675
45	0x3c158d4d	0.009127927
46	0x3cdf46e9	0.027255492
47	0x3d2bdf88	0.041961223
48	0x3c9e9883	0.019359833
49	0xbba481de	-0.005020364
50	0x3cf40c62	0.02979106
51	0x3c884750	0.016635567
52	0x3cc18093	0.02362088
53	0xbd061fa6	-0.032745026
54	0x3cb0776e	0.021541324
55	0x3cd7256f	0.026262967
56	0x3cb2ee51	0.021842154
57	0x3cba2a75	0.022725323
58	0xbd312724	-0.043250218
59	0x3d39a8c7	0.045326974
60	0xbca5f608	-0.020258918
61	0xbcc31c10	-0.023817092
62	0xbcd396a4	-0.025828667
63	0xbd31b106	-0.043381713
64	0x3d45b0d6	0.048264347
65	0x3c5684af	0.013093158
66	0x3cefd281	0.02927518
67	0x3c8d047e	0.017214056
68	0xbc40b703	-0.011762383
69	0x3c7b4517	0.0153362965
70	0x3d0ae4a5	0.03390946
71	0xbcb0faa6	-0.021603893
72	0xbc9187b6	-0.017764907
73	0x3cf3f10c	0.029778026
74	0xb7465a9a	-1.18228145e-05
75	0xbd370444	-0.044681802
76	0x3bd02630	0.0063522086
77	0xbcf0708b	-0.02935054
78	0xbd2c5fa6	-0.042083405
79	0xbc2948d9	-0.01033231
80	0xbc82904f	-0.015937952
81	0xbd4c297a	-0.049844243
82	0x3bd44d7d	0.006478964
83	0xbd44c924	-0.048043385
84	0x3d324706	0.043524764
85	0xbbf09bac	-0.0073427763
86	0xbc24341c	-0.0100221895
87	0xbcdf3046	-0.027244698
88	0xbd31bb8b	-0.043391746
89	0x3d471e8f	0.048613127
90	0x3c835bc7	0.016034974
91	0x3d25068b	0.040289443
92	0x3cddcaa2	0.027074162
93	0x3d184f01	0.03718472
94	0x3ca00c7e	0.019537207
95	0x3d14c700	0.036322594
96	0xbc895cef	-0.016767947
97	0xbcb5b771	-0.022182198
98	0xbd3b6618	-0.04575166
99	0xbd1cf608	-0.03832057
100	0x3d323970	0.043511808
101	0x3c837034	0.016044714
102	0xbcb66c9f	-0.022268591
103	0x3b8a2b4a	0.0042165862
104	0xbc060984	-0.00818098
105	0xbd0d8e3c	-0.034559473
106	0x3d3ab9e5	0.04558744
107	0xbd55a924	-0.05216326
108	0xbcf104b7	-0.029421194
109	0xbd37ea31	-0.044901077
110	0x3cd8e7a7	0.026477648
111	0x3cfb7c97	0.030699058
112	0xbd1064ad	-0.035252262
113	0xbbb83873	-0.0056219636
114	0xbccee5c8	-0.025256053
115	0x3d1dd1fe	0.038530342
116	0x3c9f0977	0.019413693
117	0xbd4f21f2	-0.050569482
118	0x3d41f602	0.047353752
119	0xbcce1ecb	-0.025161168
120	0xbccf2d9f	-0.025290309
121	0x3cc5d740	0.02415049
122	0x3bdb7e1d	0.0066983835
123	0xbce4041f	-0.027833996
124	0xbae60200	-0.0017548203
125	0x3d27fb44	0.04101111
126	0x3b4300f0	0.0029755197
127	0xbd45e4f0	-0.048314035
128	0x3d179257	0.037004795
129	0x3c517f75	0.012786736
130	0x3cc61fa9	0.024185019
131	0x3b1b303e	0.0023679878
132	0x3d0b5bea	0.034023203
133	0xbc2b03af	-0.01043789
134	0x3c8d50ca	0.017250437
135	0xbd4b1c20	-0.04958737
136	0x3b19cc64	0.0023467774
137	0xbd3dc522	-0.04633058
138	0x3bdcf2c2	0.006742806
139	0x3c8f595d	0.017498666
140	0x3d2ab40c	0.041675612
141	0xbd389324	-0.0450622
142	0xbd061579	-0.03273532
143	0x3b484386	0.0030557825
144	0x3d066964	0.032815352
145	0x3d25633c	0.04037784
146	0xbd1f54b1	-0.038899127
147	0x3d3eeabb	0.046610575
148	0xbc244677	-0.010026566
149	0x3c0d8dd2	0.00863977
150	0x3d266172	0.040620275
151	0x3caf598c	0.021405004
152	0x3cde5750	0.027141243
153	0xbccbd510	-0.02488187
154	0x3c006482	0.007836463
155	0x3d3dbb52	0.04632122
156	0x3cdca8e6	0.026936006
157	0x3c670064	0.014099214
158	0xbd49b1ff	-0.049242016
159	0xbc0c1257	-0.008549294
160	0x3d03ad3a	0.032147624
161	0x3d2edbd7	0.042690124
162	0x3d1c04d6	0.03809055
163	0x3ce3b04e	0.02779403
164	0xba080b32	-0.00051896565
165	0xbd3585e6	-0.04431715
166	0x3a3c5213	0.0007183861
167	0x3b49445c	0.0030710911
168	0x3cc9588e	0.024578359
169	0xbd39cc8b	-0.045361083
170	0xbcb0aa8a	-0.021565694
171	0x3c5d8f1a	0.013522888
172	0x3ce327f0	0.027729005
173	0xbd1c4289	-0.03814939
174	0x3adfd02b	0.0017075589
175	0x3c14814d	0.009064031
176	0x3cd38f80	0.025825262
177	0x3cd906eb	0.026492557
178	0x3bdc3fc2	0.0067214677
179	0x3d3edfcc	0.046600148
180	0xbd4335fe	-0.047658913
181	0xbc06eead	-0.008235616
182	0x3d19f41c	0.037586316
183	0x3c9b504b	0.018959185
184	0x3d444cf8	0.047924966
185	0xbd1a764c	-0.037710473
186	0xbd1f41d8	-0.038881153
187	0x3c03012e	0.007995887
188	0x3c9e0ec6	0.019294154
189	0xbcdcdf0d	-0.026961828
190	0x3cbc3b0f	0.02297738
191	0x3c80f31b	0.015740922
192	0xbc856c1b	-0.0162869
193	0xba1d1e06	-0.00059935485
194	0xbc21002a	-0.009826699
195	0xbd49100e	-0.049087577
196	0xbcce9764	-0.025218673
197	0x3cc9f0a8	0.024650887
198	0x3d0abbe3	0.03387059
199	0xbbeaa39e	-0.007160618
200	0xbc893158	-0.016747162
201	0x3cb723dd	0.022355968
202	0xbd0c281f	-0.03421795
203	0xbb0446a6	-0.0020183711
204	0x3d013931	0.031548683
205	0x3cba502e	0.02274331
206	0xbd30c734	-0.043158725
207	0xbd41012c	-0.04712026
208	0x3c8eede4	0.01744742
209	0xbcd716a0	-0.026255906
210	0x3c0031b6	0.007824352
211	0x3a795fae	0.00095128536
212	0xbb025c32	-0.0019891378
213	0xbc38ac5c	-0.011271562
214	0x3c76c042	0.015060486
215	0xbd1b09a8	-0.037851006
216	0x3c238786	0.009981042
217	0xbd362c5d	-0.044475902
218	0xbc63a387	-0.013893968
219	0x3cc7dc1b	0.024396947
220	0xbd1b600f	-0.037933405
221	0x3bf271e3	0.0073988303
222	0xbcd55730	-0.02604255
223	0x3d295a2e	0.041345768
224	0xbc867a23	-0.016415661
225	0x3cd59e94	0.026076593
226	0x39ada075	0.0003311668
227	0xbbe93eed	-0.007118097
228	0x3be5dd92	0.0070149386
229	0xbd1bf1cd	-0.038072396
230	0xbc81dde7	-0.015852882
231	0x3ce678d2	0.028133783
232	0xbce19ca2	-0.027540509
233	0x3d465a23	0.048425805
234	0xbc99eb55	-0.018788973
235	0x3cb42dd2	0.021994505
236	0xbcf22c88	-0.02956225
237	0x3d3155d0	0.043294728
238	0x3c4a1aed	0.012335521
239	0xbd183cf2	-0.037167497
240	0xbc69127d	-0.014225599
241	0x3d090b08	0.033457786
242	0x3c82575d	0.015910799
243	0xbd4accec	-0.049511835
244	0x3cecf9da	0.028927732
245	0x3d2ba173	0.041902017
246	0xbcd3f099	-0.025871562
247	0x3d4685f6	0.0484676
248	0x3b62a91f	0.0034585667
249	0x3ca5c62e	0.020236101
250	0xbcc8b1da	-0.024498869
251	0xbd368612	-0.044561453
252	0x39863580	0.00025598332
253	0x3c551ba4	0.013007078
254	0x3d0b5d21	0.03402436
255	0xbcbc4bea	-0.022985417

bias f4 [16]
0	0xbd0003e7	-0.03125372
1	0x3e425cdf	0.1898074
2	0xbc55ea20	-0.013056308
3	0xbe6795f4	-0.22615796
4	0x3c4573b0	0.012051508
5	0xbddee612	-0.10883726
6	0xbce7de9a	-0.028304387
7	0xbd2f96ef	-0.04286855
8	0x3d28dbbf	0.04122519
9	0x3d21a627	0.039465096
10	0xbc1cea8f	-0.0095774075
11	0x3c8ce042	0.017196778
12	0x3d372ace	0.044718556
13	0xbd319bc4	-0.04336144
14	0xbdba5648	-0.09098488
15	0xba3fc109	-0.0007314836

weight f4 [120, 400]
0	0xbc834c1c	-0.016027503
1	0x3bf15070	0.007364325
2	0x3d17bf49	0.037047658
3	0x3ce1c032	0.027557466
4	0xbd22c182	-0.039735325
5	0xbd3084b2	-0.043095298
6	0x3cbdaa1e	0.023152407
7	0x3b17b490	0.0023148395
8	0xbd2c6d6d	-0.042096544
9	0x3d1ae7ad	0.0378186
10	0x3c7ed844	0.015554491
11	0xbd18ecdd	-0.037335265
12	0x3c88d1a2	0.016701523
13	0x3cca2bea	0.024679143
14	0xbcab164a	-0.020884652
15	0x3c66224c	0.014046263
16	0xbd11194d	-0.03542452
17	0xbd186595	-0.03720625
18	0xbc120788	-0.008912928
19	0xb9c0b980	-0.00036759302
20	0x3d134dd1	0.035962883
21	0xbcc31a1d	-0.023816163
22	0x3ce7e86a	0.028309066
23	0x3ca62a4e	0.020283844
24	0x3c66f5dc	0.014096703
25	0xbc695b37	-0.014242939
26	0x3ccd1f92	0.025039468
27	0xbbd6024e	-0.0065310365
28	0xbd2bc60c	-0.04193692
29	0x3d393d90	0.045224726
30	0xbc8abbb0	-0.0169352
31	0x3b3d82a0	0.002891697
32	0xbcea02ec	-0.028565846
33	0x3c5b455e	0.013383238
34	0xbb91e805	-0.0044527077
35	0xbcd479c4	-0.025936969
36	0x3c090b1b	0.008364464
37	0xbd3552e8	-0.04426852
38	0x3cfaee3c	0.030631177
39	0xbc8668e3	-0.016407436
40	0xbc5fc192	-0.013656991
41	0xbb4bb642	-0.0031083976
42	0xbd495abd	-0.0491588
43	0xbcc26bf1	-0.023733111
44	0x3d1c119d	0.038102735
45	0xbb8aed53	-0.004239717
46	0xbb3c98b2	-0.0028777537
47	0x3aa87573	0.0012852385
48	0x3d30e60b	0.043188136
49	0x3c918f46	0.017768513
50	0xbc70afb9	-0.014690333
51	0xbd3e844d	-0.04651289
52	0xbc97b1e1	-0.018517436
53	0x3cf127e3	0.029437965
54	0xbc808f6a	-0.015693385
55	0xbca89417	-0.020578427
56	0xbcce27a3	-0.025165385
57	0x3c8f95ee	0.017527547
58	0xbcffec2d	-0.031240547
59	0x3cab7582	0.020930056
60	0x3c13e1f3	0.009026038
61	0xbd024085	-0.031799812
62	0x3cb5fba5	0.02221472
63	0x3d1d2ec3	0.038374674
64	0x3d45b181	0.048264984
65	0xbd4227c2	-0.047401197
66	0xbc67911d	-0.014133719
67	0x3d494fb9	0.049148295
68	0x3c92ac06	0.017904293
69	0x3c78933c	0.015171822
70	0xbcd55c44	-0.026044972
71	0x3d23d81f	0.04000103
72	0x3c356ef4	0.011073817
73	0xbd35d290	-0.04439026
74	0xbc5542e0	-0.0130164325
75	0x3d0706bf	0.032965418
76	0xbc71c83d	-0.014757213
77	0xbd1f7061	-0.038925532
78	0x3d30adc4	0.043134466
79	0x3c628a9a	0.0138269905
80	0xbcbd1798	-0.02308254
81	0xbcb4f009	-0.022087114
82	0xbd29b00e	-0.041427664
83	0xbb84fb3a	-0.004058269
84	0xbd4e1c41	-0.050319914
85	0xbd4b2c3d	-0.049602736
86	0x3d04a4a5	0.03238358
87	0x3d3e2505	0.046422023
88	0xbcd8dd6c	-0.02647277
89	0xbccdbf33	-0.025115585
90	0xbcdb5ebd	-0.026778573
91	0x39667104	0.00021976611
92	0x3ca71f87	0.020400776
93	0xbccf0860	-0.025272548
94	0xbce734a5	-0.028223345
95	0xbcf9ee4a	-0.030509133
96	0xbbb85d64	-0.0056263674
97	0x3d34776c	0.044059202
98	0x3d3bd4f0	0.04585737
99	0xbcab9abe	-0.02094781
100	0xbd078f0e	-0.033095412
101	0xbcedf466	-0.029047202
102	0x3d3c19aa	0.045922913
103	0xbce5b747	-0.028041495
104	0x3d2b4eb8	0.04182312
105	0xbd49b061	-0.049240474
106	0xbcfd9571	-0.030955048
107	0xbbe2002f	-0.0068969945
108	0xbd47b1be	-0.048753493
109	0xbd088500	-0.033329964
110	0xbc467e23	-0.012115034
111	0xbbbacbdb	-0.005700571
112	0xbc4534bc	-0.012036499
113	0xbc95d2fa	-0.018289078
114	0xbd468c69	-0.04847375
115	0x3bba0b56	0.005677621
116	0x3d25106b	0.04029886
117	0xbc701adb	-0.01465484
118	0xbcd3b9e4	-0.025845475
119	0x3cce57e9	0.025188403
120	0x3d15791f	0.036492463
121	0xbb09bbbb	-0.0021016437
122	0xbd322f1d	-0.043501962
123	0xbcee4505	-0.029085645
124	0xbc834567	-0.016024305
125	0xbca4dc41	-0.020124556
126	0x3bec70e7	0.0072156074
127	0xbbdbc223	-0.0067064925
128	0xbd4399f4	-0.047754243
129	0xbcd73564	-0.026270576
130	0xbbdc90dc	-0.006731136
131	0x3c573bf4	0.0131368525
132	0xbd1bca85	-0.038034935
133	0x3d0230f0	0.03178495
134	0x3cc89269	0.024483876
135	0xbc044ae9	-0.008074501
136	0xbcf87230	-0.030327886
137	0x3c2309ec	0.009951096
138	0x3c1efbf3	0.009703624
139	0xbb42ec59	-0.0029742925
140	0xbd1a06b0	-0.037604034
141	0x3bcc607c	0.006237088
142	0xbcaaa892	-0.020832334
143	0xbd4c5792	-0.0498882
144	0x3c521607	0.012822635
145	0xbd4ae1a4	-0.049531594
146	0x3c1bb456	0.009503445
147	0x3d39c8e7	0.04535761
148	0xbd1ff384	-0.039050594
149	0xbd2b4538	-0.04181406
150	0xbcf6b73f	-0.030116675
151	0x3cc02d68	0.023459151
152	0xbd2b6623	-0.041845452
153	0x3d3fcf58	0.046828598
154	0x3c0a9d10	0.008460298
155	0x3c98dd23	0.018660134
156	0x3c3eeb2f	0.011652752
157	0x3bdecbb7	0.006799187
158	0xbd0af818	-0.033928007
159	0x3c5c0ca0	0.013430744
160	0x3bbb93ab	0.0057243905
161	0xbc6846c6	-0.01417703
162	0x3c87f198	0.016594693
163	0xbce460f5	-0.027878264
164	0x3d015d7e	0.0315833
165	0xbd0aedb7	-0.03391811
166	0x3c2147fc	0.009843823
167	0x3c4feb04	0.012690309
168	0xbc325bd6	-0.010886153
169	0xbc41d2b9	-0.011830025
170	0x3cb162c8	0.021653548
171	0x3c20acb9	0.009806805
172	0x3ca1026f	0.01965448
173	0x3cb849ef	0.022496192
174	0x3cbc0ede	0.022956308
175	0x3cf4e1e6	0.029892873
176	0xbba84040	-0.0051346123
177	0xbd03a956	-0.032143913
178	0x3d055cb3	0.032559108
179	0xbd01590a	-0.031579055
180	0x3d07613f	0.033051725
181	0x3b4cdee0	0.0031260774
182	0x3d15e4d1	0.03659517
183	0xbcedb08d	-0.02901485
184	0xbb112cd0	-0.0022151954
185	0x3b04dea0	0.0020274296
186	0xbcdc0ca3	-0.026861494
187	0x3ccdaad6	0.025105875
188	0xbc723c68	-0.01478491
189	0x3c264358	0.010147892
190	0xbd0126ac	-0.03153102
191	0xbccef9ad	-0.025265539
192	0x3bc335f0	0.0059573576
193	0x3c18cae8	0.00932572
194	0xbd0c749a	-0.034290887
195	0xbd04dc80	-0.032436848
196	0xbcbc3ea7	-0.022979094
197	0xbcbbd153	-0.022926962
198	0x3d11b37b	0.035571557
199	0x3bd2dc90	0.0064349845
200	0xbd472968	-0.048623472
201	0x3ccb0a92	0.024785314
202	0xbb5706ca	-0.0032810443
203	0x3b4d3930	0.0031314604
204	0x3d18e9e5	0.037332434
205	0x3c94a304	0.018144138
206	0x3d134e75	0.035963494
207	0x3d049d2a	0.032376446
208	0xbcf35cc1	-0.029707314
209	0xbb733c45	-0.003711478
210	0x3c6a6ddb	0.014308418
211	0x3d29375d	0.041312564
212	0xbd0951ce	-0.03352528
213	0xbcdaebeb	-0.026723823
214	0xbd1ea31e	-0.03872978
215	0xbc04b522	-0.008099826
216	0xbd10c2a9	-0.035341892
217	0xbc60c156	-0.01371797
218	0x3c982472	0.018572066
219	0xbd4d3b4f	-0.05010539
220	0xbcb056e5	-0.02152581
221	0xbcec8e3d	-0.028876418
222	0xbcf30c0d	-0.029668832
223	0x3d16d293	0.036821913
224	0x3b5bd7f1	0.003354546
225	0x3cd2db7a	0.02573942
226	0xbd02b259	-0.031908367
227	0xbd2f5166	-0.042802237
228	0x3d16316e	0.036668234
229	0x3d2b0a8d	0.04175811
230	0xbc9cf639	-0.019160377
231	0xbba1ca58	-0.0049374513
232	0x3c933495	0.017969409
233	0xbceaae26	-0.028647494
234	0x3d27587d	0.040855873
235	0x3d3b964c	0.04579763
236	0xbd3e915a	-0.046525337
237	0xba912507	-0.0011073657
238	0x3cf01a89	0.029309528
239	0xbd53d383	-0.051715385
240	0x3d05c0a7	0.03265443
241	0x3cfc027a	0.0307629
242	0xbd106d0f	-0.035260256
243	0xbc113d45	-0.008864705
244	0xbc7c06e8	-0.015382506
245	0x3c51b782	0.012800099
246	0x3c29a172	0.010353433
247	0xbca961e6	-0.020676564
248	0x3cace01b	0.021102956
249	0xbb520760	-0.0032047853
250	0x3ca2ffa4	0.01989729
251	0xbc93005b	-0.017944505
252	0xbcdcae9c	-0.026938729
253	0xbd48ecd2	-0.049053974
254	0x3d47eed5	0.048811752
255	0x3c2c704c	0.010524821

bias f4 [120]
0	0x3cec9bdb	0.028882911
1	0x3d9bdf8f	0.07611
2	0x3d1701cd	0.03686695
3	0x3d4feeca	0.050764836
4	0xbd246379	-0.040133927
5	0x3dbfa2c2	0.093572155
6	0xbcd4ec0a	-0.025991458
7	0xbc70a62e	-0.014688058
8	0xbbca6321	-0.006176368
9	0xbd0fa399	-0.03506813
10	0x3c9ec3d1	0.019380482
11	0xbcb59d52	-0.022169743
12	0xbd0691f0	-0.03285402
13	0xbb87a606	-0.0041396646
14	0xbce45f4c	-0.027877472
15	0x3d035a87	0.032068755
16	0xbd459fb3	-0.048248004
17	0x3ba07077	0.0048962194
18	0x3c535b19	0.012900137
19	0xbcf1c9ae	-0.029515114
20	0x3d50ef9c	0.05100976
21	0x3bb139d0	0.005408503
22	0xbcd7ef42	-0.026359204
23	0x3c11fc18	0.0089102015
24	0xbd8b70cf	-0.06808626
25	0x3cd6cbc2	0.026220206
26	0xba22a01c	-0.0006203668
27	0x3c89b9f1	0.016812297
28	0xbbff113e	-0.007784038
29	0x3c9c1988	0.019055143
30	0xbb57ec07	-0.003294708
31	0xba90d460	-0.0011049621
32	0x3c7a697f	0.015283941
33	0x3bb2542c	0.005442163
34	0xbd0dba57	-0.034601536
35	0xbd584ef5	-0.052809674
36	0xbd51183d	-0.051048506
37	0x3c34b4c4	0.011029426
38	0x3c0e8c9e	0.008700518
39	0x3b45e230	0.0030194633
40	0x3b99b109	0.0046902937
41	0xbcb1f88e	-0.021724965
42	0x3d8a957f	0.06766795
43	0xbd68dae4	-0.056849375
44	0x3cf79965	0.030224511
45	0xbd256f07	-0.040389087
46	0x3c861439	0.016367065
47	0x3b501096	0.0031748167
48	0x3cd18f7f	0.02558112
49	0xbd1c4e7e	-0.038160793
50	0x3d13b31a	0.036059476
51	0x3d3370a2	0.043808587
52	0x3d1290ca	0.035782613
53	0xbd4ca759	-0.049964283
54	0xbd137d51	-0.036008183
55	0x3cc3a272	0.02388117
56	0x3dcfd5dd	0.10148213
57	0xbd40b900	-0.04705143
58	0xbcbf4a09	-0.023350732
59	0x3b01951e	0.0019772719
60	0x3d5b65b5	0.053563792
61	0xbd584758	-0.052802414
62	0x3d370d86	0.04469063
63	0xbd47a51e	-0.048741452
64	0xbbc4208e	-0.005985326
65	0xbc3ded26	-0.011592185
66	0xbceebc5e	-0.029142555
67	0xbcd2a70e	-0.025714424
68	0xbc421356	-0.01184543
69	0x3d99cfb0	0.07510316
70	0x3b2d1a4d	0.0026413382
71	0x3cc3338f	0.023828296
72	0x3c768f30	0.015048787
73	0xbd156565	-0.03647365
74	0xbb9d21e7	-0.0047953012
75	0x3c234007	0.009963996
76	0xbcff4993	-0.031163013
77	0xbd41bbb0	-0.047298133
78	0x3c864b4c	0.016393326
79	0x3c2868bb	0.010278876
80	0x3c6b7b0f	0.014372601
81	0xbcb64e63	-0.022254175
82	0xbd2f0764	-0.042731658
83	0x3d955d36	0.07293169
84	0x3b0cc621	0.0021480399
85	0xbc0c33dc	-0.008557286
86	0xbc9a9832	-0.0188714
87	0x3d133c74	0.035946324
88	0xbc1f2f99	-0.009715938
89	0xbd382f41	-0.04496694
90	0x3d12af88	0.03581193
91	0x3d1e5f37	0.038665023
92	0xbcacfaa7	-0.021115614
93	0x3d23cb0e	0.03998857
94	0xbca1fc05	-0.019773493
95	0xbbbd5a91	-0.0057786186
96	0xbda18baa	-0.07887967
97	0xbc03c03a	-0.008041436
98	0xbd18994f	-0.03725558
99	0x3d94bef0	0.07262981
100	0xbd16cd15	-0.036816675
101	0xbcd4d412	-0.02598003
102	0xbc85a2c8	-0.016312972
103	0x3cd78264	0.026307292
104	0x3b8d0c38	0.004304435
105	0xba25b9a1	-0.00063219114
106	0x3b253b21	0.0025212246
107	0x3dbe6a62	0.09297635
108	0x3cd0c4d5	0.025484482
109	0xbd7a475d	-0.061103214
110	0xbd6f2065	-0.058380503
111	0x3ce7eb85	0.028310547
112	0xbd0c5340	-0.03425908
113	0x3cf4228b	0.029801628
114	0x3d61f6d5	0.055167038
115	0x3c8ef577	0.017451031
116	0x3ce647bb	0.028110376
117	0x3bb0f10f	0.00539983
118	0x3ca42688	0.020037904
119	0xbcd4e449	-0.025987761

weight f4 [36, 120]
0	0x3c4067a5	0.011743461
1	0xbb1a8fa6	-0.0023584156
2	0xbdd2abe7	-0.10286694
3	0xbce4ea14	-0.027943648
4	0x3da3d8d9	0.08000345
5	0xbe21cfd4	-0.15801936
6	0x3cb8d90f	0.02256444
7	0x3cd421c1	0.025895001
8	0xbe0bd9a2	-0.13657239
9	0xbe343cc6	-0.17601308
10	0xbe59745b	-0.21235792
11	0xbd9ef695	-0.077618755
12	0xbd068e78	-0.032850713
13	0xbd227de5	-0.039670844
14	0x3ccf9d22	0.025343481
15	0x3cc43a6e	0.023953643
16	0xbc8aba84	-0.01693464
17	0xbd2815b0	-0.041036308
18	0xbd404ef4	-0.046950296
19	0xbe29e7c1	-0.16592313
20	0x3d1024d2	0.035191365
21	0x3addc826	0.0016920611
22	0xbc1f6fa9	-0.009731212
23	0xbc24024e	-0.010010315
24	0xbd1f041a	-0.03882227
25	0x3d2e20ef	0.042511877
26	0x3d771b4a	0.06032876
27	0xbdb9872f	-0.09058987
28	0xbda802a0	-0.08203626
29	0x3cb13e15	0.021636048
30	0x3c8e8dbe	0.017401572
31	0xbe0f3ec3	-0.13988785
32	0x3d96b3a8	0.073584855
33	0x3d89bdd2	0.067256585
34	0xbd152b42	-0.036418207
35	0xbc94e35b	-0.018174818
36	0xbd684e1d	-0.05671512
37	0xbc02d8df	-0.007986276
38	0x3da331e9	0.07968504
39	0xbbb9f875	-0.0056753703
40	0x3bce6ace	0.006299353
41	0xbd07db88	-0.033168346
42	0xbd533221	-0.05156148
43	0x3da375cd	0.07981453
44	0xbe29fd32	-0.16600493
45	0xbd090b48	-0.033458024
46	0x3d3844ea	0.044987597
47	0x3d3a557d	0.045491684
48	0x3d865aa4	0.06560257
49	0xbb349434	-0.0027554156
50	0xbd881c4a	-0.06646021
51	0xbe25ff53	-0.1621068
52	0x3d862099	0.06549186
53	0xbd3bf9f2	-0.045892663
54	0x3ab9a30b	0.001416297
55	0x3d5a9534	0.053364947
56	0xbe128b45	-0.1431094
57	0x3da3918b	0.079867445
58	0xbc97116e	-0.018440928
59	0xbd01ee84	-0.031721607
60	0x3d6d2795	0.057899076
61	0x3d161802	0.03664399
62	0xbdaeeac8	-0.08540875
63	0x3c80a91e	0.015705641
64	0x3cc0460e	0.023470905
65	0x3cd80edb	0.026374271
66	0x3d7fd0c9	0.062454972
67	0x3cd1e133	0.025620079
68	0xbae8634d	-0.0017729789
69	0xbe4f5c4c	-0.20250052
70	0x3b625605	0.0034536135
71	0xbc6050bf	-0.013691126
72	0xbd400d64	-0.04688777
73	0x3cf70fd6	0.030158918
74	0x3d7ed104	0.06221105
75	0xbd6dece5	-0.05808725
76	0x3da02802	0.07820131
77	0xb95a88e1	-0.00020841091
78	0xbd331a9a	-0.04372654
79	0xbd6ff701	-0.05858517
80	0x3d913c4b	0.07091578
81	0xbd198732	-0.037482448
82	0xbd2f48f9	-0.0427942
83	0x3d3134f4	0.04326339
84	0x3d089bd9	0.033351753
85	0x3cf0e9f1	0.029408427
86	0x3c37c432	0.01121621
87	0x3c313774	0.010816444
88	0xbde01056	-0.10940616
89	0xbd735454	-0.059406593
90	0x3bf9a7e1	0.0076188897
91	0x3d85c584	0.06531814
92	0x3d13c50a	0.036076583
93	0x3bb9d79f	0.005671456
94	0xbc109c27	-0.008826292
95	0xbc9d920b	-0.019234678
96	0xbde03003	-0.109466575
97	0xbde30bcb	-0.11086234
98	0x3d423654	0.047415093
99	0xbd96f668	-0.07371217
100	0x3d4ebbcc	0.050472066
101	0x3d631513	0.05544002
102	0xbd03f7de	-0.032218806
103	0xbd9d49dd	-0.07680104
104	0xbcedf903	-0.029049402
105	0xba9d219b	-0.0011988165
106	0xbe41f926	-0.18942699
107	0xbdfadb13	-0.12248816
108	0xbbcffa22	-0.006346957
109	0xbd6d6725	-0.057959694
110	0x3d96eddd	0.073695876
111	0xbcb76f29	-0.022391872
112	0x3d06be25	0.03289618
113	0xbdcf13b2	-0.101111785
114	0xbe2a59d0	-0.16635823
115	0x3d9f3dc6	0.07775454
116	0xbdb9071d	-0.0903456
117	0x3d7a1d25	0.06106295
118	0xbc92d4d7	-0.017923756
119	0x3d8d732d	0.06906734
120	0x3d953d9d	0.072871424
121	0x3d99b48b	0.07505139
122	0xbe099fa2	-0.13439801
123	0xbe1dec27	-0.15422116
124	0x3d9b4d6b	0.07583126
125	0xbe1c1472	-0.15242174
126	0x3d800a9a	0.06252022
127	0x3d33fd9a	0.043943025
128	0xbda4de0d	-0.08050165
129	0xbdd8698c	-0.105670065
130	0xbe3d9cce	-0.18516847
131	0xbd96813c	-0.07348868
132	0x3ced2b9e	0.028951462
133	0x3d842583	0.06452467
134	0x3db51ea2	0.08843733
135	0x3d5d0ad9	0.053965423
136	0x3ca09ef0	0.019607037
137	0x3c37de8c	0.011222493
138	0x3d70648b	0.058689635
139	0xbbb83bbd	-0.0056223557
140	0x3d88a67f	0.066723816
141	0xbda9bb6b	-0.082877
142	0xbda4f94a	-0.080553606
143	0x3d65708f	0.056015547
144	0xbd8aa148	-0.06769043
145	0x3ccde400	0.025133133
146	0xbd913417	-0.070900135
147	0x3d817ce7	0.06322651
148	0x3b6e6d5a	0.0036381097
149	0xbd8db61e	-0.06919502
150	0xbd7066be	-0.058691733
151	0xbdd014bc	-0.10160205
152	0x3d9357cf	0.071944825
153	0x3bc4b639	0.006003168
154	0x3c9028ab	0.017597517
155	0xbe3353dd	-0.1751246
156	0x3d8ef669	0.06980593
157	0xbe1087be	-0.14114282
158	0x3ce709d0	0.028202921
159	0xbd87ad1d	-0.066248156
160	0xbd8a2ee4	-0.06747225
161	0x3afef5cf	0.0019451919
162	0xbdc2ecc3	-0.09517815
163	0x3d265f6f	0.040618356
164	0xbe10d937	-0.14145361
165	0x3d0aed58	0.033917755
166	0xbd6a9ace	-0.05727654
167	0xbcd18699	-0.025576876
168	0xbbf434c1	-0.007452578
169	0xbda55fdf	-0.080749266
170	0xbcd84d50	-0.026404053
171	0xbdda8a25	-0.1067088
172	0xbc0acf86	-0.008472329
173	0x3c5dd177	0.01353871
174	0x3d4cb1e1	0.049974326
175	0x3d51a756	0.051184975
176	0xbe136d23	-0.14397101
177	0x3ccf643d	0.025316352
178	0x3d063b1e	0.032771222
179	0xbd941a2e	-0.07231556
180	0x3d045b02	0.032313354
181	0xbcfbf7e7	-0.030757857
182	0x3c8614d5	0.016367355
183	0xbd504dd9	-0.05085549
184	0x3d5152d4	0.05110438
185	0x3dace280	0.08441639
186	0x3d5784be	0.052616827
187	0xbd9e8c8a	-0.077416494
188	0xbce038c1	-0.027370812
189	0xbe79f236	-0.24408802
190	0xbcf46102	-0.029831413
191	0xbd6da17b	-0.058015328
192	0xbda971c0	-0.08273649
193	0xbd68f6c9	-0.056875978
194	0xbaa6ef33	-0.0012736082
195	0xbdc15b87	-0.094412856
196	0xbd4025c6	-0.046911024
197	0x3d60aa5d	0.05484997
198	0xbd3a8a43	-0.045542013
199	0x3cca3a8f	0.024686126
200	0xbd7219ac	-0.059106514
201	0x3ce0c9ac	0.027439915
202	0x3da7c3c2	0.08191635
203	0x3d24fc27	0.040279534
204	0xbd4947d5	-0.04914077
205	0x39c08a16	0.00036723976
206	0xbd8d4fe0	-0.069000006
207	0xbcca7085	-0.024711857
208	0xbc10628a	-0.008812556
209	0xbd9c0805	-0.07618717
210	0xbd08f3f0	-0.033435762
211	0xbd8bb226	-0.068210885
212	0x3d87f5fc	0.06638715
213	0xbe1bc807	-0.15213023
214	0xbd8b39a8	-0.067981064
215	0xbd09d1e3	-0.03364743
216	0xbd5ff4e2	-0.054676898
217	0xbddd7098	-0.10812491
218	0xbd4ab14f	-0.0494855
219	0xbb35ce07	-0.002774121
220	0xbd4c0ea1	-0.04981864
221	0x3d516967	0.05112591
222	0x3d71a436	0.058994494
223	0x3d94e9b9	0.072711416
224	0xbd0b7b2d	-0.034053016
225	0xbc804d10	-0.015661746
226	0xbe406805	-0.1878968
227	0xbdc53a70	-0.09630287
228	0x3d44d377	0.04805323
229	0xbc547ef4	-0.012969721
230	0x3bb84ae0	0.00562416
231	0xbd8ac402	-0.06775667
232	0xbd7a6405	-0.061130542
233	0x3c4e0784	0.012575034
234	0xbe4312a0	-0.19050074
235	0x3d8dc001	0.069213875
236	0x3d52a7ae	0.051429443
237	0xbd8a54f2	-0.06754483
238	0xbd788b12	-0.060679503
239	0x3cd25916	0.025677245
240	0xbbd07b29	-0.006362338
241	0x3de45e02	0.11150743
242	0xbe880de3	-0.26573095
243	0xbd3efee1	-0.04662979
244	0xbb84a8ff	-0.004048466
245	0x3e003d23	0.12523322
246	0x3c740857	0.0148945665
247	0xbe51a0a5	-0.20471437
248	0xbe21386e	-0.15744182
249	0x3e9f9177	0.31165668
250	0xbe3574b3	-0.17720298
251	0xbb192cfc	-0.002337276
252	0x3e1c4764	0.15261608
253	0xbd0fb989	-0.03508905
254	0xbd22b299	-0.039721105
255	0x3c7837bc	0.015150007

bias f4 [36]
0	0xbe3d83be	-0.18507287
1	0xbe410549	-0.18849672
2	0x3a863cca	0.0010241505
3	0x3d1d80bc	0.03845285
4	0xbddb90fd	-0.10721014
5	0xbcc8c8b5	-0.024509767
6	0xbe03a191	-0.12854601
7	0xbcae4180	-0.021271467
8	0xbce4f8ef	-0.027950732
9	0x3deac393	0.11463084
10	0x3d866b9f	0.06563496
11	0x3d119a41	0.0355475
12	0xbd4c815c	-0.049928054
13	0xbdc76405	-0.09735874
14	0x3d625893	0.055260252
15	0xbd9bc9d7	-0.07606857
16	0x3ad64330	0.0016346928
17	0xbcccb00c	-0.02498629
18	0x3b7ecb8c	0.0038878648
19	0x3d4f9602	0.050680168
20	0xbd970193	-0.07373347
21	0xbdba86a2	-0.091077104
22	0x3e05258e	0.13002607
23	0xbcb91fd4	-0.022598185
24	0xbdd62064	-0.10455397
25	0xbcdfdb99	-0.027326392
26	0xbd41d942	-0.047326334
27	0x3c3a934f	0.01138766
28	0xbdb3f902	-0.08787729
29	0xbcf922d9	-0.030412124
30	0x3d982c1c	0.07430288
31	0x3dc5f0b0	0.09665048
32	0x3e5f9289	0.21833242
33	0xbe17606c	-0.14782876
34	0x3cc8a92b	0.024494728
35	0xbd12536a	-0.03572408
