model/(65)-net.pkl (torch_old, 254784 bytes, 8 tensors)

weight f4 [16, 1, 5, 5]
00000000: 959f 0cbe 5f2c c3bd 4a4e 3d3e f285 e93c
00000010: 3fa3 3c3e 9f6d b3bc 0f8c 953d 8289 9bbc
00000020: cf8f de3d c073 5ebd ea3b 1fbe 8900 b6bc
00000030: daa8 e93d 95b3 30be 7491 22be 3de0 dbbd
00000040: b1a6 d33c d368 44be a576 91bd ef9d 1a3e
00000050: 08b9 243d 1c7a cbbd 0965 43bd 0847 47bd
00000060: 0242 603b a39f 9fbd 9924 3fbe f865 3bbb
00000070: ba17 1bbd 1206 e3bd 908c aa3d 7386 99bc
00000080: c897 f63d cc3e 4b3e d0ec 39be e382 d73c
00000090: c783 15bd fdac 14bc bb8a 26be 2eac babd
000000a0: 34a9 fa3d abdd c2bd 4195 cd3d eece 31be
000000b0: 1a0c 18bd 316b 0cbd 60f4 d9bd 3e72 b6bc
000000c0: aa52 debd 6b5b 1abe 3515 23bf 72da 26bf
000000d0: 9b23 18bf 859e 01bf 2179 3dbe e321 bebe
000000e0: efbb 243d 26fd 4a3d 385d 863e 1c0b c33e
000000f0: 5060 13bd 14d1 353e 2f63 d53e 8f00 843e
00000100: cba7 b53e 1e08 47bd 7d7c b23e 30b8 b73e
00000110: 5310 d23e c5c8 fb3e cc59 83be 1a20 bebd
00000120: 9a22 abbd e5cb 1e3e 355e 963d 91dd 6c3e
00000130: 081f 3b3e a971 5dbe a245 05bf f25f d3be
00000140: a032 e03e af39 fe3e 4a0a 6c3d 896f bebe
00000150: 5543 f5be c6c5 0e3f 9656 0d3f 84ca 033e
00000160: 0af0 2fbe 5196 0dbf a78d 073f 47f1 a73e
00000170: 5524 ab3e aeba acbd e181 76be f219 363d
00000180: c286 d73e 5d26 1b3e 432a 38bd 1587 a4be
00000190: f8e7 9bbd 605b 15bd 37e7 e5bd 3eb3 243e
000001a0: 7307 4a3e f4ac 053e 8a7f 8ebd 5bdf a8bd
000001b0: f922 34bd 7347 3dbe ac6c 353d 8642 003e
000001c0: cfb9 f2bd 497e 403c d9c3 f13c 5b8c 23be
000001d0: 7982 cfbd 5483 44bd 5cfc a73d 0083 97bd
000001e0: 44af dabc 0d96 373e c735 45be d6a6 903c
000001f0: b01d efbd 5687 0fbe 73fc d5bd a9c6 52bd
00000200: 0630 07be 3492 a73d 2223 7e3d 5734 e13d
00000210: cdc1 3e3e 778d 0dbd 9566 c23c 3a20 a33c
00000220: 1c59 0abe 85e9 27bd c8d8 4d3e 87c2 973d
00000230: e77d 1dbe 100b b4bd d017 33bc 388b debd
00000240: b71f 023e a701 cc3c 7d1b 17be cda1 393e
00000250: f334 15be 9773 f8bd fa73 363e 6a54 97be
00000260: c9d5 3fbe 7135 91be 7fe0 01be 1cab 06be
00000270: 0006 0cbd 5158 f0be 2503 f3be ee04 1fbf
00000280: 44bb cb3d 143e 383e df94 103d 0214 a0be
00000290: 8bbd b9be c074 ff3e 42ed 523e 2c15 813e
000002a0: 1297 183e cd49 53bd 281f 1d3e bb18 e03e
000002b0: 5c7d cd3e f320 d93e e88f 8e3e 1ba2 92bd
000002c0: b0f7 3bbe 271f f9be 6ec1 55be 055e 0cbf
000002d0: e157 233d 30f5 a1bc 579e 04bf a071 1fbf
000002e0: 59b1 03bf 3786 a13c b84c 5f3e 3323 553c
000002f0: 552e b7be e659 74be db78 4b3e 4d1d fe3e
00000300: a3ac c63e 46ac c03e e03a a13e d93f f93e
00000310: d796 153f 55bd e33e 53b9 983e ac11 103f
00000320: 4788 403e 4cce 8f3e 417c 163e 50e0 153e
00000330: 8f6b 3ebe bcd7 303e 57c6 893c 00a1 b4bd
00000340: d602 3a3d bc01 713d fd43 5b3e 781d fdbc
00000350: fb77 623e ca94 86bd dd76 80bd fbe6 493c
00000360: ee8c a2bd 9181 a4bb 0a1c 20bd 5f6a 46be
00000370: f29c 14be 69db 13be c932 8ebe ea75 b13d
00000380: c05b 14bd a620 cebb 8fc9 223e e13e 663e
00000390: 8518 9c3e b96b 493e e6d1 82bb 7fa0 0b3e
000003a0: 5ef7 1d3e 564d ad3c dbc6 123e 0187 0a3e
000003b0: 954f 873e 5c70 6f3e 3803 b0bd 839e 903d
000003c0: fe90 9fbe 61de 88be 7ce5 bdbe e326 b2be
000003d0: 5f35 b33d 779f a3be 793b 06bf 188a e9be
000003e0: 94d8 8ebe 1a85 053c d54c c43e 1fd2 0a3f
000003f0: 9c07 063f 1226 b53e c20d 723d b6db 003d
-0.1373275 -0.095299475 0.18486896 0.028506253 0.18421648 -0.021902857 0.07302105 -0.018986467
0.10867273 -0.054309607 -0.15550199 -0.022217052 0.11409159 -0.17256005 -0.15875798 -0.107361294
0.02583632 -0.19180612 -0.07102708 0.1509931 0.040215522 -0.099354 -0.047703777 -0.048651725
0.0034219031 -0.0779412 -0.18666305 -0.0028594714 -0.037864424 -0.11085142 0.083275914 -0.018740868
0.12040669 0.19848174 -0.18156743 0.026307529 -0.036502626 -0.009074447 -0.16263859 -0.09114872
0.12239304 -0.09514936 0.100382335 -0.17364094 -0.037120916 -0.034281913 -0.10642314 -0.022271272
-0.10855611 -0.15073936 -0.63704234 -0.6517707 -0.5942933 -0.50632507 -0.18503238 -0.3713523
0.04021829 0.049557827 0.26242995 0.38094413 -0.035980523 0.17755538 0.41677234 0.25781676
0.35479578 -0.048591726 0.34860602 0.3588271 0.4102808 0.49176612 -0.25654447 -0.09283467
-0.08356209 0.15507467 0.07342187 0.23131396 0.18273556 -0.21625389 -0.52059376 -0.41284138
0.43788624 0.49653384 0.057627 -0.3719447 -0.47902933 0.5577053 0.55210245 0.12870222
-0.17181411 -0.5530749 0.5295052 0.32801268 0.33426157 -0.08434044 -0.24072982 0.044458337
0.42095 0.15151353 -0.04496218 -0.3213431 -0.07612604 -0.036464095 -0.11225741 0.16084
0.19729404 0.13054258 -0.0695792 -0.08245727 -0.043978665 -0.18484287 0.04429309 0.12525377
-0.118518464 0.011748859 0.029512333 -0.1597151 -0.101323076 -0.047976807 0.082024306 -0.07398033
-0.026694901 0.17928334 -0.19258796 0.017657679 -0.11675584 -0.1401647 -0.104485415 -0.05145899
-0.13201913 0.08182183 0.062045224 0.10996311 0.18628617 -0.03455874 0.023730556 0.019912828
-0.13510555 -0.040994186 0.20102227 0.0741015 -0.15380059 -0.087911725 -0.01093097 -0.108663976
0.12707411 0.024903132 -0.1475658 0.18128128 -0.1457098 -0.12131422 0.17817679 -0.2955659
-0.18733896 -0.28361085 -0.12683295 -0.1315121 -0.03418541 -0.4694238 -0.47463337 -0.621169
0.099478275 0.17992431 0.035298225 -0.31265265 -0.36277422 0.4989376 0.20598319 0.25211465
0.14901379 -0.051584054 0.15343916 0.43768868 0.40134704 0.4240795 0.27844167 -0.071598254
-0.18356204 -0.4865658 -0.20874569 -0.5483096 0.03987873 -0.019770235 -0.5180411 -0.62282753
-0.51442486 0.019717319 0.2180661 0.01300888 -0.35777536 -0.23862419 0.19870321 0.4963173
0.38803586 0.37631434 0.3149023 0.48681524 0.5843329 0.44480386 0.2982889 0.56276965
0.18801986 0.2808708 0.14695837 0.1463635 -0.18595718 0.17269796 0.016818209 -0.08819771
0.04541286 0.058839545 0.21412654 -0.03089784 0.22116081 -0.06571348 -0.06272671 0.012323136
-0.079370365 -0.0050203283 -0.03908924 -0.19376515 -0.14512995 -0.14439167 -0.2777312 0.086650684
-0.036220312 -0.006290513 0.15897201 0.22484924 0.30487457 0.19669999 -0.003992307 0.13635443
0.15426394 0.02115504 0.1433367 0.13528062 0.26427904 0.23382705 -0.08594364 0.07061484
-0.31165308 -0.26732162 -0.37089145 -0.34795293 0.08750414 -0.319576 -0.524345 -0.4561317
-0.2789961 0.00814941 0.38339868 0.5422687 0.5235536 0.35380608 0.05909515 0.031459533

bias f4 [16]
00000000: 3254 5b3e 4807 ef3d 9c69 8a3e 6263 50be
00000010: e6c6 31bd 697d 873e b2dc 0c3f bee6 a63e
00000020: 34b5 a7bd 8b5f 563f 244e 443e 1bc8 b2be
00000030: b639 d33e 3fe7 973d d673 a9bf ac6d 473e
0.21418837 0.11671311 0.270337 -0.20350412 -0.043402575 0.26462868 0.55024254 0.32597917
-0.08188859 0.83739537 0.19170433 -0.34918293 0.41254967 0.074171536 -1.3238475 0.1947543

weight f4 [16, 16, 5, 5]
00000000: 3be1 d6bb f5d5 3dbd 2d37 f3bc b534 043c
00000010: 582d 4bbd ebc7 973c 8fd9 21bb 4c6c 47bc
00000020: c8ac 1ebd dc38 3abd 19c0 45bd 40df dabb
00000030: 276e e73c 1153 dd3b f516 2f3c 1a5e 05bc
00000040: 5ae4 9dbc fdab 11bd 4569 bc3c 7b8f 18bd
00000050: 3d08 043d 447d 61bd 5dd5 bcba 7559 ccbc
00000060: 6465 2bbd e92b 9bbc 8a71 b4bc 77ea ec3c
00000070: 3d80 833c 077a e1bc 4c01 d6bc c229 89bc
00000080: fb04 34bc 4f8a dabc 73aa 23bd 2585 813c
00000090: baf6 2dbd f4df bf3c d315 ebbc 87ac 3d3d
000000a0: 7c8c 993b 83ae 473c 47f8 183d 3e0a 373d
000000b0: 965c 073d 3c29 993c b9e0 1b3c 328b acbc
000000c0: 3676 33bd 4faf bf3c a4cd 593c 90cb 363d
000000d0: 0c06 793d 5949 5abd 3d68 393d cc52 513d
000000e0: 0170 0e3d 8630 c8bc 8575 47bc f00b 153c
000000f0: 763c 133d 50b7 38bd 174f b3bd 0455 8dbd
00000100: 9459 28bd d2b0 94bb 001c f63c b4ca bbbd
00000110: 6750 35bd e057 c1bc 8e7e 21bd 9d22 be3c
00000120: 0e59 98bd 38e5 ccbd 3c3c aebd 5506 0ebd
00000130: f104 7a3d 221e 283d 0695 a9bb 9672 64bc
00000140: 2089 a7bd f38e 25bc 5036 0c3d 48d7 b23c
00000150: a099 2ebd df7a 93bd ec87 093c 466c 9e3d
00000160: 46dd e53d 9a95 783d 0496 30bd 7758 c1bc
00000170: 2c36 ee3d fd85 bf3d f79d b53c 13e2 b6bc
00000180: 40f9 36bd e0a8 493d abcb bb3d e238 233d
00000190: 1ffc db37 6e09 1abc 1139 33bc 9bf9 313d
000001a0: f40c abbc 26c7 e2bb 94dd 4d3c 5fde 03bc
000001b0: db25 e13c 66e9 223c 32c0 ffbc 3c99 e9bc
000001c0: 83a8 3abc e8c6 ad3c 3568 b73c ffd1 aebb
000001d0: aadd a8bc 04b6 283d 923c 723c ae05 3b3d
000001e0: b4d8 45bd 3d89 e4bc 1096 eb3c 5d4a a2bc
000001f0: 245a ab3b f3b7 80bd dc32 24bc f4b0 063d
00000200: 25ba 86bb ab3a 093d e038 80bc b11c ef3c
00000210: 9e67 623c f8c9 8ebc 8d09 b8bc 11bf 4bbd
00000220: cfcb 57bb 1314 8c3c 0db6 2bbd dcb7 b13c
00000230: 1f32 63bd 18dc 463b 9eff 4bbd 3862 023b
00000240: 4455 bebc 11f0 29bb 124a c03c 9dac 2ebd
00000250: 45a9 f2bc 824a 37bc 9269 fc3c f67e ce3d
00000260: 1a1d f23d cd8d 833d 8e34 223d c138 0abe
00000270: c7dc 3dbd 9254 8bbd e9fe 4dbc 94b4 e4bc
00000280: 6934 56bd 01fb afbc aa7b ceba 3531 923c
00000290: d6c6 863d 8f55 863c 8bd1 c6bc 8130 af3c
000002a0: 2194 debc 8069 8cbd 892f f4bd de21 c9bd
000002b0: 7daa 3b3d 17b4 863c 15d3 bc3d 0ba7 603d
000002c0: 19f2 d23d f36e df3d c691 933d 6d89 f43c
000002d0: 7067 e6bd 8d01 90bc 3b5a e4bc 33d4 97bc
000002e0: a6a1 96bc 78b6 1cbb 60a1 83bc a7ee 8bbd
000002f0: aa71 bcbb 9317 27bc d8d5 00bc 39b0 fc3b
00000300: 4e23 b5bc 9ff8 203c 285b bcbc 92d8 54bd
00000310: 491b 6ebd 6b71 323d 7aad ae3d 965d 833d
00000320: e01a 1d3c 595c 8fbd fd7b 93bd 9e8c 20bc
00000330: 4325 bfbc 06a3 29bd 1e8d a0bc 196a 9c3c
00000340: 0980 c3bc 59a0 253d ecdc a8bb 1a8a bebc
00000350: b072 e8bb 5905 df3c 6f61 cd3b 9964 d93b
00000360: 1486 75bc 3cb8 0dbd b51e c53c 47ea 3e3d
00000370: 0262 073d 62db 263d daf9 863d 51b4 213d
00000380: 4fab 16bd 2744 c9bd 5202 3cbd 336a c8bd
00000390: db86 a6bd 01b6 abbd b441 79bc 98fc 31bd
000003a0: 9164 98bd 2549 ccbd ed70 b5bc fec5 0abd
000003b0: 8240 6abd 3bfc b1bd 1ce5 4bbd 7af1 e4bc
000003c0: 2742 42bd aeff 90bc e100 3cbd 62e2 323b
000003d0: fd71 993d 5721 1838 9db3 223d e5f9 12bd
000003e0: 7a45 07bc f42f 19bd 27a1 82bd 4930 1bbe
000003f0: 8c40 03be 7822 14be 89a6 1abe 6cca d23c
-0.0065576113 -0.046346623 -0.029689396 0.008069207 -0.04960379 0.018527946 -0.0024696325 -0.012171816
-0.038738996 -0.04546438 -0.0482789 -0.0066794455 0.028250767 0.006754287 0.010686626 -0.008140111
-0.019273926 -0.03556441 0.022999415 -0.03724621 0.03223442 -0.055051103 -0.0014406849 -0.024945
-0.04184474 -0.018941836 -0.022026796 0.028920395 0.01605236 -0.027524007 -0.026123665 -0.016743544
-0.010987516 -0.026677279 -0.039957475 0.015810559 -0.042471625 0.023422219 -0.02869693 0.046307113
0.0046859365 0.012187603 0.03734615 0.044687502 0.03304728 0.01869642 0.009514027 -0.021062467
-0.043813907 0.023399023 0.013293657 0.044627726 0.060796782 -0.053292606 0.045265425 0.051104352
0.034774784 -0.0244372 -0.012174015 0.009097084 0.035946332 -0.045096695 -0.087553196 -0.06900981
-0.041101053 -0.00453768 0.030042648 -0.09169522 -0.04426613 -0.023601472 -0.039427333 0.023209864
-0.07438861 -0.100046575 -0.085075825 -0.034674007 0.06103987 0.041044362 -0.0051752357 -0.013943335
-0.081804514 -0.0101048825 0.034231484 0.02183117 -0.042626977 -0.0720117 0.008394223 0.07735495
0.11223845 0.060689546 -0.043111816 -0.023601754 0.11631426 0.09351728 0.02217005 -0.022324597
-0.044671297 0.049233317 0.09169706 0.03984917 2.6224237e-05 -0.009401662 -0.010938899 0.043450933
-0.0208802 -0.006920713 0.012565035 -0.008048623 0.027483871 0.009943342 -0.031219576 -0.02851545
-0.011392715 0.02121301 0.022388557 -0.005335092 -0.02061351 0.04118921 0.014784949 0.045659713
-0.048302367 -0.027897472 0.028758079 -0.01981085 0.0052292515 -0.062850855 -0.010021891 0.0328836
-0.0041115456 0.033503216 -0.01565212 0.029188486 0.01381865 -0.01743029 -0.022465492 -0.049742762
-0.0032927876 0.017099416 -0.041921664 0.021694116 -0.05546772 0.0030343588 -0.049804322 0.0019894969
-0.023234017 -0.0025930444 0.02347282 -0.042645086 -0.02962173 -0.011187198 0.030812059 0.100828096
0.11821957 0.06423531 0.0396009 -0.13498212 -0.046353128 -0.0680324 -0.012572982 -0.027918138
-0.052296076 -0.021481993 -0.0015753407 0.01784573 0.06580894 0.01639822 -0.02426984 0.021385433
-0.027170243 -0.0685606 -0.11923129 -0.09820913 0.045816887 0.016443295 0.09219948 0.054846805
0.10300083 0.10909834 0.072055385 0.029850686 -0.11250198 -0.017578864 -0.027875056 -0.018533802
-0.018387627 -0.002391247 -0.01606816 -0.06832629 -0.0057508545 -0.010198492 -0.007863484 0.007711437
-0.022111561 0.009824901 -0.022992685 -0.05196435 -0.05813149 0.043565195 0.08529182 0.064143345
0.009588927 -0.07000036 -0.07201383 -0.009799151 -0.023333197 -0.041415237 -0.01959854 0.01909356
-0.023864763 0.040436123 -0.005153289 -0.023259211 -0.00709375 0.02722423 0.0062677185 0.0066343066
-0.01498558 -0.034599528 0.024062494 0.046610143 0.033052452 0.040736564 0.06590624 0.039478604
-0.036784466 -0.09827452 -0.04590065 -0.09785881 -0.081311904 -0.08384324 -0.015213419 -0.043453783
-0.074410565 -0.09974889 -0.022148574 -0.033880226 -0.057190426 -0.08690687 -0.049779043 -0.027947176
-0.04742637 -0.017700043 -0.045899276 0.002729558 0.07492445 3.6270674e-05 0.039722074 -0.03588285
-0.008256311 -0.037399247 -0.063783936 -0.15155138 -0.12817591 -0.14466274 -0.1510259 0.025731288

bias f4 [16]
00000000: e95a 0dbd 8cc5 9a3c 7a55 af3b 9c91 31bd
00000010: 8a9c 84bd 72e0 eabd 9b0a c1bc 2084 17be
00000020: c582 d9bd 0482 c4bc a20f 08bd f171 eabd
00000030: 8e14 99bc a947 6bbc 9895 873d 94d2 8cbb
-0.034510527 0.018893026 0.005350766 -0.043351755 -0.0647517 -0.11468591 -0.023564627 -0.14796495
-0.106206454 -0.023987778 -0.033218034 -0.11447514 -0.018686559 -0.014360347 0.066203296 -0.004297564

weight f4 [120, 400]
00000000: fcd6 75b9 9c4d 2d3d 4824 4cbc 6ec4 6dbd
00000010: d9e1 713c 3bfb 9d3d a406 e53c b520 3f3d
00000020: 7b77 25bd 0b8b 7dbd f312 9abd 93c8 7439
00000030: 5604 783d 4c09 8abd b674 aebc 980f 57bc
00000040: 13cb 5c3d 3a1b a8bc b7b9 b03b 019d bf3b
00000050: 2739 aebb 997b 903b 9fd3 b83d e3e3 b13d
00000060: f20d 5dba 209e 383c df61 e7bc 962a e0bc
00000070: 8dbe 3fbd 8dcf 27bd 2b5d aabc 0292 12bd
00000080: 9a19 a3bc d9ce fbbb ccaa 1c3c 4456 65bd
00000090: 6c6c 343d 7470 593c fae3 b43d bd41 b43d
000000a0: 90a5 a2bc b778 a5b8 1123 38bd 5d97 f2bc
000000b0: 575c 7fbc e9f6 993c 3d6a 00ba d139 7dbc
000000c0: 140b c9bc a8f3 ae3c 078a 253d e2c2 71bc
000000d0: a000 15bd 0695 02be cdef b53c f208 f5bd
000000e0: 7c00 e2bc 858e 0d3e 4aec 043e a395 8abb
000000f0: d595 9bbd 9e65 30bd 55ed df3d f8eb 813e
00000100: 8c7c f03d d77e b23d 4f89 3bbe f07d 69bc
00000110: c709 243d 0ac7 d3bc 8015 16bc 8af9 2ebd
00000120: 3036 e3bc 04a4 993d 23f8 443d 54d3 3c3c
00000130: 9989 123d 64b0 05bd 43c3 42bd 80da 02bb
00000140: 05e0 123d 4d71 0b3d 96ba fdbc 46b9 213d
00000150: a1a4 dabc 1e09 093d 86bf 4c3d 754f 8ebc
00000160: 7d97 2c3d 3da6 173d eb8f 413d 1f06 8e3c
00000170: a5ee 5ebc 8b37 a73c 2b06 01bd ad0f bfba
00000180: eafc 1ebb 0b49 ad3b 95cd 48bd e00c 463d
00000190: c4fb bfbc 8a04 893d 7462 813d b5ea dbbc
000001a0: 50e3 2fba 0eb1 aa3b 2c3c e43d 114b bc3c
000001b0: d09b 423d 0de8 acbe 833d 0abd f743 243d
000001c0: 7622 32bd a368 11bd 5492 0abe 4e21 593d
000001d0: 7526 c13d b122 e73d c7e1 92bb f2aa f7bd
000001e0: c90a 363d 401d 173e a019 0b3e cd9e a03d
000001f0: 2806 7ebd 7c77 133d 16ef 283d 6fda 75bd
00000200: 8872 babd 01c2 df3b 5c2c c9bc 22e8 95bd
00000210: 3a24 c83d a317 9a3d dcdf 453e 012e f23d
00000220: 9d6d 923d cf6e 2a3c b977 2abd 186e 4bbe
00000230: 4735 1dbe 2361 233e d5a1 153e 1cfa 1ebd
00000240: ebd1 72be df06 21bc cc18 093d 7a6b e13a
00000250: f524 04bd 115e e5bd f72a 98bd 38ce 89bd
00000260: 4327 a0bd 8ab8 c1bd bff6 47be 5c3e 3b3d
00000270: e32f 4a3b 30db a7bd a288 9fbd 8c80 713c
00000280: 82be ce3c 4ae5 c03d c107 323e fe2c 6c3e
00000290: 6c79 c83b e64a 35bd ccdd a4bd 9fec 9bbd
000002a0: aad0 1bbd b67b d2bc 517f a73d 1112 ba3c
000002b0: d52e e7bc 4166 01bd 5f67 a1bd 0785 0a3d
000002c0: 3c9b 493c 283f 57bd 2662 41be 246e 0abd
000002d0: 5c7c 823d 2553 aa3d a129 e53d 3d1c a5bd
000002e0: ab47 34be ec1e 37bb 4dda 5e3d 8650 823b
000002f0: 611a 5b3c bb19 cabd 8005 533d 3782 84bc
00000300: c8ae 42bd dea2 5fba b32f 79bc 9d72 113d
00000310: e42f a5ba 101a 083d e13d a53d cb1e 39bd
00000320: d880 8bbd 3137 83bd fae7 a1bd 43f5 24bd
00000330: 8ce9 e33d 1164 0f3d fb77 443d 6e69 fb3d
00000340: 6f16 cb3d 6c6c 81bd 15a6 febd 522d 5ebd
00000350: fa77 753d 9e12 0ebe 48ab 013e 194a aa3c
00000360: 7d50 41bd 1771 19bc bd49 04bb 3034 093d
00000370: 9037 2e3c d81a 83bd 0cf3 1a3d 22ad 19bd
00000380: 83a2 6ebd 6a92 bbbd b04d a1bc 80e8 ccbb
00000390: 049c 1cbe 536c a0bd f020 66bc 96f3 9d3d
000003a0: 5303 f23d 090a f03c 1abf bf3b f14d 08be
000003b0: 4d67 39bd 23ff 4f3d dac9 953d bd1b 123e
000003c0: ce73 a63b f026 24bd dd0c ba3c 3fc9 94bc
000003d0: 206c 2ebd abc1 7c3d b153 0dbd 9ba9 9cbd
000003e0: 02b7 73bd 8132 5bbd 4cfd 89bc 46ad 413d
000003f0: 379c debb a7c5 2f3d 24b3 26bd eca6 0d3d
-0.00023445109 0.042310342 -0.012459822 -0.058048658 0.014763319 0.07713934 0.027957268 0.04666205
-0.04039715 -0.06190018 -0.075231455 0.00023344373 0.06055101 -0.067400545 -0.021295886 -0.013126276
0.053904604 -0.020520795 0.0053932327 0.0058475737 -0.0053168717 0.0044092652 0.090247385 0.08686044
-0.0008432559 0.011268169 -0.02824491 -0.027364057 -0.046812583 -0.04096942 -0.02079638 -0.035783775
-0.019909669 -0.0076845703 0.0095622055 -0.055990472 0.04404871 0.01327144 0.088325456 0.08801601
-0.019854337 -7.890298e-05 -0.044955317 -0.029613191 -0.01558598 0.018794494 -0.0004898643 -0.015455679
-0.024541415 0.021356419 0.040414836 -0.014755936 -0.03637755 -0.1275216 0.022209072 -0.11964597
-0.027588122 0.13823898 0.12980762 -0.004229264 -0.075969376 -0.04306566 0.10933939 0.25375342
0.117425054 0.08715599 -0.18314098 -0.014251217 0.040048387 -0.025851745 -0.009160399 -0.042718448
-0.0277358 0.075019866 0.048088204 0.011524994 0.035775755 -0.032638922 -0.047549497 -0.0019966662
0.035858173 0.0340436 -0.03097276 0.03948333 -0.02668983 0.03345596 0.04998734 -0.017371872
0.042136658 0.03702377 0.04725639 0.017336903 -0.013606702 0.020412227 -0.031500023 -0.0014576815
-0.0024259635 0.0052882484 -0.049024183 0.048352122 -0.02343548 0.06690319 0.063176066 -0.026845315
-0.00067095924 0.005209095 0.111442894 0.022985013 0.047511876 -0.3377079 -0.03375007 0.04010388
-0.043489896 -0.03550018 -0.13532382 0.053010277 0.09431163 0.11285914 -0.004482481 -0.12093152
0.04444388 0.14757252 0.13583994 0.07842789 -0.06201759 0.03600262 0.041243635 -0.060022768
-0.09103876 0.006828547 -0.024557285 -0.073196664 0.09772535 0.075240396 0.19323677 0.11825181
0.07149813 0.010402395 -0.041618083 -0.19866216 -0.15352355 0.15955023 0.14612515 -0.03881274
-0.2371289 -0.009828298 0.033470914 0.0017198168 -0.032261807 -0.11199582 -0.0743007 -0.06728786
-0.078199886 -0.09459026 -0.1952772 0.045713767 0.0030851297 -0.081961036 -0.077897325 0.014740121
0.025237326 0.094187334 0.1738577 0.23064038 0.0061179902 -0.04426088 -0.08050117 -0.07613491
-0.038040794 -0.025693756 0.081785806 0.022713693 -0.028220573 -0.031591658 -0.078810446 0.03381827
0.012305077 -0.052550465 -0.18885097 -0.033796445 0.06371376 0.0831664 0.11189581 -0.08062027
-0.17605464 -0.0027942015 0.054407407 0.0039768843 0.013372988 -0.09868189 0.051518917 -0.016175373
-0.047529966 -0.0008531044 -0.015209126 0.035509694 -0.0012602773 0.03322798 0.08068443 -0.045195382
-0.06811684 -0.06407011 -0.07905574 -0.040272962 0.1112853 0.03500754 0.047965985 0.122759685
0.09916388 -0.06319508 -0.124340214 -0.05424244 0.05992887 -0.1387429 0.12662995 0.020787286
-0.0471959 -0.009365342 -0.0020185553 0.033497036 0.010633364 -0.064016044 0.037829444 -0.037518628
-0.058260452 -0.09158786 -0.019690365 -0.006253302 -0.1529389 -0.07833161 -0.014045939 0.07712476
0.1181704 0.02930166 0.0058516385 -0.13310982 -0.04526453 0.050780427 0.07313891 0.14268394
0.005079723 -0.040076196 0.022711212 -0.018162368 -0.042583585 0.061708134 -0.034503642 -0.07649537
-0.0595007 -0.05351496 -0.016844414 0.047284387 -0.0067935246 0.042913105 -0.040698186 0.034583017

bias f4 [120]
00000000: b466 39bd a951 25bd daca 103d 1e37 823c
00000010: b761 b9bc 1595 133d cae9 3c3c 92f7 fbbc
00000020: 7396 9fbb 7196 8dbc fad1 bbbc e77b 323b
00000030: 7177 00bd a40f 753c a0cf c23a 7b46 a13c
00000040: 3138 c0b9 0bb3 62bd 0708 dc3c 73fb 03bd
00000050: 7376 713b 2361 8d3d 417d 3f3d 1bc4 3abd
00000060: c63e 56bd a873 053d 1dec 5ebc f54f 3cbd
00000070: 1142 523d 7c1e c33b a454 423d 870c bd3b
00000080: 0bb5 59bb e1ab 0abd d165 763c 2b7b 703c
00000090: 3aae 123d 53ff 0d3b b3dd 94bc f174 3cbb
000000a0: c86f 00bd cf0d b43c 6fdb 423d 3f96 d9bc
000000b0: dea4 213d 4d36 813a 4b36 b1bb cecb 88bc
000000c0: 8d3e e5ba 5c27 48bd 9d5f 6bbc 6220 0fbd
000000d0: 2394 86bc 2a48 64bd 9532 f2bc 4439 cfbc
000000e0: 42a9 433d c261 b73b d5e7 d93c a3dc 03bd
000000f0: 355a 62bd db2e 0ebd 6b54 4a3b d7ed b63c
00000100: 4985 9c3d 56ee 813d fdab 0abd 23c9 923d
00000110: a971 983d ae22 1ebc cfbb c13c ce52 a4bb
00000120: 2d51 263d a372 96bc 157f 0dbc dc48 4d3d
00000130: fc75 23bd 4862 bf3c 16d0 c23c 165b cabc
00000140: 6c54 cfbc 1940 26bd 1f68 40bd 6acd d83c
00000150: 46bb af3a e3fa fbbc be04 86bc 85ab b4bc
00000160: bfbb a93c 38c8 cd3c cd54 41bd f1e1 9a3c
00000170: fe15 3bbc 4662 ddbc 5b3b 013c 02e7 dfbc
00000180: db1b 64bd d1d4 bc3c 7165 dd3b f9f9 36bd
00000190: a821 193d df91 32bc 146b 333c bb26 e2bc
000001a0: addf 1e3d b09d e0bc 32e1 9f3d ac2f 183c
000001b0: 7e3c 6cbd ff23 0b3d 6511 0dbd 90da 36b7
000001c0: 4341 0b3d f1da 1e3d 7af6 403d 43de cebc
000001d0: d41f 3d3d c21f 993d 39ca df3c b569 89bb
-0.04526396 -0.04036108 0.035349704 0.015895423 -0.022629602 0.036030848 0.011530349 -0.0307577
-0.00487023 -0.01728365 -0.022927273 0.0027234496 -0.03136391 0.014957342 0.0014862902 0.019686928
-0.0003666296 -0.05534653 0.026859296 -0.032222223 0.0036844283 0.06903293 0.04675031 -0.045597177
-0.05230596 0.032581 -0.0136060985 -0.04597469 0.051332537 0.0059545618 0.047444 0.0057693156
-0.0033219482 -0.033855323 0.015038923 0.014677803 0.035810687 0.0021667078 -0.01817212 -0.0028756226
-0.031356603 0.02197924 0.04757255 -0.0265609 0.03946387 0.0009858102 -0.0054080836 -0.016698744
-0.0017489955 -0.04886566 -0.014366058 -0.034942992 -0.016428059 -0.055732884 -0.029565135 -0.025295861
0.04776884 0.0055963704 0.026599804 -0.032192837 -0.05526181 -0.034712654 0.003087307 0.022330208
0.076426096 0.06344287 -0.033855427 0.0716727 0.07443554 -0.009651823 0.023649124 -0.005014754
0.04060476 -0.01836521 -0.008636256 0.050118312 -0.03990744 0.023362294 0.023780864 -0.024701636
-0.02530881 -0.040588472 -0.046974298 0.026465137 0.0013407252 -0.03075928 -0.016359683 -0.022054443
0.020719407 0.025119886 -0.047200013 0.018906565 -0.011418818 -0.0270244 0.007887687 -0.027331833
-0.055690628 0.023050698 0.0067564775 -0.044671986 0.037385613 -0.010899036 0.010950822 -0.027606359
0.038787533 -0.027418941 0.078066245 0.00928871 -0.057674877 0.033969875 -0.034440417 -1.0898933e-05
0.033997785 0.038783018 0.04711006 -0.025252467 0.04617293 0.074767604 0.027318107 -0.0041935095

weight f4 [36, 120]
00000000: c39c a3bd 85cc c0bd 6194 69bd 8d53 eebc
00000010: dcdd 993c 1aee 193d 5070 9abd b658 a83d
00000020: 5aa7 dfb9 8241 5b3d 58d5 b3bd a8d0 97bd
00000030: cf92 2fbe 30d2 c8bc d5d3 ae3c dcb0 1d3d
00000040: b514 51be aa53 4c3d dae7 453d 7e66 82bd
00000050: da35 1ebd 9719 13be 1346 9d3d e890 493d
00000060: 04e6 d9bd 293e c53c e994 32bc 3ba3 133c
00000070: e739 073d ab56 ffbd 4f9b 6bbd 1782 1d3c
00000080: 0158 a0bc 6619 ed3c cb56 33be 26be 1dbd
00000090: 7ba9 c63c 93d7 5dbd 9637 07bd e438 8fbc
000000a0: c7ab 1e3d 9f69 d6bc c709 f1bc 55ee e4bd
000000b0: 30b3 bdbc e113 593c 4bae 22bd da20 42bc
000000c0: 9e66 c2bd 7397 8dbc 4e1e b7bd 2c73 31bd
000000d0: 11eb 2b3d 2e44 783d f257 b5bd 26c8 84bb
000000e0: 7230 e5bd baa6 b43d e2c2 7f3b 1f8c 0dbe
000000f0: 877d 93bd 84f1 d5bd 2e85 923c 7c3e 14bb
00000100: 18ba 11bd 126f 14be 8c1e 863c fdfc c8bb
00000110: a466 acbd feea 9a3d 958d 053c 90be 5fbd
00000120: c898 28bd 67ad 9a3d fc8e 9d3d 3729 afbd
00000130: fc32 3fbc d65e 07bc e5ab 0cbc 8996 bebc
00000140: a1c7 1cbd 1eab 16be feff 653d e369 683d
00000150: a7f1 8f3d c984 5b3b 0faf 82bd d0ed 353d
00000160: 7fff d0bd 5344 30bd 1e66 5fba 94a5 80bd
00000170: 72a2 96bd 9863 fe3c d427 bbbd 8060 b3bd
00000180: 9043 a6bd 3668 b83d 9a25 61bd 07a4 983c
00000190: 5284 5e3c b3df abbd 2ec4 2c3b 9006 ebbb
000001a0: 924b f6bd 35a5 ca3c 0710 e4bd 6362 94bc
000001b0: 324b 183c 81ab 41be e724 983c b380 483d
000001c0: f2dd 8b3d 089e 9ebd 93c0 b53c 1aae a13b
000001d0: 19fd 23bc b657 01be 1745 18bc 6a2f c3bd
000001e0: 72a5 cebb 61c8 16be 0b4f 8c3c 0d48 dc3b
000001f0: 33a4 41bd 92eb 913c 9dff 233c 6f69 29bd
00000200: 067a 9ebd e6bb 12bd 35b3 e73c b147 49bd
00000210: a325 c1bd d9a1 e3bd 9219 f83c 904d 81bc
00000220: 2df7 53be dacb 35bb 39c9 273c bdfa 503c
00000230: 7e6b 0b3d 3ebd 16be 064e 7cbd 435f f3bd
00000240: 1186 39be c7b7 2e3c bcef fbbc cc8b ae3d
00000250: 7de5 c43c 0bc4 a1bd 9fbc 14be 9c13 6bbd
00000260: 153a a4bd 5a6f 173d 57e2 25ba 3c74 833d
00000270: eb15 e8bc 420a dcbc 055f b43d 463e 5b3b
00000280: 3edc c6bd f9bd 583d e349 623d 5dcf e4bd
00000290: 692c 7abc b704 d9bc 1f39 d7bc b6e2 5a3b
000002a0: 91d0 ecbd abdb 6abd 5a63 d63a f5ea 283d
000002b0: 1b1d 98bb c52b 763d 873b 9f3d b8a2 9bbd
000002c0: 356e 02bd 30ed 1d3d 2501 01bd fc7b 06be
000002d0: 7ec2 393d 5f8c 233d fe29 ddba cfe8 43bd
000002e0: 5652 14be 26e8 3bbd 53a8 49bd 5b98 bd3c
000002f0: a1e0 22be 8753 a1bd b001 343c 2249 7d3d
00000300: 83a1 dcbd d107 8ebd 2d87 acbd e487 2abb
00000310: fd58 3c3d 9167 7cbd 66f2 adbc 12b9 9d3d
00000320: 19a0 093d 9f25 c2bd be52 db3b a305 623d
00000330: 5cae 2e3d 87ad 80bc 4e3b 6ebd b429 4fbd
00000340: 88d4 afbd 6da1 af3d b95d d6bb 66a6 363b
00000350: f9d2 8cbd d0ee e7bb 16e7 003c 2ecb b13d
00000360: 856e b7bd 9c5a 62bc cb10 973d bd1c 303d
00000370: 2f80 323d 84f4 adbd a36f 7e39 5d65 b23d
00000380: ae7d f0bd 3149 7c3d e6f7 05be 7236 5a3c
00000390: 9ac2 853d 7c5b 38be 21e7 193c 7eeb d4bc
000003a0: 9103 9c3b 833b 6cbd f629 d0bc cce5 713c
000003b0: c160 acbc 705a 31be 34c5 78bc f48a c23c
000003c0: be6a 413e 346c 8b3d 4624 9f3d 86e3 073e
000003d0: 980c 8cbe 74e2 1ebe 0cc9 43bd 4279 a9bd
000003e0: 7f88 a8bd 1d23 e1bd 4829 3cbd 39af 71bd
000003f0: 67cd 0f3e de09 1abe c1e0 b13d 447f 943c
-0.07988884 -0.09414009 -0.05702627 -0.029092574 0.018782549 0.037580587 -0.07540953 0.08220045
-0.0004265856 0.05352927 -0.087809265 -0.07412845 -0.17145847 -0.024514288 0.021341244 0.038498744
-0.20418055 0.049884476 0.048316814 -0.06367205 -0.038625576 -0.1436523 0.07679381 0.04921046
-0.10639575 0.024077492 -0.010899761 0.009011085 0.033014204 -0.124677025 -0.05752116 0.009613535
-0.019573214 0.028942775 -0.17513578 -0.038511418 0.024250736 -0.054160666 -0.033011995 -0.017483182
0.03873804 -0.026173411 -0.029423608 -0.11178271 -0.023156732 0.013249368 -0.039717 -0.011848653
-0.09492229 -0.01728413 -0.08941327 -0.043322727 0.041972224 0.060611896 -0.08854665 -0.00405218
-0.11190881 0.08820863 0.0039026071 -0.13822983 -0.07201677 -0.10446456 0.01788577 -0.0022620251
-0.035577863 -0.14495495 0.016371988 -0.006133674 -0.08418015 0.075643525 0.008151432 -0.054625094
-0.04116133 0.07552605 0.07693288 -0.08552783 -0.0116698705 -0.008262357 -0.008585905 -0.02326514
-0.03827632 -0.14713714 0.056152336 0.056741606 0.070285134 0.0033495894 -0.06381046 0.04441625
-0.10204982 -0.04303391 -0.00085219915 -0.062815815 -0.07355203 0.03105335 -0.09138456 -0.0875864
-0.08118355 0.09004252 -0.0549675 0.018632902 0.013581352 -0.083922766 0.002636205 -0.007172413
-0.12026133 0.02473698 -0.111358695 -0.01811332 0.009295272 -0.1891308 0.018572284 0.048950862
0.06829442 -0.07744986 0.022186553 0.0049340846 -0.010009074 -0.12631115 -0.009293816 -0.09530528
-0.0063063437 -0.14724876 0.017127534 0.0067224563 -0.047275733 0.017812524 0.010009673 -0.041360315
-0.07738118 -0.035823725 0.028283695 -0.049140636 -0.09431007 -0.11114854 0.03028563 -0.015784055
-0.20699759 -0.0027739913 0.010240846 0.012755093 0.03403806 -0.14720628 -0.061597846 -0.11883404
-0.18117549 0.010663933 -0.030753963 0.08522758 0.02403521 -0.0789872 -0.14525078 -0.057391748
-0.08018891 0.036971428 -0.0006327978 0.06418654 -0.028330764 -0.02686036 0.08807186 0.0033453866
-0.097099766 0.052915547 0.055246245 -0.11172364 -0.015269377 -0.026491506 -0.026272355 0.003339929
-0.115632184 -0.057338398 0.0016356513 0.041239697 -0.0046421415 0.060100336 0.07775026 -0.075993955
-0.031843383 0.038556278 -0.031495232 -0.13133234 0.045351498 0.03992879 -0.0016873477 -0.047829445
-0.14484534 -0.04587569 -0.049232792 0.023143938 -0.15906002 -0.0787726 0.01098673 0.061837323
-0.107729934 -0.069350846 -0.0842422 -0.0026020939 0.045983303 -0.061622206 -0.021233749 0.07701315
0.033599947 -0.09479832 0.0066932132 0.055181157 0.04264675 -0.015707744 -0.058162026 -0.05057688
-0.08585459 0.085757114 -0.0065419343 0.0027870177 -0.06876177 -0.007078029 0.007867595 0.086813316
-0.08956627 -0.013815548 0.0737625 0.042996157 0.043579277 -0.08493903 0.00024264916 0.0871074
-0.117427215 0.06159324 -0.13082847 0.013318645 0.06531258 -0.18003649 0.009393484 -0.025991198
0.0047611673 -0.057673942 -0.025410634 0.0147642605 -0.02104223 -0.17319655 -0.015183736 0.023747899
0.18888375 0.068077475 0.077705905 0.13270387 -0.27353358 -0.15516073 -0.047799155 -0.08275081
-0.082291596 -0.109930255 -0.045937806 -0.059004996 0.14043199 -0.15042827 0.086854465 0.018127091

bias f4 [36]
00000000: 75a4 4dbe d5f6 54be 1d14 a23c 26e3 2b3e
00000010: 834e 5bbc 385b 0ebe 12c0 a4bd 752a 88bd
00000020: 2581 73bd 835c c2bc 8192 133e eb3e 573c
00000030: 3a43 093d a2b7 95bd 5ea9 74bd cb4f 6c3d
00000040: 6b1f 643d 0428 163d 5a9f 40bb 4105 ba3d
00000050: 0560 383d c1ea cabc 1e35 823c 1780 49bd
00000060: 213e 19be 31d0 a3bc de92 f5bd 061a c03d
00000070: 697e 28bd 4697 2d3d 2f66 fc3d 2e2c f83c
00000080: de07 ad3d c282 1cbd d378 2a3d 5cc7 26bd
-0.20082267 -0.20797284 0.019784981 0.16785869 -0.013385418 -0.13901985 -0.08044447 -0.06648723
-0.059449334 -0.023725754 0.14411356 0.013137559 0.033511378 -0.07310416 -0.059731834 0.057693284
0.055694025 0.036659256 -0.0029391856 0.09083033 0.045013446 -0.024770143 0.015894469 -0.04919442
-0.14965107 -0.019996734 -0.11990903 0.093799636 -0.04113618 0.042380594 0.123241775 0.030294504
0.08448766 -0.038210638 0.041619133 -0.040717468
