model/(65)-net.pkl (torch_old, 254922 bytes, 8 tensors)

weight f4 [16, 1, 5, 5]
000000 8f 16 e2 3d 16 8f f2 bd 7f f5 18 be 8c 58 d0 bd
       0.11039459 -0.11843698 -0.149374 -0.10173139
000010 8d 5c f1 bd 4e 8b 46 3e 26 23 03 bd a2 ca 3e be
       -0.11785231 0.19389078 -0.032015942 -0.18631986
000020 49 a3 de 3d d9 5d 03 be 90 9c 2f be c8 8b 39 bd
       0.10870988 -0.12828769 -0.17149568 -0.04529932
000030 15 42 34 be 14 6c e3 bd 13 09 35 be 7d f8 89 3d
       -0.17603333 -0.11104599 -0.17679243 0.067368485
000040 7e 7e b4 bd 0f 72 26 3e 72 89 a1 3d 1e 85 9c 3d
       -0.08813189 0.16254447 0.07887544 0.076425776
000050 43 42 b7 3c 9f bc a5 bc ef 1c 2d 3e 4a 20 97 3d
       0.022370463 -0.020231543 0.16905569 0.073792055
000060 10 24 a7 bd 89 6e bc bd 33 8b 29 3e dc b4 2b 3c
       -0.08161175 -0.092007704 0.16557007 0.010480132
000070 6a 8c bf bd b1 92 0c be 40 9b 31 3e 84 68 17 be
       -0.09352954 -0.13727833 0.1734438 -0.14785963
000080 5e 6d 10 be b4 5c 1b be 21 62 5f 3d 37 e3 1e 3e
       -0.1410422 -0.15172082 0.054536942 0.15516363
000090 5b ba b0 3a c4 4b b3 bc 0e f7 3a be cd f6 bf 3d
       0.0013483273 -0.021886714 -0.18258306 0.093732454
0000a0 0e 6f b9 3d f0 00 32 be f8 49 85 3d 37 58 5d 3d
       0.09054385 -0.1738317 0.06508249 0.054039206
0000b0 fb 4f 46 3e 05 ee a5 3d b7 43 bd bd e7 05 4f 3e
       0.19366448 0.08102039 -0.09241431 0.20217095
0000c0 ad 51 34 be 9f 2d f2 3d 7a c0 8a 3e 98 93 4f 3e
       -0.17609282 0.11825108 0.27099973 0.20271146
0000d0 8b 70 82 3e 3f 8c 07 3f 48 a2 07 3f 7b 74 23 3e
       0.25476488 0.52948374 0.52981997 0.15962403
0000e0 b1 ee 00 3e d9 9a 6a bc 47 5e eb 3d e9 d5 ac 3d
       0.12591054 -0.014319145 0.11492591 0.084392376
0000f0 60 f0 0a 3e 40 91 5c be 5a f9 3c be 73 df 6c be
       0.13568258 -0.21539783 -0.18454495 -0.23132114
000100 ec ae a4 be f5 ef 3e be d7 65 21 be 98 c7 bc be
       -0.32164705 -0.18646224 -0.15761505 -0.36871028
000110 81 4a 98 be ea cc 9b bd 91 9e 25 bd 05 41 ae be
       -0.29744342 -0.07607444 -0.040434424 -0.3403398
000120 0e ee 0b be 74 b9 8c be 46 be c8 be e3 25 af 3e
       -0.1366503 -0.2748524 -0.39207667 0.34208593
000130 6b 32 e8 3e 76 aa 1e 3f 01 c9 18 3f 1b 42 d3 3e
       0.45350966 0.6197885 0.5968171 0.41261372
000140 60 5b ea 3e ff ed aa 3e 67 ea 01 3f 43 95 d5 3e
       0.4577284 0.33384702 0.50748295 0.4171544
000150 d9 72 e0 3e 32 76 8d 3e a2 21 af 3e 1c 85 6c 3e
       0.43837622 0.27629238 0.34205347 0.23097652
000160 ca 55 ca 3d 48 22 6a 3e b3 60 65 be 2f e0 1c be
       0.09879644 0.2286464 -0.22400169 -0.15319894
000170 bc fd 32 be ad ee 90 bd 8c 9b 8f 3c ac 2a be be
       -0.17479604 -0.07076774 0.017530225 -0.3714193
000180 be f7 fa be ab 28 f8 be 3f 77 88 be 29 f6 a4 be
       -0.49017137 -0.48468527 -0.26653478 -0.32219055
000190 1d 05 d2 be 1f 0b 0d be a9 4b dd be 70 e2 05 be
       -0.41019526 -0.13773774 -0.43221787 -0.1307466
0001a0 ac 65 8b be 78 cb 15 bf 67 15 16 bf b1 a9 ba be
       -0.27226007 -0.58513594 -0.5862641 -0.3645759
0001b0 84 00 29 be 9c e3 b3 3d 49 4c e4 be fb 46 87 3d
       -0.16504103 0.087836474 -0.4458945 0.06605335
0001c0 df b6 f6 3d 01 e7 bb 3e bd b5 c6 3e 94 f8 23 3c
       0.12046599 0.3669968 0.3881053 0.010007996
0001d0 00 80 4e 3e 2f 84 50 3e 8d 1c f1 3e ca 7c ef 3e
       0.20166016 0.20362924 0.47092095 0.46774894
0001e0 da 6c 11 3d 92 90 c1 3e 4e 7e 34 3e 6d 29 aa 3e
       0.0355042 0.3780561 0.17626306 0.3323473
0001f0 d5 05 4d 3e 36 10 a2 be 76 62 2a be da 9c 5c be
       0.20021756 -0.31652993 -0.16639122 -0.21544209
000200 73 bf c0 bd 48 ae fe bd db 25 65 be 4d 9e 75 3e
       -0.09411516 -0.12435585 -0.22377722 0.23986168
000210 4f f8 ed 3e d6 b9 76 3e 5c 80 a1 3e 5a a7 d3 3d
       0.46478507 0.24094328 0.31543243 0.10334654
000220 1b 1d e4 3e 02 7d 22 3f 32 3a 17 3f 2a fb a9 3e
       0.44553456 0.63471997 0.59073174 0.33199435
000230 63 e3 7c 3e c4 1b ed 3e 47 53 e4 3e ae fb 9e 3e
       0.24696116 0.46310246 0.44594786 0.3105139
000240 92 0e d6 3e 43 2e ca 3c e7 8c 41 3e 51 35 92 3e
       0.4180799 0.024680262 0.18901406 0.28556302
000250 93 93 2d 3e 98 93 33 3e 28 63 d9 bd c5 da 85 3b
       0.16950826 0.17536771 -0.10614616 0.0040849173
000260 29 b0 35 be 5f 42 2a 3e 81 e9 cc 3d a0 79 41 3d
       -0.17742981 0.16626881 0.10005475 0.04723513
000270 39 fd 09 be 03 b0 d4 3c 33 3f 9b 3c fb 4d 0e be
       -0.13475503 0.025962835 0.018951034 -0.13896935
000280 ba 41 ba bd 35 35 38 be 0e fe e0 bd 53 af 45 be
       -0.090945676 -0.17989047 -0.10985957 -0.19305162
000290 51 82 be bd f6 ac 92 3d e3 49 42 be ac 07 42 be
       -0.093022 0.07161896 -0.18973498 -0.18948239
0002a0 c3 4f e3 bd 9b 05 20 be 77 62 23 be 43 77 b0 bd
       -0.11099198 -0.15627138 -0.1595553 -0.08616497
0002b0 35 de 31 be ca 2d 30 3e 73 8f f0 bd c2 81 b9 be
       -0.17369922 0.17204967 -0.11746111 -0.3623181
0002c0 51 f0 49 be 97 33 35 bf 3c f3 5e bf d6 f3 7f bf
       -0.1972058 -0.70781845 -0.87089896 -0.9998144
0002d0 10 b6 1f 3e 73 9b 4e 3d 92 9b a2 3d e3 1a 85 be
       0.15596795 0.050441217 0.07939829 -0.25997075
0002e0 4b 58 58 bf 74 ec 27 3f 5f c1 24 3f 53 1c 84 3e
       -0.84509724 0.65595174 0.6435756 0.2580286
0002f0 39 0a 1e 3e 65 c9 8e be 47 d0 26 3f f8 4a 41 3f
       0.15433587 -0.27888027 0.65161556 0.7550502
000300 91 29 48 3f e5 cc de 3e fd 5e a1 3e e9 63 2c 3f
       0.78188425 0.43515697 0.31517783 0.6733995
000310 14 a6 18 3f 3d 41 3c 3f 57 1d 36 3f cd 13 14 3f
       0.59628415 0.73537046 0.7113852 0.57842714
000320 6a 0e 1a be 6a 91 42 be a5 e4 31 3e ce fe d8 bd
       -0.15044561 -0.19000784 0.17372377 -0.10595475
000330 a0 f6 1c be 29 de 8b bc d5 34 43 be 8c e9 e1 bb
       -0.15328455 -0.017073708 -0.19063123 -0.006894296
000340 06 e3 1a bd dc b8 2a 3e 34 ac 9b 3d 3c b1 2a be
       -0.037814163 0.16672081 0.076012045 -0.16669172
000350 6e 71 d7 3d 32 2b b7 3d bf f3 37 3e 03 72 11 be
       0.10519682 0.08943786 0.17964076 -0.14203648
000360 fc d9 a1 3b d8 e0 ce bd 36 a1 8b bd 46 d9 f6 3c
       0.004939316 -0.10101479 -0.06817858 0.0301329
000370 9b ac 20 be 8e 37 ce bd f5 42 18 be fa 4f e7 3d
       -0.15690844 -0.1006919 -0.14869292 0.11294551
000380 5b 9a e4 bd c2 97 38 be af f8 27 3e 7f 12 b1 bd
       -0.111622535 -0.18026641 0.16403459 -0.08646106
000390 af e4 f8 3b 09 d0 36 3e bd 0a 8b bd e5 86 bc bd
       0.0075956206 0.17852797 -0.067891575 -0.092054166
0003a0 f1 44 91 bd 22 b8 78 bd d2 58 15 3d 3a 21 ef bc
       -0.07093228 -0.060722478 0.03646166 -0.029190648
0003b0 e7 6f 95 3d 68 6f c6 3d e8 04 b8 bd f7 24 20 be
       0.07296734 0.09689218 -0.08985311 -0.15639101
0003c0 14 fc ba 3c b2 aa 1f 3e f2 d2 46 3e a2 e4 4e be
       0.022825278 0.15592459 0.19416407 -0.20204404
0003d0 6e 0f 11 bc 5d eb 31 be cd fb 3a 3d 4e 93 8c bb
       -0.008853776 -0.1737494 0.045650292 -0.004290021
0003e0 d8 c1 29 3d 5b b5 7b bc 3f 12 83 bc ba de 17 be
       0.04144463 -0.015363063 -0.015999911 -0.14831057
0003f0 40 a1 1b be 0d 11 be bc 4c 44 03 3e be a2 24 be
       -0.1519823 -0.02320149 0.12819022 -0.16077706

bias f4 [16]
000000 1c 62 80 bd f9 3b f2 bd dd 58 4f 3f 87 28 4a bf
       -0.06268713 -0.11827845 0.8099497 -0.7896809
000010 80 d4 05 3f 71 19 66 bf c7 bb 4e 3e e0 17 01 bf
       0.52277374 -0.8988257 0.20188819 -0.50427055
000020 1f d3 05 3e fd 17 46 be 5f 5c 83 bd ed 46 59 be
       0.13068818 -0.19345088 -0.06414103 -0.21218462
000030 b3 7f 61 3f ea 37 a6 3e 5e b4 80 3e 73 bd b8 3e
       0.8808548 0.32464534 0.2513761 0.36082038

weight f4 [16, 16, 5, 5]
000000 13 b5 36 bb f5 c0 ee bc 39 96 a6 3c ec eb 2d bc
       -0.0027878925 -0.029144743 0.020335304 -0.01061533
000010 f0 d9 2c bb 98 53 b8 3c e4 d9 95 3c ea 5a dc bc
       -0.0026375018 0.022500798 0.018292375 -0.02689882
000020 83 da 0c bd 57 cd 06 3d 63 24 b3 3c 68 92 95 3c
       -0.034388077 0.03291067 0.021867936 0.018258289
000030 84 03 94 bb 07 66 f6 3c 31 03 38 bd 89 1f 6d bc
       -0.0045170207 0.030077947 -0.04492492 -0.014472851
000040 3f dc 44 3d 75 2b cd 3b b3 70 94 bc f8 4b 4d 3c
       0.048061606 0.006261284 -0.018120145 0.012530319
000050 7e 30 f2 3c c5 9f c8 bc c0 4a 07 3d eb f5 a1 3c
       0.029564139 -0.024490247 0.03303027 0.019770583
000060 15 76 7e bc 02 51 0b bd 7d c1 c1 bb 45 0e 4a bc
       -0.015531083 -0.034012802 -0.005912958 -0.012332504
000070 1d b2 f8 bc 93 ee cd bc 1f 76 2e 3d e7 da 26 3d
       -0.030358369 -0.025138175 0.042593118 0.040736105
000080 75 c3 6c 3b fc 15 7b bb e4 f8 87 bc f1 ca 26 3a
       0.0036127244 -0.0038312664 -0.016598172 0.0006362638
000090 b2 b7 2b bb 29 5d 88 3c c1 fa 97 3b c0 5c 75 3c
       -0.002620202 0.016645985 0.0046380465 0.014975727
0000a0 e9 be 43 3d 22 97 3d 3d 8a ef c1 3c 2a 22 01 3d
       0.047789488 0.04628671 0.023673791 0.031526722
0000b0 e6 ed 23 bd 36 e4 40 3d ef da 43 3d f8 1a 10 bd
       -0.0400218 0.04709264 0.047816213 -0.03518197
0000c0 fe b7 20 bd bf bc ba bb 2f 1d 42 3d e0 dc 9b 3d
       -0.03923797 -0.00569877 0.047391113 0.07610488
0000d0 82 dd c8 3d 6d bc 77 3d 0f 47 8b 3b 2f 63 4c 3e
       0.09807874 0.06048243 0.004250414 0.1995971
0000e0 cb fd 3f 3e e6 59 bf 3d ee 1a 5e 3b bc 24 f4 bc
       0.18749158 0.09343319 0.0033890563 -0.029802673
0000f0 27 05 62 3e 3e 7b b8 3d ae 3f bd bc 3f bd db bd
       0.22072278 0.090078816 -0.023101654 -0.10729455
000100 dd 17 05 be d4 43 d4 3d fa e6 2f bd 02 02 f8 bb
       -0.12997384 0.103645 -0.042944886 -0.0075685987
000110 d3 01 48 bd b1 96 56 b8 23 05 17 bd 6b a4 b0 bc
       -0.048829865 -5.116192e-05 -0.036870133 -0.021562776
000120 40 01 34 3d 63 22 21 ba 86 11 28 bd 3b 08 91 3d
       0.043946505 -0.00061467866 -0.041032337 0.07081648
000130 70 d1 47 3e 0a ea 80 3e 37 6c 58 3e 63 33 05 3e
       0.19513488 0.25178558 0.2113503 0.13007884
000140 ba 7b 5b 3d ab 9a 10 3e fe b9 ed 3d 52 8b 5b bc
       0.05358479 0.14121501 0.11607741 -0.013399916
000150 a2 98 b5 b9 00 7a 09 bd a1 da d3 bd 4e 9e ed bd
       -0.0003463673 -0.033563614 -0.103444345 -0.1160246
000160 38 11 dd bd 1c b6 8f 3c b2 af 97 be 00 22 8c be
       -0.107943 0.017542891 -0.29626232 -0.2736969
000170 a7 c9 a7 bc e9 bf e7 3d 6a bc 4f 3e 2c 95 94 be
       -0.020481898 0.11315901 0.20286718 -0.2902006
000180 8f 10 11 be 94 fd 2f 3d 33 80 ae 3d cd 92 4d 3e
       -0.14166473 0.04296644 0.08520546 0.20075531
000190 2b e1 93 3d d0 1b 0b 3d e6 43 02 bd 2e 43 90 bc
       0.07220682 0.03396207 -0.031803034 -0.017610159
0001a0 bc 27 70 3d 86 88 29 bd 73 00 dc 3c 8e 69 35 3d
       0.058631644 -0.041389965 0.026855683 0.044290118
0001b0 43 53 12 3e 10 39 e0 3d 38 f8 82 bd ae f3 94 3d
       0.14289574 0.10948384 -0.06395 0.07273041
0001c0 ee 8e 59 3e 16 32 55 3e d0 f8 1d 3e b4 c7 92 3d
       0.2124593 0.20819888 0.15426946 0.071669966
0001d0 52 96 1a 3e 7b 2d 1a 3e 4f 8c 6a 3d 32 bd 50 bd
       0.15096405 0.15056412 0.057262715 -0.05096168
0001e0 db fb b5 3d 6e 49 9c 3d 51 7f 89 bc 5d 21 99 bd
       0.08885928 0.07631193 -0.016784342 -0.07477067
0001f0 9e fd c5 bd 43 5d 22 3d b3 fb 6f bc 2d ff 59 bb
       -0.09667514 0.039639723 -0.014647412 -0.003326367
000200 81 04 02 3d 39 17 fc 3d e7 d1 1c be 76 48 36 be
       0.031742577 0.12309117 -0.15314446 -0.17801079
000210 04 e8 06 be e9 32 20 3d 46 a4 17 3e 4d c4 c3 be
       -0.13174444 0.03911105 0.14808759 -0.38235703
000220 5d e3 9f be 9c c7 b9 3d 7a 46 8c 3e 60 c4 c2 3e
       -0.31228152 0.090712756 0.2739752 0.38040447
000230 be 49 ab be 85 22 b0 bd 12 80 fb 3d 91 2e 75 3e
       -0.33454698 -0.08600334 0.12280287 0.23943545
000240 e1 7e 95 3e 84 d0 35 be d1 44 33 be 55 2f 4c bd
       0.29198363 -0.17755324 -0.1750672 -0.049849827
000250 71 07 b6 3d 3e fd 36 3e b9 98 1a bd 13 16 30 3d
       0.08888138 0.17870042 -0.037743304 0.0429898
000260 ff 47 95 3c 24 e2 b0 bc 9c f5 1d 3d 0d 56 1a 3d
       0.018222807 -0.021592207 0.03856431 0.03767972
000270 ff 25 04 bd b2 a8 9d 3b 50 d9 d0 3b d5 0f 9b bc
       -0.0322628 0.00481137 0.006373562 -0.018928448
000280 b3 b9 92 3b ad 1e d2 3b 78 22 9e 3c 5e 9a 82 bb
       0.0044777035 0.0064123482 0.019303545 -0.003985687
000290 4e c9 f3 3b 70 78 20 bc f8 12 d1 bb 5f c5 29 bd
       0.007439769 -0.00979434 -0.006380435 -0.041447993
0002a0 bf 51 06 bd 6c 47 0e 3d 33 72 05 bd 8c 22 0e 3c
       -0.032792803 0.034736082 -0.032579612 0.008675229
0002b0 bb 89 79 3c 4c 5e fc bc 89 ec 78 3c 56 e6 9e bd
       0.015230591 -0.030806683 0.015193113 -0.07758777
0002c0 8d ab 1f be 95 e9 d3 bd a3 31 9a bd b1 4d 33 3b
       -0.15592785 -0.103472866 -0.07528999 0.002735954
0002d0 f5 8f 5a be ec d6 ae be b2 31 52 be c1 f6 e7 3b
       -0.21343978 -0.34148347 -0.2052677 0.007078976
0002e0 f6 e2 48 3e c7 54 a3 be 16 0c b7 be b4 ac b7 bc
       0.19617829 -0.31900617 -0.35751408 -0.022421218
0002f0 2f 76 7e 3e 58 f8 93 3e 24 fd ca bd 45 be 83 be
       0.24849771 0.2890041 -0.09911564 -0.25731102
000300 2e c6 4b be 09 06 6d bc 43 5e cc 3d 59 ce 97 3b
       -0.19899818 -0.014466771 0.099789165 0.004632753
000310 c3 ac 0a be 51 4d 27 be 35 e0 b2 bd cb 60 83 bc
       -0.13542466 -0.16338088 -0.0873417 -0.016037365
000320 47 4d 3e 3d 06 31 16 bd 1c f8 e3 3c 78 8c e1 3c
       0.046460416 -0.036667846 0.027828269 0.027532801
000330 ec 4f aa bc b7 b0 be 3c 65 9c 92 3b be 0e d5 3c
       -0.020790063 0.023277624 0.00447421 0.026008006
000340 1a ac 4c bc 82 22 f4 ba b6 57 89 bc 6e 6e 1d 3b
       -0.012492204 -0.0018626007 -0.016765457 0.002402212
000350 0a 0a 3f 3d a8 26 e7 3b cc 9a 26 3d 1a ee 21 3c
       0.046640433 0.0070541687 0.04067497 0.009883428
000360 1b b1 02 3d 51 c5 0d b9 31 ef 4d bd 86 fe 38 bc
       0.031907182 -0.00013520314 -0.05027694 -0.011291152
000370 75 47 84 bc 2f 42 59 bc 26 6a ce bb 56 5c e4 bc
       -0.016147355 -0.013260408 -0.006299275 -0.02787606
000380 1e 95 9b bc 1d 57 25 bd 2b 8d c2 3b c8 8f 20 3d
       -0.018992003 -0.04036628 0.0059372387 0.03919962
000390 c1 4c bb 3b ef 37 f7 ba b6 50 87 3c 28 de 13 bd
       0.005715937 -0.0018861274 0.016517978 -0.036100537
0003a0 6a f1 21 3d 76 ae 53 3c b0 4f 14 bd 51 3f db 3c
       0.03953687 0.012920013 -0.03620881 0.02676359
0003b0 96 96 88 37 26 3b 1c 3d f2 d2 b7 3b f5 6d cc 3a
       1.6282585e-05 0.038142346 0.0056098634 0.0015596735
0003c0 7e 9f 5f bc d9 8d 3f bd 16 09 ed 3c 5d 89 67 bc
       -0.013648866 -0.046766136 0.028934997 -0.014131871
0003d0 f8 73 d0 bc 93 17 bb 3c 86 f5 41 bd cd 22 11 3d
       -0.025445923 0.02283839 -0.04735329 0.03543358
0003e0 d8 f3 d0 3c df d5 96 3c 7a 9f 33 3c 6b 4c fa 3c
       0.025506899 0.018412529 0.010963315 0.030554017
0003f0 80 c2 65 bc 4f 59 32 bd 8a 07 8e 3c 2f a6 81 bc
       -0.014023423 -0.043542203 0.01733758 -0.015826313

bias f4 [16]
000000 2c ab db bc 3d 70 36 be ba cd fd 3b 5a 41 59 bd
       -0.02681502 -0.17816253 0.007745472 -0.05304084
000010 0e ed 14 3d fa 62 2c 3d d0 33 f9 bd 27 1f 2c 3c
       0.036358885 0.04208658 -0.121680856 0.010505474
000020 89 05 a4 3d c4 01 ba 3c a6 85 0c bd b0 33 23 bd
       0.08008868 0.02270592 -0.034307145 -0.039844215
000030 eb 26 2d 3d 84 dc 26 bd a3 06 39 3d ac c5 b5 bd
       0.042273443 -0.040737644 0.045172345 -0.088755935

weight f4 [120, 400]
000000 4d 9f c0 3c 22 9c 5e bc 3a 22 4a bd df 94 71 39
       0.02351346 -0.01358703 -0.049349047 0.0002303901
000010 34 6e 5b 3c 80 da 06 3d 1b 9d 98 bd 55 9b 12 bd
       0.013392974 0.03292322 -0.074518405 -0.035792667
000020 2e b2 a4 3d a6 f7 e3 bc d7 57 20 bd bd 74 11 bd
       0.080417976 -0.027828049 -0.03914627 -0.03551172
000030 c6 1f 9e bd 73 1c 86 bd a9 2a 9f bd ed af 31 bd
       -0.07720904 -0.06548395 -0.07771809 -0.043380667
000040 f4 a2 6c bd 20 f1 b2 bc 14 f0 2c 3c 35 19 68 3d
       -0.05777259 -0.021843493 0.010555286 0.056664664
000050 f3 a0 d3 3c 20 c0 3e bc 94 d8 f6 3c 2f e1 5b 3d
       0.025833583 -0.011642486 0.03013257 0.05368155
000060 db 24 1c 3c 0b 65 2e be a6 f6 21 bd c0 a5 52 3c
       0.009530271 -0.17030732 -0.039541863 0.012856901
000070 28 7c fe bc 39 62 1d 3e d2 f1 45 bc 32 d7 65 3d
       -0.031065062 0.153695 -0.01208158 0.05611343
000080 9a 0d 68 3d 7f df 9b 3d 1f 90 1e 3e e2 59 d5 bb
       0.056653596 0.07610988 0.15484665 -0.006510959
000090 bf 0c 9b bd 2e 8b 48 bd 59 3f de bc 86 90 1a 3e
       -0.075707905 -0.048960857 -0.027129816 0.15094194
0000a0 5b 60 f4 3d 09 c5 31 bd a3 0d f8 bb ec 81 15 bd
       0.11932441 -0.043400798 -0.007569985 -0.036500856
0000b0 3a 7e b9 bc bf 35 37 3d 9d 51 9e 3d 36 05 63 3d
       -0.022643197 0.04472899 0.0773041 0.05542489
0000c0 be 1d 9c bc 8e 39 b7 bd 8d 1f 42 3d 19 63 0e bd
       -0.01905715 -0.089465246 0.04739337 -0.034762476
0000d0 19 c2 22 bc 56 7f a2 3c d0 24 14 bd b9 10 15 3d
       -0.009933972 0.01983611 -0.03616792 0.0363929
0000e0 45 d6 8a 3c 12 90 9b 3a f2 89 3e bd c6 4d 3f bd
       0.016947875 0.0011868498 -0.046518274 -0.04670503
0000f0 69 60 2e 3d 06 86 6e ba 17 70 3e bd 7f 74 01 ba
       0.042572413 -0.00090989505 -0.046493616 -0.0004938319
000100 f1 cb ca 3c c0 a9 4a 3d d9 86 ad bc d4 bb 19 3d
       0.02475545 0.049478292 -0.021182464 0.037532642
000110 4b f1 3a 3d b6 4a ac bc 5f 69 39 bd 8f 45 03 bc
       0.04564027 -0.021031719 -0.045266505 -0.0080121895
000120 d2 30 f3 3c d8 16 1f 3d e6 0b 4c bd 59 eb ca 3b
       0.029686365 0.038840145 -0.049816035 0.0061926064
000130 65 67 3a 3d b1 2b 05 bd 57 28 73 3d c8 5f 75 3c
       0.04550876 -0.03251237 0.059364643 0.014976449
000140 23 61 8b bc b2 86 65 bd c8 68 dc bd 50 1f ac bc
       -0.017014092 -0.05603666 -0.10762173 -0.021011025
000150 06 20 b6 3d 9a 13 08 3e cf d3 c4 3d 48 5b 8c 3d
       0.08892827 0.13288727 0.09610712 0.06853348
000160 2a 85 b3 3d b6 2f 1d be 77 97 bd bd 2e 4b 03 be
       0.087656334 -0.15350232 -0.09257405 -0.12821648
000170 76 a5 8c bd ee e3 da bd c1 3c 73 bd cf a4 0a 3c
       -0.06867497 -0.106880054 -0.05938411 0.008462145
000180 f6 1b 1f bd 4e 01 ce 3c 02 8a 0e 3d e4 54 11 bd
       -0.038845025 0.025147106 0.034799583 -0.03548135
000190 57 3e d9 ba d4 ae d1 bc 3f 69 64 3d db c9 a8 3c
       -0.0016574365 -0.02559606 0.055764433 0.020604065
0001a0 aa 18 6e 3c cd e3 da bb 63 a9 11 ba 18 ee b7 bc
       0.014532248 -0.006679988 -0.00055565516 -0.0224524
0001b0 57 8f e0 3c e2 a7 cb 3c 03 53 02 bc 76 a0 36 3c
       0.0274121 0.024860326 -0.007954362 0.011146655
0001c0 78 e8 9e 3d fd 18 68 bd 6c 1a ac bd 7d d5 8c bd
       0.07759184 -0.056664456 -0.08403477 -0.06876657
0001d0 4e 28 ee 3c 09 e3 8f 3c cd 0a c1 3a 65 a8 39 3d
       0.029071953 0.017564313 0.001472795 0.04532661
0001e0 55 0b b7 bd 09 ff a3 bc 72 36 1a 3d ea 4c 31 bb
       -0.08937708 -0.020019071 0.03764958 -0.00270539
0001f0 6f a1 97 3c b0 c1 00 3d cc b7 4c 3d 70 e3 4a bd
       0.018509595 0.031434715 0.04997997 -0.049533308
000200 f4 fe 6d bd 85 6a 8b bc 53 69 c7 3d 04 3d aa 3d
       -0.05810447 -0.017018566 0.09736886 0.08312419
000210 5a fe ab 3c ec ec 86 bd 6f 66 d3 bd 86 40 17 3d
       0.020995308 -0.06588158 -0.10322272 0.03692677
000220 42 58 1a bc ed bb 48 3c a2 22 c8 3d 17 f6 e5 3b
       -0.009420456 0.012251836 0.09772231 0.0070178616
000230 72 e0 ef bd 36 45 3a bc a7 76 11 bd 0e 82 ea 3c
       -0.117127314 -0.01136904 -0.035513546 0.028626468
000240 db b1 04 3c 52 b2 e6 bb c3 21 d2 bc 5f d8 39 3c
       0.008099045 -0.0070403004 -0.025650864 0.011343091
000250 46 3c 65 3d 8d e6 2a bd c3 fa 92 ba 2e b2 50 3c
       0.055965684 -0.041723777 -0.0011213649 0.012737794
000260 00 72 34 3c a6 59 3f bd 89 d8 31 3d f5 64 54 bd
       0.011013508 -0.046716355 0.043419395 -0.051854093
000270 4f 5a 83 3d 90 1e 23 bd 03 41 8f 3d 0a 5f 16 3d
       0.06413709 -0.03982407 0.06994822 0.03671173
000280 65 20 da 3c 6c 8a d0 bc 02 63 5d bd 26 76 73 3c
       0.026626775 -0.02545663 -0.0540495 0.014859712
000290 69 f8 01 bb 6d 7c 39 3d 66 92 8d bd 02 ee f2 3c
       -0.0019831902 0.045284677 -0.06912689 0.029654507
0002a0 e2 4c 07 3d bf 91 9c bd e7 a6 1a 3d 89 d4 59 bd
       0.033032306 -0.07644986 0.037756827 -0.053181205
0002b0 70 d2 ef 3c 5e 94 17 bd be f1 83 bc 10 e7 69 3c
       0.02927515 -0.03700673 -0.016106483 0.014276281
0002c0 bf 84 a2 bc 61 7a af bc 96 28 47 bd 1c 6f 55 3c
       -0.019838689 -0.02142066 -0.04862269 0.013026979
0002d0 49 5a df 3c 4a f3 3a bd 88 19 83 bc 29 9a 4d bd
       0.027264731 -0.045642175 -0.016003385 -0.050195847
0002e0 69 6e f7 3c 09 2d a4 bc 8b d3 fe 3c a6 2b 68 bc
       0.030204015 -0.020041006 0.03110673 -0.014170563
0002f0 b5 ae 25 3c e5 f6 56 3c 43 e5 49 bd 85 8d 71 3c
       0.010112454 0.013120388 -0.049290907 0.014743214
000300 ea 2f c3 bb 80 6e 66 3c 3a ed fa bc 49 ea 07 3d
       -0.0059566395 0.014064431 -0.030630697 0.033182416
000310 e3 b9 2a 3d a6 9d 14 bd a4 22 f2 bc 57 d0 87 3c
       0.04168118 -0.036283158 -0.029557534 0.016578836
000320 6b 57 d9 3c 0a 99 bd 3b b5 9c f9 39 c7 28 90 3c
       0.026530942 0.005786066 0.00047609737 0.01759757
000330 3d 38 09 bd 89 31 ba bd 4e 63 0b be 61 88 95 3c
       -0.0335009 -0.09091479 -0.136121 0.018253507
000340 65 4e 21 bd 28 39 cb bc ce d8 8f bc 4e a6 9c 3d
       -0.039381403 -0.024807528 -0.017559435 0.076489076
000350 56 91 a2 bc 32 60 2d 3d fe 4b 8b 3d 9c e7 82 bd
       -0.019844692 0.042328067 0.06801604 -0.06391832
000360 cf 33 ce bc 19 6b 1c bd a9 d5 f4 3d 0b 77 e0 3d
       -0.025171189 -0.038188074 0.11954815 0.10960206
000370 59 76 94 3c e8 91 d3 bb fc 96 1a 3c 34 ef 15 3d
       0.018122839 -0.0064566024 0.009435412 0.036605075
000380 fb 03 81 3d 9e 9c a2 3c 80 57 3b 3a 40 4e 77 bc
       0.06299587 0.019850072 0.00071465224 -0.01509434
000390 1a 18 f5 3c 98 b1 e4 bb 69 70 df 39 e6 80 ca 3c
       0.02991872 -0.0069791786 0.00042617627 0.024719667
0003a0 0e 55 db 3b e8 8a 2e bd b4 b2 81 3c 0c 9e 0b bd
       0.006693489 -0.04261294 0.015832283 -0.034086272
0003b0 e0 bd 3e bc 56 11 d5 bc 2a f6 f1 bc b8 40 32 3c
       -0.011641949 -0.026009243 -0.029536325 0.010879688
0003c0 40 07 93 3b 77 f4 3d 3d b9 9d 2a 3d 62 00 8e 3b
       0.0044869483 0.046375718 0.041654322 0.0043335417
0003d0 e5 a3 0e 3d ff 53 40 bd b0 1f 60 3b 53 1d f2 bc
       0.03482427 -0.046955105 0.0034198575 -0.029554999
0003e0 0e 66 01 bd 6b 88 93 3c f2 b5 2b 3d 56 3c 9c 3d
       -0.031591468 0.018009385 0.041921563 0.07628696
0003f0 6a c1 4d 3d 21 4b 16 3d fe 04 84 3d f8 29 9e bc
       0.050233282 0.036692742 0.06446265 -0.019307122

bias f4 [120]
000000 ff 2b 16 3d 4a 98 4a 3d fe a7 6e 3c ee 13 2f bd
       0.03666305 0.04946164 0.01456642 -0.042743616
000010 64 5a 3f 3c aa 7d 07 3d 2e e2 36 bc 72 71 2d 3b
       0.011679266 0.033078827 -0.011162324 0.0026465324
000020 e2 06 0b 3c 80 c5 e8 3c aa 03 35 bd 5b af d3 3c
       0.008485528 0.028414488 -0.044192947 0.025840452
000030 e5 54 e3 3d 86 05 a2 3d 01 10 43 bc 86 18 13 bd
       0.11100177 0.0791121 -0.011905671 -0.03591206
000040 6b 53 08 bd e3 24 13 3d ae 9d b3 3d ae 8b 13 3b
       -0.03328268 0.03592385 0.087703094 0.0022513676
000050 b9 c2 57 3d 85 f2 88 3d 4f 59 0d 3d bf ef 16 bd
       0.052675936 0.06686882 0.034509 -0.036849733
000060 fe ff c1 bc 8b a9 02 3c fa 9a 22 3d 48 c2 e0 bc
       -0.023681637 0.0079749925 0.03969858 -0.02743639
000070 92 bf af bc f0 e5 4e bc d4 66 1b 3c dd 10 37 3c
       -0.021453653 -0.012628064 0.009484965 0.011173454
000080 2b c0 d5 3d e8 34 f4 3c 87 17 76 3b 57 7e d8 bc
       0.10437044 0.029810384 0.0037550644 -0.026427431
000090 08 73 29 bc 51 45 b8 3c 31 da fb 3b 1f 36 4c bd
       -0.010342367 0.02249399 0.0076859226 -0.0498563
0000a0 7b c4 7c 3a 3c 00 8b 3b 4b 90 0b bc b0 45 23 3c
       0.0009642315 0.0042419713 -0.008518289 0.009965345
0000b0 5d 53 59 bd ec d7 b3 3b 2a 6b 6b 3c 27 01 5a bd
       -0.053058017 0.0054883864 0.014368812 -0.053223755
0000c0 19 25 0a 3d f2 e9 0c bd 6d 99 20 3c 84 6c 74 bb
       0.033726785 -0.034402795 0.009802205 -0.0037296126
0000d0 1b 67 7e 3d d5 f3 1a bc 45 c0 90 3c 19 e6 a7 3c
       0.062110048 -0.009457548 0.017669806 0.020495461
0000e0 b5 ad 70 bc 58 9c 14 bd 20 e2 cf bc ea 67 e7 bc
       -0.0146898525 -0.036281914 -0.02537638 -0.028247792
0000f0 3a ea 17 bd 81 c0 68 3b 74 0d 9c 3c df b5 15 bd
       -0.03708861 0.0035515132 0.019049384 -0.0365504
000100 de 6f 86 bc 4a 93 4a bd ab 73 6b bb 01 9b 96 3a
       -0.016410764 -0.049456872 -0.0035927098 0.0011490287
000110 3c 0d 86 3c b3 af 1f bd 12 db f5 3d 14 7b 80 3c
       0.016363733 -0.03898592 0.12004675 0.015683688
000120 5b 3d 8b bc 3d 0f 8d 3d db 84 77 3d 3c e2 54 3d
       -0.01699703 0.06887672 0.060429435 0.051973566
000130 e8 84 08 3d 02 6b 17 bd 2b 2a e7 3c 0a 6f 66 bc
       0.033329874 -0.036967285 0.02821835 -0.01406456
000140 cf cc 4c bd 1e f0 35 3d 8c c8 1c 3b f2 d5 22 3d
       -0.05000001 0.044418447 0.0023923246 0.039754815
000150 9a e4 2a 3d d9 e9 76 3c 61 78 21 bd a7 f1 1a bd
       0.041721918 0.015070402 -0.039421443 -0.037828114
000160 3a 84 2d bd a5 7e b8 3c 6e ef b4 bb eb 47 23 3d
       -0.04236243 0.022521326 -0.0055217063 0.03986351
000170 74 8f 1b bd 64 a8 8d 3b 83 45 10 bd 40 23 d6 3c
       -0.037978604 0.0043230522 -0.03522254 0.026139855
000180 64 95 f2 3c f4 f7 e4 bb f7 3e e9 3c b0 a1 dc 3c
       0.02961225 -0.006987566 0.028472407 0.026932567
000190 af 21 24 3d 50 38 93 bc 32 31 1e bd a4 4b 21 bd
       0.040071186 -0.017971188 -0.038621135 -0.039378777
0001a0 5d b0 3a 3d 75 f9 eb 3c 1f a3 05 3d 75 f2 f6 3c
       0.04557835 0.028805474 0.032626268 0.03014491
0001b0 b6 c3 0b 3c 5b b2 fa 3c ab 43 58 3d 11 64 82 3c
       0.008530548 0.030602625 0.05279891 0.015916856
0001c0 03 eb 35 bd f7 fb d1 bb 74 f7 da bc be 83 42 3d
       -0.044413578 -0.0064082104 -0.026729323 0.04748892
0001d0 53 cc 0e bc 92 00 16 bd f5 b9 92 bc 5d 10 c3 bc
       -0.008715707 -0.036621638 -0.017910937 -0.023811514

weight f4 [36, 120]
000000 3d 5e 1a bd 3c d7 44 bd e3 d9 47 3d 22 66 cb bb
       -0.03768753 -0.048056826 0.048791777 -0.0062072435
000010 3f 27 7f bd ae 22 91 bc ea 45 a9 3d 61 fc ae 3d
       -0.062293287 -0.017716732 0.08265288 0.08544231
000020 fe b5 b4 bd 83 70 2e 3d 5f 10 3a 3d 4f c6 44 be
       -0.08823775 0.04258777 0.04542577 -0.19216274
000030 ac ee 38 be 23 96 f3 bc a4 2f 5d 3d 28 f7 5f bd
       -0.18059796 -0.029734677 0.05400051 -0.054679066
000040 0c e4 82 bd e2 1c 1f bd 8b 3f 9b bd 54 4f 86 3c
       -0.06391153 -0.038845904 -0.07580479 0.016395248
000050 52 2e 20 3d 29 6c 98 3b af 43 5c 3d d8 ca 55 3d
       0.039106674 0.0046515656 0.053775486 0.0521954
000060 01 af e6 3c ba 22 1e bd a5 7b 8f bc d9 b4 38 3c
       0.02815962 -0.038607337 -0.017515013 0.011273586
000070 1c cd 98 3d 64 4d 7e bd 67 ec 04 3d d3 db 92 bd
       0.074609965 -0.062085524 0.032452013 -0.071708344
000080 58 5c ee bd df 6b a7 bc 3c a1 ce 3c b5 3d af 3d
       -0.11638707 -0.02043718 0.025223367 0.085566916
000090 3a ca 94 bc 2e 30 c3 3a 65 e8 cb bc 70 ae 90 3d
       -0.018162835 0.0014891678 -0.024891088 0.07064521
0000a0 f9 a0 b3 bc 0d 73 75 3d 9c 2a 96 bc 63 ba 99 3d
       -0.021927344 0.059924174 -0.018330865 0.075062536
0000b0 0b b9 9a bd e1 c8 f9 bd 42 ab 92 bd ba d3 bc bd
       -0.075548254 -0.12196518 -0.07161571 -0.09220071
0000c0 b1 e2 81 bc 84 11 68 3d d5 17 b8 3d b8 d5 17 bd
       -0.015855165 0.05665733 0.089889206 -0.037069052
0000d0 b9 67 0d be de e2 5b 3d b1 84 04 be 75 aa 33 bc
       -0.13809098 0.053683154 -0.12941243 -0.010965933
0000e0 9b cc 8c 3d fd 95 27 3d fe 8d 82 3d ce d0 af bb
       0.06874963 0.040914524 0.06374739 -0.0053654676
0000f0 c4 4b 99 3d 51 87 80 3d f3 9d dc bb b8 e4 88 bd
       0.07485154 0.062758096 -0.006732696 -0.0668425
000100 ab 64 ec bb a7 c4 f1 bc 06 85 bc bd 30 e8 96 3d
       -0.007214149 -0.029512716 -0.0920506 0.07368505
000110 08 76 c6 bc 4c 54 1f 3c 66 3b bc bd bc 0e 36 3d
       -0.024226204 0.009724688 -0.09191017 0.044447646
000120 55 69 69 3d 22 ee 7c be f7 6e 31 be 4c 7e 15 be
       0.056985218 -0.24700215 -0.17327486 -0.1459896
000130 94 82 8a 3d cf 46 37 bd ca 7b 88 bc fb 62 6c 39
       0.06763187 -0.044745263 -0.01666059 0.00022543587
000140 5b b1 9c bd 37 f2 bd bd ec 68 3f 3d d7 67 7f ba
       -0.07651015 -0.092747144 0.04673092 -0.00097429514
000150 57 2b 23 bd c2 05 7e 3d f4 39 cd bd aa 83 52 3d
       -0.039836254 0.06201721 -0.10020819 0.051395096
000160 97 05 94 bd c1 ee c5 bd ed e1 ec 3a 07 f2 55 3c
       -0.07227629 -0.09664679 0.0018072702 0.013058192
000170 95 bf ea bc 69 fc 12 be fd 73 1a 3d 42 25 3e 3d
       -0.028655807 -0.143541 0.03770827 0.04642225
000180 e1 50 71 bd 08 a1 9b bd 6a 8c 67 3d 4b e0 24 bd
       -0.058915023 -0.07599074 0.056530394 -0.040252965
000190 62 23 03 be e9 13 cf bc f9 dc bd 3a fe 0e 88 3d
       -0.12806466 -0.025278049 0.0014485411 0.066434845
0001a0 41 c2 91 bd cf 8b 46 bc 1a 76 a1 bd 6c bc a6 3d
       -0.07117129 -0.012118294 -0.07883854 0.08141407
0001b0 b4 34 06 be 87 af 97 3d a5 c8 a2 bd 82 23 fd bd
       -0.13106042 0.07406526 -0.07948426 -0.12360288
0001c0 b1 c4 4f 3d 0c 8c 99 3d 1c 51 7f 3a f7 22 0b be
       0.05072469 0.07497415 0.0009739564 -0.13587557
0001d0 f2 05 c7 bc df 1b 0c bc 71 17 7c bd 7e 33 a5 bd
       -0.024294827 -0.008551567 -0.061545793 -0.08066462
0001e0 11 3c 90 3b 9a ad bc bd 08 09 ac 3d ec 29 8b 3d
       0.0044016917 -0.09212799 0.0840016 0.06795105
0001f0 2b 31 99 3d 5b d1 ea bd 56 e7 cd 3c 91 ce 56 bd
       0.07480081 -0.11465713 0.025134724 -0.05244309
000200 3f bf 41 3c 7c bb 59 3b a9 c9 ae bd ba 4c 5b be
       0.011825382 0.0033223322 -0.08534557 -0.21415988
000210 75 d4 e0 bd 69 19 02 be 53 56 cb bc ab 2d 94 3d
       -0.10978023 -0.12705006 -0.024821436 0.07235273
000220 02 b6 7b bc 3a 1b 82 bd f7 b1 d3 bd 87 b0 a3 3d
       -0.015363218 -0.06352849 -0.103366785 0.07992654
000230 cd 3d 1e 3d 62 cd 76 bd 58 a2 9d 3d 73 a2 38 3d
       0.038633157 -0.060254462 0.0769698 0.0450768
000240 bc ba a9 3d 17 75 0e bd c3 5f ac bd f4 44 a5 bc
       0.0828757 -0.034779634 -0.084167026 -0.020174481
000250 13 d4 55 3c 73 f2 a3 bd 13 d1 a0 3d cf 91 da 3c
       0.013051051 -0.08005228 0.07852378 0.026680855
000260 45 a2 4e be cb 0d 9e 3d c8 37 6e 3d 36 41 99 bd
       -0.20179088 0.077174746 0.058158666 -0.07483141
000270 97 3b 7f 3d e6 1f 21 be f3 28 d6 bc ea 10 2f 3c
       0.06231269 -0.15734825 -0.026142573 0.010685185
000280 4f f2 cd 3b 09 e1 93 3d 55 5e b4 3d ed 5a 29 3d
       0.006284989 0.072206564 0.08807055 0.04134648
000290 5a 0c 5f bd b8 29 ab bd 29 d7 c2 bc 82 92 ec bd
       -0.05445514 -0.083575666 -0.023784237 -0.11551382
0002a0 7b 0a 1f 3b 7a 97 b3 3d 4f f7 a3 bd af 6d ba 3c
       0.0024267721 0.08769126 -0.08006155 0.02275738
0002b0 0e 47 01 be 43 f3 d8 bc 5d 0f 1b be 12 06 a4 bd
       -0.12624761 -0.026483184 -0.1514258 -0.0800897
0002c0 e7 3f 45 3d f5 64 71 3d 94 6d 41 bc dc 38 29 3d
       0.048156645 0.05893417 -0.011805911 0.04131399
0002d0 34 a4 9a 3d 50 ff 28 bd 06 68 20 bd b5 fe 49 3d
       0.075508505 -0.04125911 -0.039161704 0.049315173
0002e0 33 21 5b bd 61 43 95 3c 53 0d 97 bb d1 98 be bd
       -0.053498458 0.018220605 -0.0046097427 -0.09306491
0002f0 86 fd 60 bd 29 a1 e4 3c 18 bc 1c 3c e3 da 91 3c
       -0.05492928 0.027908878 0.009566329 0.017804569
000300 f8 e8 74 bd a1 de dc bd 28 85 b7 bd ca ed 11 be
       -0.05979249 -0.107846506 -0.089609444 -0.14250866
000310 7d 31 38 bc 34 83 2e bd a8 c2 24 bd df 4f 0e bd
       -0.011242268 -0.042605594 -0.0402247 -0.03474414
000320 72 0b aa 3d 85 1d 2e bb 87 a1 13 bd 34 5c 11 bc
       0.08302964 -0.0026567888 -0.036042716 -0.008872081
000330 81 67 6d 3c d7 32 3b 3d e5 6e b4 bd c4 56 89 ba
       0.014490009 0.04570278 -0.08810214 -0.0010478129
000340 02 3a ac bd f1 14 09 be 4d d7 8e 3c c4 33 5d 3d
       -0.084095016 -0.13386895 0.017436648 0.054004446
000350 26 20 c7 bd 08 c7 81 bd c0 7f a2 3d f3 93 a9 bc
       -0.09722929 -0.0633679 0.07934523 -0.02070043
000360 29 2f 02 be 6a 5e 28 bd 0a 94 bd 3b 40 57 20 be
       -0.12713303 -0.041105665 0.00578547 -0.15658283
000370 2c 52 ec bd d9 0b 5e bd 56 5d 13 3d 90 20 cd 3c
       -0.115391105 -0.054210518 0.035977684 0.025039941
000380 51 91 2f 3d 91 8d 90 3d f4 ba 35 3d a2 09 8b 3d
       0.042863194 0.07058252 0.044367746 0.06788947
000390 6f 6e 97 bd 18 e1 c0 bb 58 90 e1 3c 3b 80 81 bd
       -0.073941104 -0.0058862083 0.027534649 -0.06323286
0003a0 42 bd ac bc 88 81 99 3d f9 da 62 3c 8f 0e ef bd
       -0.021086339 0.07495409 0.013846152 -0.11672699
0003b0 8d 39 d9 bb 63 14 36 3d ae dd 01 bd 7c 80 08 3d
       -0.006629175 0.044453036 -0.03170555 0.033325657
0003c0 0a 5f d0 bd f0 2c 3b be 66 f7 e8 3a 1d 4a 82 3c
       -0.10174377 -0.18278861 0.0017773926 0.01590448
0003d0 07 6e 9d 3e 50 fc b6 3e b5 1a d2 be cb a6 33 be
       0.30748007 0.35739374 -0.41036 -0.17544095
0003e0 db 78 93 3d 12 22 83 3d 02 6b ec 3d e6 5c 81 bd
       0.07200786 0.06402983 0.115438476 -0.06316547
0003f0 99 1a a1 3d 49 9b 0b 3e b9 2a 89 3e d4 79 3a 3d
       0.07866401 0.13633455 0.26790407 0.04552634

bias f4 [36]
000000 81 c8 ee bd 80 b5 62 be 70 aa 58 3d af ca 6c 3d
       -0.11659337 -0.2213955 0.052896917 0.05781048
000010 98 ab 8a 3c 88 bf fb bd e3 29 d4 bc a2 cc 06 3d
       0.016927525 -0.12292391 -0.02589888 0.032909997
000020 4d 80 80 bd 3e 1a 36 3d cf c5 24 3e f4 2e 75 3b
       -0.062744714 0.04445862 0.16091083 0.003741202
000030 60 43 89 bd fe c7 8e bd 93 22 72 3d 9a e3 07 bd
       -0.06702304 -0.06971739 0.059115004 -0.033176042
000040 fd 0f e4 bc 35 9f c5 3c d9 37 67 bd 98 a3 c7 3c
       -0.027839655 0.024123767 -0.056449745 0.02437
000050 03 0b 80 3c 0e 3c 62 bc 04 7e 30 bd 79 01 68 3d
       0.01563025 -0.0138082635 -0.043088928 0.05664203
000060 91 97 6f be 2d 6f 11 bd fe ad 8d bd 60 11 3f bc
       -0.23397662 -0.035506416 -0.06917952 -0.011661857
000070 ea a6 a5 3d 9e bb ef bd e9 5b ef 3a 0e f1 91 3d
       0.08088477 -0.11705707 0.0018261644 0.07126056
000080 11 8c 6b 3e cd 31 2d 3c 08 06 b7 3c c2 7a 47 3d
       0.2300265 0.010570955 0.022341743 0.048701055
