model/(69)-net.pkl (torch_old, 254922 bytes, 8 tensors)

weight f4 [16, 1, 5, 5]
000000 2f 08 4a 3d e6 d6 e1 3d d4 4b 1a be 6d 70 06 3e
       0.04932421 0.11027317 -0.15067989 0.13128825
000010 62 db 57 bd b8 6c ca bd 01 25 c3 3c ab 40 b7 3d
       -0.052699454 -0.09884018 0.023821356 0.08947881
000020 5d 23 b7 3c 9f 2d 4e 3c 2f 5d 62 3d 2e af 6e 3d
       0.02235573 0.012584119 0.055264648 0.058272533
000030 f8 cb 0c be 5f 1a ef bd e9 7a 69 3d 5b 27 b2 bd
       -0.13749683 -0.11674952 0.057001982 -0.08698913
000040 df b4 29 be de 48 39 be a9 51 8d bd af 12 25 be
       -0.16572903 -0.18094203 -0.06900341 -0.16120408
000050 97 e8 1a 3e 4b 18 85 bd 0e 91 92 bc 66 a2 82 3d
       0.15127788 -0.06498774 -0.017891433 0.06378631
000060 66 af 2e be 78 92 31 3d a9 34 f7 bd 9b a1 35 be
       -0.17059097 0.043352574 -0.12070591 -0.17737429
000070 91 8f c9 be a4 bc 42 bf 60 73 f0 3e c8 06 87 3e
       -0.39367345 -0.7606909 0.46963024 0.2637236
000080 80 11 ce 3d b6 aa 82 be 2e e3 0f bf 24 d8 1d 3f
       0.100619316 -0.25520867 -0.56206024 0.6165793
000090 ea 27 1f 3f 89 e1 c4 3e fb 5b f3 bd fb 95 4b be
       0.6217028 0.3845332 -0.11882778 -0.19881432
0000a0 f4 83 eb 3e 44 c1 22 3f 19 f4 16 3f 22 39 94 3d
       0.4599911 0.6357615 0.58966213 0.0723746
0000b0 58 58 68 be 40 04 dd 3e f9 fe b8 3e 5d f8 aa 3e
       -0.2268995 0.43167305 0.3613203 0.3339261
0000c0 b1 0f 23 3d f8 5b 67 bd 05 bb 47 be 58 50 04 be
       0.039809886 -0.056484193 -0.19504936 -0.12921274
0000d0 58 c6 2d bd 9c f6 ed bd 0d 96 0c be 51 09 08 be
       -0.042425483 -0.11619303 -0.13729115 -0.13284804
0000e0 0b de 5b bd 50 6c cd 3d 19 b8 46 3d b9 27 0f be
       -0.053678554 0.100304246 0.048515413 -0.13979997
0000f0 82 6e 04 be 8f 83 d9 3c 03 d3 9a 3c 6d 98 43 be
       -0.1293278 0.02655199 0.018899446 -0.19101115
000100 a4 26 d9 bd 67 86 2a bd 10 35 00 3d 62 cb 4b 3e
       -0.10603073 -0.041632082 0.031300604 0.19901803
000110 2c 25 3b bd 8c eb 0e bd 57 91 b0 bd 31 8b 1f 3d
       -0.045689747 -0.034892604 -0.086214714 0.038951103
000120 8e 32 a9 bd 5b 9f 02 bc f3 0e 1f be 94 ef 0a be
       -0.08261596 -0.007972564 -0.15533046 -0.13567954
000130 b5 ec 16 3e e2 7f 81 3e 0c 31 5f 3e d4 93 6a 3e
       0.14738734 0.2529288 0.21796054 0.22907954
000140 b0 be 13 3e 05 51 10 3d 63 b2 86 3e 33 45 86 3e
       0.1442821 0.035233516 0.26307973 0.2622467
000150 fb 62 a7 3e 3b 6f 1b be 7b 00 d3 3c 26 26 14 be
       0.32692704 -0.1517915 0.025757065 -0.14467677
000160 d5 23 0e 3e 47 20 95 3e 97 31 d0 be 3f 7a 0f be
       0.13880856 0.29126188 -0.40662834 -0.14011477
000170 3d 69 95 be 07 87 d7 bd ee 72 a1 3d ca 5c 23 be
       -0.29181853 -0.10523801 0.07883249 -0.15953365
000180 ed ad d4 be fd c9 e3 be 05 54 c5 be 36 0d 93 bd
       -0.41538945 -0.44490042 -0.38540664 -0.07180254
000190 26 b3 8b 3e 56 53 5c 3e 8a d9 cf 3d 8b 34 af bd
       0.27285117 0.21516165 0.10148914 -0.08554944
0001a0 a2 a6 87 3e ab a0 cf be 2a 00 c4 be fe f5 8f be
       0.26494318 -0.40552267 -0.38281375 -0.28117365
0001b0 b3 fb 65 bb ae 06 88 bd d0 31 ec be 16 32 75 be
       -0.0035092651 -0.06641899 -0.46131754 -0.23944888
0001c0 cc 67 b4 be 53 18 25 be 8b ec 88 3d 8c d4 cb 3d
       -0.3523544 -0.1612256 0.06685742 0.099526495
0001d0 0c 77 a7 3d 29 fc 1b be 67 f2 8e 3d 78 1a ac 3e
       0.08177003 -0.1523291 0.06979828 0.33613944
0001e0 db 6b 83 3e 8c 18 4c bd 02 31 a0 3d e2 32 38 3e
       0.25668225 -0.049828097 0.078218475 0.1798816
0001f0 e9 30 64 3e e9 a3 00 be aa cb f4 bd 9d 31 0a 3e
       0.22284283 -0.12562527 -0.11952908 0.13495488
000200 94 73 0d be 1b a7 46 be 4a e3 4a bc 55 bd d5 bd
       -0.13813621 -0.19399683 -0.0123832915 -0.10436503
000210 3d 92 16 be 22 1c 1a be 40 11 3d be 4f ab 2d bd
       -0.14704223 -0.15049794 -0.18463612 -0.0423997
000220 33 9b 1d 3e 6a c5 cd 3d 99 37 24 3e 0e 2c 1f 3e
       0.15391235 0.10047419 0.16036834 0.1554415
000230 44 65 04 be aa df 18 be d2 fa 0c 3e 12 84 50 bd
       -0.12929255 -0.14929071 0.13767555 -0.050907202
000240 04 91 8b bc aa 5a fa 3c 61 55 77 bd 13 cd 69 bc
       -0.017036922 0.03056081 -0.060384158 -0.014270085
000250 d2 21 a6 bd b7 9d a7 bd f1 a5 96 be 9d 99 96 be
       -0.081119195 -0.081843786 -0.29423478 -0.29414073
000260 7c 7b 20 be ce 6a 02 bf 90 cc 0d bf e4 00 9b 3e
       -0.15672106 -0.5094422 -0.5539026 0.30274117
000270 a2 2d 19 bd a9 02 31 3e 20 a4 1d be 7a fe 0e be
       -0.037397034 0.17286171 -0.1539464 -0.13964263
000280 a0 02 f4 3e 25 c8 88 3e 88 d2 db 3e f2 33 89 3e
       0.47658253 0.26715198 0.4293406 0.26797444
000290 cf 77 69 be 11 35 a1 3e 7d 6a df 3e b1 ce e8 3e
       -0.2279961 0.314858 0.43635932 0.45470193
0002a0 be 18 8c 3e e9 ac d1 bc e9 76 29 b9 68 5a 8a 3e
       0.27362627 -0.025595145 -0.00016161393 0.270221
0002b0 59 92 96 3d 1f 1b 49 3e e5 ab 84 3d 6c 9e d1 3d
       0.07352132 0.19639252 0.06478099 0.10235295
0002c0 54 a2 11 be 29 3f 0d be a1 a6 9a 3d 76 a7 bf bd
       -0.1422208 -0.13793625 0.07551313 -0.093581125
0002d0 06 5e ed 3d d8 1d 2b be 05 92 22 3e c4 be 4a 3e
       0.11590199 -0.16710603 0.15876015 0.19799334
0002e0 35 ed f8 bd c3 3f 3b 3e 41 99 ad 3d 2e 92 f4 bd
       -0.12154619 0.18286042 0.084764965 -0.11941944
0002f0 14 b8 e5 3d ea 81 30 bc fe 81 13 3e 9b c0 90 bd
       0.11216751 -0.010773161 0.14405057 -0.070679866
000300 0b 25 37 be 5a 79 0a be 6c e9 f5 3d 1d 96 3e be
       -0.17885225 -0.13522854 0.12007412 -0.18611951
000310 49 ff 84 bb ca 22 af bd ad 39 38 bd d8 5e 3b be
       -0.0040587527 -0.08551557 -0.04497688 -0.18297899
000320 61 0f e6 be 28 8f e5 be 13 f0 8b be 84 39 de be
       -0.44933608 -0.44835782 -0.273316 -0.43403256
000330 df 54 dc be a4 13 1e 3e 62 ff 38 3e c4 fb 15 3e
       -0.43033502 0.1543718 0.18066171 0.14646822
000340 8b d1 89 bd 85 b3 0b be 3a 94 96 3e a6 6e 51 3c
       -0.0672942 -0.136427 0.29409963 0.012782728
000350 42 09 b6 3e 2e a5 46 3e 54 64 2b 3e c8 d7 19 3e
       0.35553938 0.19398949 0.16737491 0.1502372
000360 1e b4 3a 3d 10 3a 3c bd f1 25 a6 3e 74 16 9e 3e
       0.04558193 -0.04595381 0.32450822 0.30876505
000370 6b 07 2f bd 5d d8 28 be ac 01 33 bd ed 8b ad 3d
       -0.042731684 -0.16488786 -0.043702766 0.08473954
000380 fc 41 79 bc 7e 76 00 bf d5 a5 66 bf ea b3 64 bf
       -0.015213486 -0.50180805 -0.9009679 -0.8933703
000390 9a b8 20 bf 84 8c fe be aa bb 34 bf 59 bd 41 bf
       -0.6278168 -0.4971658 -0.7059885 -0.75679547
0003a0 e3 79 30 bf fd e1 35 bf 9e f6 91 be c3 63 55 3d
       -0.68935984 -0.71047956 -0.28508466 0.052097093
0003b0 7e ec 3b be df 27 f3 bd e1 e7 64 3a 9c e3 99 3e
       -0.18351933 -0.11872839 0.00087320624 0.30056465
0003c0 8c a2 99 3e 56 bf ed 3e c2 2d 43 3f a5 dd 31 3f
       0.30006826 0.4643504 0.76241696 0.6947883
0003d0 e4 79 34 3f 0a 31 1e 3f ff 19 50 3f d8 46 5a 3f
       0.7049849 0.6179358 0.81289667 0.8526435
0003e0 b3 21 5e 3f f5 a3 40 3f 85 97 d4 be 30 ac ae be
       0.8677017 0.7525018 -0.4152185 -0.34115744
0003f0 2e a3 0f bf e9 42 db be bc c9 28 be d6 3c c1 be
       -0.5610837 -0.42824486 -0.16483206 -0.37741727

bias f4 [16]
000000 9e 1a ce bd 1c cd f1 be 87 46 24 3e 31 4d be 3e
       -0.100636706 -0.472268 0.16042529 0.37168267
000010 4a 34 fa 3e c6 c0 6f bd 98 bc 86 be 52 46 3c be
       0.48868018 -0.058533452 -0.2631576 -0.183862
000020 64 4e ab 3e 43 c0 77 3f ca 23 8e 3e e4 e3 39 3f
       0.33458245 0.96777743 0.2776168 0.7261336
000030 95 5e 42 be 58 4f 5c bf 16 58 2b 3f c1 82 16 be
       -0.18981393 -0.8605857 0.66931283 -0.14698316

weight f4 [16, 16, 5, 5]
000000 c9 62 87 3c c9 df 02 3d 19 8e f7 3b 42 8c 2a 3d
       0.016526597 0.0319517 0.007554781 0.041637667
000010 a0 20 99 3b 63 c9 48 ba 54 7a b9 bb 36 15 42 bd
       0.0046730787 -0.00076594035 -0.0056603346 -0.04738351
000020 24 aa 32 3d 44 2f bc 3c 0f cc f3 3c 53 c7 01 bd
       0.04361929 0.022971757 0.029760389 -0.03168423
000030 a5 35 01 3d 37 c6 9d 3c af 51 43 bd 9e 24 47 bd
       0.0315453 0.019259555 -0.04768532 -0.048618905
000040 1f 73 c1 bc b6 c3 0c 3d b7 eb 81 3c ce b8 f9 bc
       -0.023614464 0.034366332 0.015859468 -0.03048363
000050 0a 44 ed bc b0 db f8 bc 3e d3 9a bc 87 fb a6 3c
       -0.028963108 -0.030378193 -0.018899556 0.02038361
000060 5d b4 24 bd c8 ae 3b 3d 70 4f 0b 3e c2 fa d5 3d
       -0.04021107 0.04582098 0.13604522 0.10448219
000070 45 a9 06 3c f6 99 97 bd 24 9a 84 3c b2 de 0f 3d
       0.008219068 -0.074024126 0.016186781 0.03512449
000080 45 8b b1 bd 3e 83 e2 bd 34 ad 69 bd 62 70 75 3d
       -0.08669142 -0.11060189 -0.057049945 0.05992163
000090 07 51 87 3b a8 af a5 bc 48 60 c5 bd af c0 a4 bc
       0.0041295323 -0.020225361 -0.09637505 -0.02011141
0000a0 48 68 03 bd 77 b2 13 bd 95 4c 89 bd 49 a4 01 be
       -0.032081872 -0.03605887 -0.0670406 -0.12660326
0000b0 7c 9b 07 be 5f 9e 5b 3c 33 93 61 bd 18 77 90 bc
       -0.13242906 0.013404458 -0.05507202 -0.017634913
0000c0 0d 21 b6 bd e9 88 76 bd 38 31 18 bc f4 a9 46 3d
       -0.08893023 -0.06018916 -0.009289078 0.048501924
0000d0 b9 c5 84 3c 7b 6e e4 3c 8d a2 00 3d b3 cb 33 3d
       0.016207563 0.027884712 0.03140502 0.043895435
0000e0 ac ed 18 bd e4 27 9a bb 7b dc 2b bd db 7e 93 bc
       -0.037336037 -0.0047044624 -0.041958313 -0.018004825
0000f0 1e 99 b9 3c d0 76 05 3d bc 30 15 3c 65 4f 01 3c
       0.02265602 0.03258401 0.009105857 0.007892464
000100 dc 86 34 ba 5e b1 0d bd f5 d4 36 3d 76 10 63 bc
       -0.00068865507 -0.03459298 0.044636685 -0.013858905
000110 73 93 40 bd 96 d7 b7 bc 98 95 44 3c ab 04 25 bd
       -0.04701562 -0.022441667 0.011998557 -0.040287655
000120 ca 8e 4a bb ad 79 4e 3a ec d0 cc bc 8d a3 f6 3c
       -0.0030907863 0.00078764075 -0.025001965 0.030107284
000130 b9 9d d2 3d 9e 89 9b 3d 25 5a 93 3d a6 9b 6a 3d
       0.102839895 0.07594608 0.07194928 0.057277344
000140 5f 21 29 3d 54 0c 06 3d 71 68 c5 3d 67 b4 aa 3d
       0.04129159 0.0327266 0.09639061 0.0833519
000150 d6 15 a1 3d d0 f2 e2 bc a6 85 4d bd 91 a9 95 bd
       0.07865493 -0.027703673 -0.050176285 -0.07307733
000160 c5 27 34 3c c8 5f ac 3c d2 b3 3a bd 36 ac b6 3c
       0.01099581 0.021041766 -0.045581646 0.022298913
000170 fc 2a bc 3c 15 6c 70 3d 6a 6f be 3d df d4 b7 bc
       0.022969715 0.058696825 0.09298594 -0.022440372
000180 dd cc 89 3c f7 20 24 bd ec 4e 17 3d 72 57 28 3d
       0.01682132 -0.0400705 0.0369405 0.04109902
000190 b9 e0 57 bd 15 11 e3 bc 5c 51 0d bd 0d 32 b5 3c
       -0.052704547 -0.027718106 -0.03450142 0.022118593
0001a0 94 8d a4 3c d7 be 58 bd a1 1b ba bb ba 4a 83 3c
       0.020087041 -0.052916374 -0.005679563 0.016026843
0001b0 8b f3 b2 3d 15 c0 88 3d 29 f5 0a bd be 37 49 3d
       0.087378584 0.06677262 -0.03392521 0.049125426
0001c0 26 a6 44 3d 71 02 e4 3d 1e 44 af 3d 35 02 24 3d
       0.048010014 0.11133278 0.08557914 0.040041167
0001d0 c8 ef 73 bc 74 1e 5b bc 11 52 74 bd a7 db 47 bd
       -0.014888711 -0.01337396 -0.059648577 -0.04879346
0001e0 7f d5 e5 3c 53 3e 78 bb 7d 82 c9 3c 7f f5 70 3d
       0.028055904 -0.0037878945 0.024598354 0.058827873
0001f0 b3 e8 de 3c 45 f4 1c 3d f7 52 d9 3c bd 84 b1 bb
       0.027210569 0.03831889 0.026528819 -0.005417435
000200 1e 8a c6 3c 8f 74 a5 bc f9 b4 ca bc e6 4a c5 bc
       0.024235781 -0.020197181 -0.024744498 -0.024083566
000210 56 a5 14 3d ff be b0 39 41 34 27 bd 02 75 a3 bc
       0.03629049 0.0003371164 -0.040821318 -0.019953255
000220 c2 91 f6 bb eb c7 3b bd ab 76 2d 3d a5 48 04 bd
       -0.0075247 -0.045844954 0.0423495 -0.03229584
000230 ec 91 1f bd 05 c4 68 3c ff c9 d8 3c f7 9e 0b 3b
       -0.03895752 0.014206891 0.026463507 0.0021304467
000240 9f 07 9a bc 4e 5f 6b 3c 68 ab 4b 3d c4 91 4c 3d
       -0.018802462 0.014365984 0.049724013 0.0499437
000250 34 4d 09 3d 6a e0 b9 3b 1e f3 a3 3d b0 80 dc 3d
       0.033520892 0.005672504 0.08005355 0.10766733
000260 a0 9d 71 3d 04 91 18 bd e3 40 a9 3c 91 f0 cb bc
       0.058988214 -0.037247673 0.020660823 -0.024894984
000270 5c 91 aa bd b7 c7 83 bd 11 c0 b7 bd 2f 52 0e bd
       -0.08328506 -0.06434577 -0.08972181 -0.034746345
000280 15 64 31 bd 62 f4 1c bb 54 7d 71 3d 67 0b ee bc
       -0.043308336 -0.0023949374 0.058957413 -0.029058171
000290 6c b5 ab 3c 14 ee 62 bd d8 38 4b 3b 4d f2 fb 3b
       0.020960532 -0.05540283 0.0031009223 0.0076887966
0002a0 77 94 80 bd 00 36 a5 bc 4e 30 07 3c 90 87 4f bd
       -0.062783174 -0.02016735 0.008251263 -0.05066639
0002b0 27 89 a7 bd 19 81 9b bd 74 84 ea bd 77 71 2a bd
       -0.081804566 -0.07592983 -0.11451045 -0.041612115
0002c0 8b 06 f4 3c 5e 21 82 3b a3 3c 02 3d fd 92 08 3c
       0.029788276 0.003971263 0.03179611 0.008335826
0002d0 71 1a aa bc e6 ec 36 3d 83 dd a6 3b 41 e3 3b 3d
       -0.020764561 0.044659518 0.005092324 0.045871023
0002e0 f1 1f 39 bd 44 85 31 3d b3 0f 9b bc c6 17 eb bb
       -0.045196477 0.043339983 -0.018928384 -0.007174465
0002f0 88 f8 1a 3d 96 6a 35 bd 86 23 05 bd 66 36 3e bd
       0.037834674 -0.0442911 -0.03250458 -0.046438597
000300 e1 09 9a 3c d1 6b 38 bd df 4c 2e 3d 1d 90 03 3d
       0.018803539 -0.045024697 0.04255378 0.03211986
000310 5f 2f e8 bc 9c b6 c6 bc 94 cc ec 3c df cb 15 bd
       -0.0283429 -0.024256997 0.028906144 -0.03657138
000320 f7 43 a6 3b 71 3c f4 bc d3 31 31 bb ac 92 16 bd
       0.00507402 -0.029813977 -0.0027037754 -0.03676097
000330 3d f4 08 3d ca 84 9f bd b8 a9 9d bd 33 74 a1 bd
       0.03343605 -0.077889994 -0.07698387 -0.07883491
000340 f0 9e 20 3d 0e 38 63 3c 95 76 e3 3b a3 8b 6e 3d
       0.039214075 0.013868345 0.0069416263 0.058238637
000350 48 cf df 3d 61 56 7b 3d 88 01 c4 3d f1 da 44 3d
       0.10928208 0.061361674 0.095706046 0.04806036
000360 33 44 b2 3c b7 aa 93 3d 8c 5a 8a 3d 37 d7 07 bc
       0.021761036 0.07210296 0.06755552 -0.008291057
000370 74 28 10 3c 46 b0 fc 3c b2 98 22 bd 0b ea 86 bd
       0.008798707 0.030845772 -0.039696403 -0.06587609
000380 2a ef 84 bd 8c e8 28 3d ab c6 18 bd b4 bc d7 bd
       -0.064909294 0.0412374 -0.03729884 -0.10534039
000390 76 65 57 bc be a0 0d bb a6 82 fc bd 63 1f f3 bd
       -0.013146749 -0.0021610702 -0.12329607 -0.11871221
0003a0 9a 39 4b bd 12 4f d6 3c 5b bf 5b 3d b6 48 9e bc
       -0.04961548 0.02616075 0.053649288 -0.01932178
0003b0 2b f0 b1 3d 2f 16 71 3e 8f 34 3b 3e d5 dd 2b 3e
       0.086883865 0.23543619 0.18281768 0.16783841
0003c0 27 22 c8 bd cc f2 1a be ce b6 03 be c4 37 12 be
       -0.09772139 -0.15131682 -0.12862703 -0.14279085
0003d0 2b 75 7a be e5 79 8b 3d e6 10 e7 ba b1 8a e4 bb
       -0.24458759 0.06810359 -0.0017628937 -0.006974541
0003e0 fa 51 7e bd 9f 22 2c be a6 47 87 3d e9 a7 30 bd
       -0.062089898 -0.16810082 0.06605463 -0.04312888
0003f0 55 3f 26 bd 93 9d 01 bd c0 3e 1b bc d6 5b 18 bd
       -0.040587742 -0.031644415 -0.00947541 -0.037196957

bias f4 [16]
000000 b9 58 83 3d c8 89 c4 bc 3f e6 ab bc d0 1d 14 3d
       0.06413407 -0.02399148 -0.020983813 0.036161244
000010 04 2b 83 bd 03 33 2a bd 6c cf 14 3d 23 81 9d bd
       -0.06404689 -0.041552555 0.036330625 -0.076906465
000020 62 56 34 bb 9f 0e 1d bd 42 1b 59 bd 53 04 15 bd
       -0.0027517308 -0.038344022 -0.05300451 -0.036381077
000030 89 b0 c9 3d e8 57 82 bd 92 90 df bc e4 6f 10 3d
       0.098481245 -0.06364423 -0.027290616 0.035262957

weight f4 [120, 400]
000000 15 6d 96 3d f5 ef f3 3c 57 5b 05 3d f0 f5 ec bc
       0.073450245 0.029777506 0.03255781 -0.028925866
000010 e9 7a 44 bb 51 15 d2 bc 4e 11 bc bc c3 38 4a bc
       -0.0029980487 -0.02564493 -0.02295747 -0.012342635
000020 35 ef 4d 3d 0e 72 90 bc 52 19 6d bd 60 2a 37 bd
       0.050276954 -0.01763251 -0.057885475 -0.044718146
000030 3c 11 9f 3c f1 0e 67 3b 2a 78 28 bd 17 6b b9 bc
       0.019417398 0.0035256709 -0.041130222 -0.022634072
000040 0d 25 90 bb cb d4 bb bc 4e 10 62 bc 2a 8a 4d 3c
       -0.004398948 -0.022928616 -0.013797833 0.012545148
000050 e4 d7 4c bc ed b0 59 bd f4 df 23 3b cd 1a 01 3b
       -0.012502644 -0.053147245 0.0025005313 0.0019699812
000060 2c ac 9e 3c bc fb 26 bd 53 cc 21 bd 2b 92 14 bc
       0.019369207 -0.040767416 -0.0395015 -0.009068052
000070 a1 46 6c 3c 17 7f 0d 3d c3 11 a6 bc 23 39 40 3c
       0.014421136 0.03454503 -0.020272141 0.011732372
000080 b0 a0 94 bc 5b b5 16 3d 27 83 3f 3d 28 c7 45 bc
       -0.018143028 0.036794048 0.046755936 -0.012071408
000090 ac 1b 3c 3c 89 a0 5e 3c 52 02 a3 3c 23 ba c1 3a
       0.011481207 0.013588079 0.019898567 0.0014780205
0000a0 f9 3d 20 bd c7 67 70 bc 9c 93 1d bd 45 97 43 bd
       -0.0391216 -0.01467318 -0.03847085 -0.047751684
0000b0 59 52 b8 3c c8 10 91 bc 84 46 20 bd d8 2e 84 bc
       0.022500204 -0.017708197 -0.03912975 -0.016135618
0000c0 58 d3 f6 bc 56 45 2b bd 11 dd 8b 3b 32 a7 c5 bc
       -0.030130073 -0.04181417 0.0042682965 -0.024127577
0000d0 5a 33 18 3d 78 44 b5 3c 11 84 ac 3c a2 1b b4 bc
       0.037158348 0.022127375 0.021059068 -0.021985833
0000e0 19 d2 17 3d 83 39 81 bc 49 c2 c7 3c 76 db 6d bc
       0.0370656 -0.015774494 0.024384635 -0.014517656
0000f0 a1 82 8b bd 44 39 ad bc 7e a7 65 3d 1c 41 8d 3d
       -0.06812025 -0.02114547 0.056067936 0.06897184
000100 ca 1c c5 3c 0e b0 3a 3b 72 aa 6d bd 5f 08 c3 3b
       0.02406158 0.0028486284 -0.058023877 0.0059519256
000110 7e 95 ab 3d 64 83 d5 3d fe 2c 5f bd f8 00 5b bc
       0.08378123 0.104254514 -0.054486267 -0.01336693
000120 19 3b be 3c c2 4a e6 3c 9e 30 b9 3c 4d b0 10 bb
       0.02322154 0.02811182 0.02260619 -0.002207774
000130 5d 43 0c bd b4 ad 0c 3d 4b 13 9b 3d 4a 6a 0b 3d
       -0.03424393 0.034345344 0.07572039 0.034036912
000140 c3 4b 72 3d 36 3c 70 bd 10 d2 0c bd d9 d3 3c bd
       0.059154283 -0.05865117 -0.03438002 -0.04610047
000150 4f 66 a8 bc e8 cd 03 bc 0b 73 31 bd 9e 95 e2 bd
       -0.020556597 -0.008044697 -0.043322604 -0.110636935
000160 70 75 c1 bd 98 d8 6a 3d 64 08 9b 3c 04 e6 1e 3b
       -0.094462276 0.057335466 0.0189249 0.0024245987
000170 d4 41 7a bd 31 62 84 bd 53 63 42 bd ec 7f 25 3d
       -0.061097935 -0.06464041 -0.047458004 0.0404052
000180 93 6b 20 bc 95 5f 90 3c 1c 5a 03 bd ea 32 15 3d
       -0.009791273 0.017623702 -0.032068357 0.03642551
000190 28 2c 6a 3d 6a d7 e5 3c 59 c2 ee bc 43 31 45 3c
       0.057171017 0.028056819 -0.029145407 0.012035671
0001a0 b1 06 82 3d 1f e9 13 bd c1 bb 4a bd bc 90 5a 3d
       0.063489325 -0.036110993 -0.049495462 0.053360686
0001b0 bf 5d e1 bb 9f b6 41 bc 84 39 29 bd 00 d6 4f bd
       -0.0068776305 -0.011823325 -0.041314617 -0.050741196
0001c0 d0 90 20 bd 2d 08 9d 3d 72 e6 05 bb 4d 42 eb bc
       -0.039200604 0.07667575 -0.0020431546 -0.028718138
0001d0 71 74 a1 bd 3d ea e9 bb da 1e 90 bb db 21 9d 3c
       -0.078835376 -0.007138519 -0.004398209 0.019181183
0001e0 8e 0c 75 bc f3 5a 4e 3c f8 6b 41 bc 72 f1 e5 3c
       -0.014956607 0.012594926 -0.011805527 0.028069232
0001f0 b0 15 83 bd a2 c7 9b bc 5a 8f a0 bc 4e 21 bd 3c
       -0.06400621 -0.01901609 -0.019599605 0.02308717
000200 6e d5 cb bc 7d 9f 90 bc 0c 2f 35 bc f5 a1 37 3d
       -0.024882045 -0.017654175 -0.01105858 0.04483219
000210 02 66 54 bd 1a df b6 3c 4b e8 eb bc ee 4c b2 3c
       -0.051855095 0.02232318 -0.02879729 0.021765199
000220 3c e2 8c bd 15 14 8b 3c ad 3c 00 3e bc 8e b6 3d
       -0.06879088 0.01697735 0.12523146 0.08913943
000230 5e 7e e8 bc d2 17 cc bc a6 05 57 3d 3c 44 af ba
       -0.02838057 -0.024913702 0.05249562 -0.0013371776
000240 ec e7 82 3b dd 01 92 bd f8 f2 93 3b e1 73 75 3c
       0.0039949324 -0.07129262 0.004515048 0.014981241
000250 d8 d0 76 3d 2f 31 d2 bb d0 70 4a 3d 55 21 b9 3c
       0.060257763 -0.0064145545 0.049423993 0.022598902
000260 e7 5a 58 3d 68 b8 39 bd 56 b8 70 bd a6 1d fd bc
       0.052821066 -0.04534188 -0.058769546 -0.030897927
000270 42 7e a5 bc a6 04 1a bd bf 4b bc 3c 0a c1 a8 bc
       -0.020201806 -0.03760209 0.022985337 -0.02059986
000280 d8 16 03 3d 95 bd 6b 3d 95 d2 23 bc be 02 56 3d
       0.032004207 0.057553846 -0.009998937 0.05224871
000290 6a 29 83 bd b0 36 44 bd 3d eb 8f bc 95 01 1c 3d
       -0.064043835 -0.047903717 -0.017568225 0.038087446
0002a0 c9 56 d2 3d 24 91 8c 3a 92 b6 2c 3d a1 2f 5c 3c
       0.10270459 0.0010724408 0.0421663 0.01343909
0002b0 88 f8 8a bd e5 56 20 3c 27 99 67 3d 9e ab 1a 3d
       -0.06785685 0.009786342 0.05654254 0.037761323
0002c0 25 b8 73 3c 36 d3 73 bd 0e d7 ea bd 2e 79 dc bd
       0.014875446 -0.0595276 -0.114668 -0.10765301
0002d0 0f fb ef 3c 89 bb 2d bd de b3 38 3c ef 77 3f 3d
       0.029294519 -0.042415176 0.011273352 0.046745237
0002e0 f9 64 cc 3d 91 b0 3b bd a0 4a 94 3d b3 5c 96 bc
       0.099801965 -0.045822684 0.07240796 -0.01835475
0002f0 4b 08 38 3d cc 95 bb bd 24 c8 22 bd 43 15 28 bd
       0.044929784 -0.09159431 -0.03974165 -0.0410359
000300 29 7a 0a bd 61 c5 67 3d db c5 17 bb a7 5a d7 b9
       -0.033807907 0.05658472 -0.0023158703 -0.00041075537
000310 4a 38 aa bb a6 f7 b6 bd b2 ff 9b 3b c7 73 ca bc
       -0.0051946985 -0.08933954 0.004760706 -0.02471341
000320 27 5b 20 bd 47 5f 33 bd 20 42 b8 3c 20 75 84 bc
       -0.03914943 -0.043792035 0.022492468 -0.01616913
000330 ec f2 0d bd 2b 01 fb 3c 58 b3 31 3d f5 39 17 bc
       -0.034655496 0.030640205 0.043383926 -0.009230127
000340 79 fb f8 bc 17 e5 49 bb 10 9e d4 3c 8b 0a cb bc
       -0.030393349 -0.0030806714 0.025954276 -0.0247853
000350 74 de 17 3d 27 07 1d bd d6 3c 2c bd 59 19 1d bd
       0.037077382 -0.0383369 -0.042050205 -0.03835425
000360 de 30 a9 bc 6a b3 3f 3c 1c 94 0d 3d e3 d8 fd bc
       -0.020653185 0.0117004905 0.034565076 -0.030987209
000370 42 f3 9b 3a 31 49 a6 bc 85 af 16 bd f1 96 1c bd
       0.0011898058 -0.020298572 -0.036788482 -0.038229886
000380 94 f9 8c 3c 79 4d 47 3c 6b 93 d9 bc 97 dd b6 bc
       0.017208852 0.012164467 -0.026559552 -0.02232246
000390 d2 ab ae bd 44 45 06 bd 98 76 d7 3b 03 80 95 bd
       -0.08528866 -0.0327809 0.006575417 -0.07299807
0003a0 ba 67 a6 bd 7a 0f 4e bd 4c b5 88 3a c0 fc 6b bd
       -0.08125253 -0.05030773 0.0010430007 -0.057614088
0003b0 a9 88 84 bc 28 e5 67 3d bb 0a 83 3c 9d e3 c4 bc
       -0.016178446 0.056615025 0.015996328 -0.024034316
0003c0 c6 06 6a bd f3 8c 9b bc fd fc 66 3d 3b 49 ea 3d
       -0.057135366 -0.018988108 0.056393612 0.11439749
0003d0 b1 21 2f 3d a2 60 d0 bc cf 05 4a bd 02 43 b8 3c
       0.04275674 -0.025436703 -0.049321946 0.02249289
0003e0 eb 4e eb 3b d6 e3 03 bd 98 e3 ca 3c 13 11 a8 3c
       0.0071810386 -0.032199703 0.024766728 0.020515954
0003f0 71 a4 6a bd f6 c2 1b bb 72 f3 e9 bc 18 3b 4a bd
       -0.05728573 -0.0023767329 -0.028558467 -0.049372762

bias f4 [120]
000000 25 9d e6 3c f9 0c 9d bc d4 dd 50 bc 09 f6 1f bd
       0.028151104 -0.019171225 -0.0127482 -0.039052997
000010 5b 3b 46 bc 42 93 91 3c 9f ce 93 bc 17 22 18 bd
       -0.012099112 0.017770413 -0.01804286 -0.037141886
000020 e6 7a 69 bd 64 75 b3 bb 97 54 3a 3d 0e 20 0d b9
       -0.05700197 -0.0054766405 0.045490827 -0.00013458749
000030 51 4c 80 3d 20 3c 42 3d 04 0e 31 bd 6f 37 85 3c
       0.06264556 0.04742062 -0.043226257 0.016261784
000040 2f 44 21 bd 84 7c 93 bb 9b 05 fb 3c 35 25 8a 3c
       -0.039371666 -0.0045009274 0.030642321 0.016863445
000050 55 58 4b bd 2e 92 15 3d d6 08 92 3c 7f 2f 6d bc
       -0.049644787 0.03651636 0.017826479 -0.014476656
000060 92 fc e5 bc 85 22 36 bd 43 c4 c3 3c 7b d5 41 3d
       -0.028074536 -0.044466514 0.023897296 0.04732273
000070 6d 32 0d 3d 4a 70 68 3d 7f 60 35 bd 93 eb ab 3c
       0.034471918 0.056747712 -0.04428148 0.020986354
000080 1b ba f3 bc 99 ba 94 3c cc 33 e0 3c f0 2d 31 3d
       -0.029751828 0.018155383 0.027368449 0.0432567
000090 01 e5 44 3c b3 73 7e 3c 20 3a 31 3c 85 35 d1 3c
       0.012017489 0.0155305145 0.010817081 0.025538215
0000a0 cf 18 9e 3b 57 e3 8e 3c 26 2d b9 3d 5a a1 26 3c
       0.0048247348 0.017442388 0.090418145 0.010170305
0000b0 af ec ea bc 06 31 d7 3c d9 e3 43 3d 3d f7 11 3d
       -0.028677313 0.026268493 0.047824714 0.035636175
0000c0 0c f9 c8 3c 2b b6 b4 3b 1c 4f f4 3c 0b 3c 31 3c
       0.024532817 0.00551488 0.029822879 0.010817538
0000d0 34 7d e2 bc 35 5a 12 3d 18 b3 06 bd 7d 90 09 3d
       -0.027647592 0.03573056 -0.03288564 0.03358506
0000e0 f7 78 f0 bb b5 fe 71 3c 19 2c 3e bc 39 ca 47 3c
       -0.007338639 0.0147702 -0.011607193 0.01219421
0000f0 34 68 cb bc e8 e6 98 3b 1b d6 4c bc bd 4d b9 3c
       -0.024829961 0.004666198 -0.012502219 0.022620076
000100 85 12 56 bd ed 37 38 3c 18 a1 41 3c a6 1e a5 bc
       -0.052263755 0.0112438025 0.011818193 -0.020156216
000110 3a b8 1b 3d ae 81 18 bb ad a2 81 bc ed 57 7a 3c
       0.03801749 -0.0023270654 -0.01582464 0.015279752
000120 82 c5 17 3d bb 9a 74 3a 93 fd 65 3d c3 11 f3 bc
       0.037053593 0.0009330918 0.05615003 -0.029671555
000130 f7 16 1c 3d fb cb 41 bd 03 2c d9 bc de 22 8a bb
       0.03810784 -0.04731367 -0.026510244 -0.0042155823
000140 0f 11 6b 3d a9 27 cf bc 72 86 22 3d 60 14 b0 3d
       0.057389315 -0.025287466 0.039679 0.08597636
000150 cd 71 ef 3c 0d 4c 56 bc 2b 45 25 bc 26 52 75 3c
       0.02922907 -0.013079655 -0.010087292 0.014973199
000160 4e 6c 06 3d 25 5b 16 bd 61 a1 54 bc 14 70 ee 3b
       0.03281813 -0.036708016 -0.012977929 0.0072765443
000170 a4 fa d1 bc 06 ac 55 bd 29 dc ba 3b e9 d0 f2 3c
       -0.02563221 -0.052166007 0.0057025147 0.029640632
000180 a7 20 c4 3c bc 6d a9 3c ff 45 c9 bc 20 bc 3b 3d
       0.023941351 0.020682208 -0.02456951 0.045833707
000190 6a 45 eb bb 3c 1f f3 bc 3c af a7 3d 1e 7b 0e 3d
       -0.0071799057 -0.02967798 0.0818772 0.034785382
0001a0 a0 97 87 bc 33 09 52 bd 6a fc 2d 3c 3b 2e d7 3c
       -0.016551793 -0.051278304 0.010619262 0.026267162
0001b0 58 27 c3 3c c7 2d 4c bc 21 a1 ae bc 98 04 09 ba
       0.023822471 -0.012462086 -0.021317067 -0.000522682
0001c0 7a 41 1c bd 5c 53 1e 3d 21 8c b0 ba 7c ba 27 3d
       -0.03814838 0.038653716 -0.0013469496 0.04094933
0001d0 42 c4 3b 3d 44 70 44 3d 92 d7 b5 3c 13 0f f1 bb
       0.045841463 0.047958627 0.022197518 -0.0073565333

weight f4 [36, 120]
000000 0b 0f ad 3b 68 b3 b8 bd 43 33 03 be 8f 2a 6c 3c
       0.0052813343 -0.09018594 -0.12812524 0.014414444
000010 49 63 88 3d fa 4e f5 bc f8 27 04 bd 7c d8 3c 3d
       0.06659562 -0.029944886 -0.03226468 0.046104893
000020 1d 67 a7 3d 90 28 1c bc 18 8e 95 bd 18 df 1e 3d
       0.08173964 -0.009531155 -0.07302493 0.038786978
000030 63 9f f4 bd 5a 4d 8f bd 1c 43 ae bc 31 65 93 bd
       -0.11944463 -0.069971755 -0.021272235 -0.07197035
000040 85 36 f6 bd 74 18 d6 bc 1d 61 ba bd fb 54 bb bd
       -0.120221175 -0.026134707 -0.09100554 -0.09147068
000050 bf 95 a2 bc 08 56 da 3c 3f 2a e0 bd f2 71 a8 3d
       -0.019846795 0.026652351 -0.10945558 0.08224858
000060 38 25 6a bd 95 8d ec 3c 32 8d 9d bd 4f 39 f9 3b
       -0.0571644 0.028876105 -0.076929465 0.0076057087
000070 97 eb 6e bd be 32 41 3d 79 f0 5a bd 9d c1 82 bd
       -0.058330145 0.047167532 -0.05345199 -0.06384585
000080 64 44 90 3d f5 cb 9a bc 78 34 b6 3d f9 e2 16 bd
       0.070442945 -0.018896082 0.08896726 -0.03683755
000090 ef 83 cc bd 25 0f 99 bd 62 af 8d bd ca 7a fb bd
       -0.09986102 -0.07473592 -0.06918217 -0.122792795
0000a0 63 7d 29 bc 9d 7f 8b 3d bd 9a 5f bd ae 40 c9 3b
       -0.010344836 0.0681145 -0.05459093 0.0061417436
0000b0 ba 69 b1 bd 24 04 98 3d 02 92 82 bd bf 4d 79 bd
       -0.08662744 0.07422665 -0.06375505 -0.06086516
0000c0 b8 fa 38 bd 77 91 12 3d 74 1f 45 be 7d 5d a6 3d
       -0.04516098 0.035783257 -0.1925028 0.081233
0000d0 e7 9e 8a 3c ef b2 47 3d d7 50 31 3d 63 6f 78 bc
       0.016921474 0.04875463 0.043289986 -0.015163275
0000e0 e7 4b 09 3d f9 54 aa bd 2f d4 1f bd 99 3c cb b9
       0.03351965 -0.083169885 -0.039020713 -0.00038764326
0000f0 93 8a 78 bd d0 0c 96 bd 00 f3 5e bd 32 4e 1e bc
       -0.06067903 -0.073266625 -0.05443096 -0.009662198
000100 08 34 e9 3c f1 88 3b 3b 79 ec 6b bd ec a6 92 3c
       0.028467193 0.002861556 -0.057598565 0.01790186
000110 92 d4 53 3d d7 73 1f bc 55 e9 7b bc 75 e9 f1 bc
       0.051716395 -0.009732208 -0.015375455 -0.029530266
000120 b4 fc 14 be d5 49 a1 bd 63 ac 2a 3d d4 48 4c bd
       -0.14549524 -0.078754105 0.041668307 -0.04987414
000130 34 dc 6f bd 0b c1 0d bd 43 84 fb 3c 19 a1 ee bb
       -0.05855961 -0.03460793 0.030702716 -0.007282388
000140 b2 5e b3 bd fb 64 ac bc eb 45 71 3d 4d d3 df bd
       -0.08758296 -0.021044245 0.05890457 -0.10928974
000150 8e 74 94 bd 00 b3 93 3d 9f d9 cd bd 47 97 1a 3d
       -0.072487935 0.07211876 -0.100512736 0.037741926
000160 c2 85 c2 bc 9e 39 95 3c 19 71 c2 bd 08 be 80 bd
       -0.023745421 0.01821595 -0.09494228 -0.062862456
000170 e1 3c fb bb f0 d1 80 bd 6d 4a 32 3d 4d 3f 3d bd
       -0.0076671694 -0.062900424 0.04352801 -0.046202946
000180 b9 de d0 bd 23 4d 2a 3c e4 28 24 bd 25 50 37 be
       -0.10198731 0.010394367 -0.04007806 -0.17901666
000190 9c b8 61 be e6 9e 6a 3d 18 ca 92 be 77 00 4b 3d
       -0.22043079 0.057280444 -0.2866981 0.04956099
0001a0 b1 22 9b 3d 98 49 96 bd 14 5a c0 bd e1 04 7c 3d
       0.07574976 -0.07338256 -0.09392181 0.06152809
0001b0 f3 7d 4f 3d 8b 2b fa bd 64 67 8f bd 17 19 80 bc
       0.050657224 -0.122153364 -0.07002142 -0.015636964
0001c0 fe af b6 3d 71 30 a6 3d 37 37 b9 3c 71 35 b3 bd
       0.089202866 0.08114708 0.022609336 -0.087504275
0001d0 9d 7a 2c bd 8a 57 ab bd c3 00 48 bd 91 a4 57 bd
       -0.04210912 -0.08366306 -0.04882885 -0.052647177
0001e0 aa d7 5f 3d 9c 9e 10 bd 40 e7 c7 bd 96 86 82 3d
       0.054649033 -0.03530751 -0.09760904 0.063733265
0001f0 ea 78 42 bd 36 24 8c bd e2 83 c3 3b 38 93 09 bc
       -0.047478594 -0.06842844 0.0059666494 -0.008396916
000200 b7 ec 4a bd ca f9 c6 bd 02 79 e7 bd e6 d6 a6 bd
       -0.049542155 -0.09715612 -0.11302377 -0.081464574
000210 82 a1 f0 bc 0f c0 6f bd 87 4b b5 bb 74 80 30 3d
       -0.029373888 -0.05853277 -0.005532685 0.043091252
000220 5d 3d 04 be dd 6a b8 3c 6c 33 55 3c 54 b0 39 3d
       -0.12914033 0.022511894 0.013012748 0.045334175
000230 6a 8c b6 3d 28 14 b6 3a 60 e6 18 be ce dd 09 bd
       0.089135006 0.0013891505 -0.14931631 -0.033658795
000240 19 17 1e bd 8f 11 af bd 3e f9 a0 bb 6f 07 09 be
       -0.038596246 -0.08548271 -0.0049125245 -0.13381742
000250 2d 45 3e be ba 44 34 bd 15 69 04 bc ee da 3d 3d
       -0.18581076 -0.044010855 -0.008081694 0.046351366
000260 1c 43 17 bd 07 b9 57 bc 20 5c 6a 3d 23 ae 11 be
       -0.036929235 -0.013166673 0.057216763 -0.14226584
000270 76 7c 12 bc bd d2 db bc f2 00 3b 3d 84 ca ac bd
       -0.008940807 -0.026833886 0.0456552 -0.08437064
000280 f1 49 3a 3b ce 9b 46 3d 11 d2 2a be c7 8a b1 3c
       0.002842542 0.04848843 -0.16681696 0.02167262
000290 36 91 8b 3c d4 4b 04 3d f1 d0 84 3d c6 92 84 3d
       0.017037015 0.032298878 0.06485165 0.06473307
0002a0 69 17 0a 3d 8f b8 dd bc 04 37 35 bd 75 c8 fd bc
       0.033713732 -0.027065543 -0.04424192 -0.030979374
0002b0 46 f1 8e 3d 80 b8 94 bd 19 e2 2c bc 2c d3 e2 3c
       0.06979613 -0.07261753 -0.010551953 0.027688585
0002c0 77 cd 26 bc 1e 51 80 3a 1f 26 b4 bd 74 3e e7 3c
       -0.010180823 0.00097898 -0.087963335 0.028228022
0002d0 a5 4d b7 bc 66 6d 91 3d bf 9d ba 3b 46 20 32 3d
       -0.022375891 0.07100944 0.0056950743 0.04348781
0002e0 6b 82 5d bd c1 c6 74 bd 95 e7 58 3d 34 84 b0 39
       -0.054079454 -0.05975986 0.05295523 0.00033667835
0002f0 73 d4 6d 3d 1a b7 87 3d 6f 80 88 3d a8 98 d2 bc
       0.058063935 0.06626721 0.06665122 -0.025707558
000300 ea 0e ca bd e8 7b f3 bc be ed 08 bd 37 81 93 ba
       -0.09866126 -0.029722169 -0.033429854 -0.0011253719
000310 5a f9 d4 bd 58 ad a0 bd c3 f1 e3 bc 87 69 16 be
       -0.103991225 -0.07845563 -0.027825242 -0.14688693
000320 21 53 65 3d 5f 80 36 bd c2 5d 06 3d de 5a 62 bd
       0.05598748 -0.044556018 0.03280426 -0.05526244
000330 9e 67 6a 3d ba 23 33 bd b2 61 a1 3a 01 b9 68 bd
       0.057227723 -0.043735243 0.0012312441 -0.05681706
000340 73 0e b6 3d b6 13 ea 3c 24 37 ee bc 54 4f 8f 3d
       0.08889475 0.028573852 -0.029079027 0.069975525
000350 e2 3f 14 be 0e 1a 2c bd 5c 3b 2b 3d d1 ff 95 3d
       -0.14477494 -0.042017035 0.041804656 0.07324184
000360 15 8e a4 bd 21 78 97 3d bd 58 56 bc f8 6f 66 bd
       -0.080349125 0.0739596 -0.01308268 -0.056259125
000370 d8 14 33 be 1c ba a5 3b 14 b0 a3 be 56 71 41 3d
       -0.1748842 0.0050575864 -0.31970274 0.047227226
000380 05 a9 a4 bd c7 b0 c5 bc 69 90 1d 3d f3 85 82 3d
       -0.080400504 -0.024132146 0.0384678 0.06373205
000390 34 2d 3c 3d db 97 0d be 7f 2c 2a 3d b4 8e 53 bc
       0.045941547 -0.1382746 0.04154634 -0.012912441
0003a0 a4 31 1f 3c 0f dd 61 3d 82 f9 ac bd bf 7e b0 3d
       0.009716425 0.05514246 -0.08446027 0.08617925
0003b0 43 c8 c5 3c c8 89 4b be 9f 14 69 3d 4f 18 08 bd
       0.024143344 -0.19876778 0.05690443 -0.033226307
0003c0 ba e3 9e bd f0 2d 90 3e c5 d8 a7 bd f0 40 14 be
       -0.07758279 0.28160048 -0.081956424 -0.14477897
0003d0 c6 2e 14 bc ea 8c 99 bd 8d 3a 09 3e e6 af b6 3d
       -0.009044355 -0.0749758 0.13401242 0.08920269
0003e0 0a 29 83 bd a9 7d e8 3c db 92 3e 3e e5 d5 93 bc
       -0.06404312 0.028380232 0.18610708 -0.018046329
0003f0 0f ba 1b be 14 d6 dd bd ea eb 56 b9 3b b8 de ba
       -0.15207694 -0.10831848 -0.00020496515 -0.0016992161

bias f4 [36]
000000 b3 2e 83 be 70 df 81 be b1 49 75 3d 08 77 9f 3d
       -0.25621566 -0.25365782 0.05988473 0.07786375
000010 04 2e 46 be 4a 64 d5 bd 52 69 d3 bd 87 3d 57 3c
       -0.19353491 -0.10419519 -0.10322823 0.013137228
000020 c6 dc 8a bd c8 4b ea 3d d7 25 ac 3d 3d 2e 81 3d
       -0.067803904 0.114402354 0.08405655 0.063076474
000030 8e fb 30 3d f8 de 75 bd 86 35 8b 3c 06 66 0b 3e
       0.04320865 -0.060027093 0.016993295 0.13613138
000040 ee a2 81 3d f8 7a f6 3c ef e0 e8 bc ac 55 03 3e
       0.063299045 0.030087933 -0.02842757 0.1282565
000050 66 9a 18 3d dc fe 95 bc dc 84 85 3d 77 ec c6 bd
       0.03725662 -0.018310003 0.065194815 -0.09713071
000060 5c 5f 38 be 52 60 8b 3d cf 2e b8 bc d3 e9 a2 3d
       -0.18005127 0.06805481 -0.022483258 0.07954755
000070 1a b6 b2 3c 0c 9c 87 bd 1d 4e aa bd 60 b6 11 3d
       0.021815348 -0.066215605 -0.0831568 0.035574317
000080 af ed 12 3c 55 0e c2 bb d2 b0 d8 3d 39 bf b1 3d
       0.008967801 -0.0059221187 0.10580601 0.08679051
