model/(69)-net.pkl (torch_old, 254922 bytes, 8 tensors)

weight f4 [16, 1, 5, 5]
000000 10 da c8 bd 62 72 c1 3d c7 d7 37 3e 3b 4e 2d 3c
       -0.09807217 0.09445645 0.17953406 0.010577734
000010 73 e5 e1 bd 8a 3a 27 be a1 47 7e 3d 3f 43 85 bd
       -0.11030092 -0.16330925 0.06208003 -0.06506967
000020 7f a7 15 be 14 d8 54 bd a1 44 19 3e b3 fa 72 bd
       -0.14614676 -0.05196388 0.14967586 -0.059321117
000030 68 3b f9 bd d7 e5 55 bd b1 e0 0e 3e 2a ec 95 3d
       -0.12169534 -0.052221145 0.139529 0.07320435
000040 59 68 56 bd b0 a7 1c be 1a 86 d7 bd 98 bc 6d bd
       -0.052345607 -0.15298343 -0.10523625 -0.058041185
000050 34 87 fa bd 5f 36 dc bb b5 42 37 be 00 28 1d bb
       -0.12232819 -0.0067203487 -0.1789654 -0.002398014
000060 88 53 79 bd 00 98 69 3e 6d 20 c9 3d 89 64 69 bd
       -0.060870677 0.2281189 0.09820638 -0.056980643
000070 a9 1d bc be dd 13 b2 be a7 a8 44 3d aa d4 9b 3e
       -0.3674138 -0.3478078 0.048012402 0.30435687
000080 b5 8f 24 be b0 fe 73 3b 68 2d 17 be 36 a6 0b 3e
       -0.16070445 0.0037230663 -0.14763415 0.13637623
000090 f1 de 18 3e 11 e2 5b bc 65 00 13 3e 26 46 24 be
       0.14928795 -0.013420598 0.14355619 -0.16042385
0000a0 cf 86 e9 3d ad 9e a5 bd 30 43 fa 3d 63 4b f0 3d
       0.11402666 -0.08086906 0.12219846 0.11733129
0000b0 1d 82 91 be 6f 50 36 3e c2 a3 2e be b4 c7 da 3d
       -0.2841958 0.1780412 -0.17054656 0.106826216
0000c0 c7 56 33 bd d2 43 76 be 18 bf d6 bd 36 33 a6 3e
       -0.04378393 -0.24049309 -0.10485667 0.32460946
0000d0 08 c7 b6 3e c5 80 cb 3e cc 21 2f 3e 29 15 86 bd
       0.35698724 0.3974668 0.17102736 -0.06547005
0000e0 2d 3d 83 3e 60 fd d3 3e 59 27 9d 3e f1 c1 3e 3e
       0.2563261 0.41404247 0.30694082 0.1862867
0000f0 27 89 f0 bd b6 d9 6f 3e e3 34 d5 3e 59 33 d4 3e
       -0.1174491 0.23422894 0.41641912 0.41445425
000100 0e c2 b4 3e 77 06 37 be 77 4d 14 3e 20 aa 41 3d
       0.35304302 -0.1787356 0.14482675 0.047281384
000110 0b 7f 94 3e bb 3c 7e bd c8 93 e2 be 18 ea dc be
       0.29003176 -0.062069636 -0.44253373 -0.4314735
000120 df c1 ed be 7a 5a 2c be 62 ad aa be 6a 91 1f 3e
       -0.46436974 -0.16831389 -0.33335406 0.15582815
000130 fd 76 6c 3e c7 3c 8a bc 70 4d 3c 3e ff 8f 4c be
       0.23092265 -0.016874684 0.18388915 -0.19976805
000140 91 b8 d4 3e f4 57 00 3f 43 ae 29 3f 10 ca d0 3e
       0.41547063 0.50134206 0.6628153 0.4077916
000150 aa 1e cd 3e a5 6f ce 3e 75 ab b0 3e b4 16 0e 3f
       0.40062457 0.40319553 0.3450581 0.5550339
000160 81 98 fb 3e 1c 9b c1 3e 84 f6 bb 3d 52 08 1c 3e
       0.4913979 0.37813652 0.091778785 0.15237549
000170 0b b0 e1 3e 4e 30 01 3f d5 10 b2 3e 6e 44 01 bf
       0.44079623 0.5046433 0.34778467 -0.5049504
000180 56 48 4e be e0 fb 50 3e e7 c8 67 3e 1a a0 91 3e
       -0.20144781 0.20408583 0.22635232 0.2844246
000190 d7 32 94 bd 83 4b 12 3e 84 54 d3 3d 50 84 43 bd
       -0.072362594 0.14286618 0.103188545 -0.047733605
0001a0 09 20 e1 bc af a6 4a 3d 00 e9 8d 3d aa a2 3c be
       -0.027481096 0.049475368 0.06929207 -0.18421426
0001b0 53 d3 c9 3c 57 09 b4 bd 7d 4a 43 be aa b1 32 be
       0.0246369 -0.08790844 -0.19071384 -0.17450586
0001c0 74 91 96 3c 10 d2 0c 3d 97 14 49 bc d3 c6 87 3d
       0.018379904 0.03438002 -0.012272975 0.066297196
0001d0 bc 42 96 bd 2c d4 ee 3d 02 02 39 be 9d ad 22 be
       -0.07336947 0.11661562 -0.18067172 -0.1588654
0001e0 26 cb 52 3d a7 7d eb bd cc 0c bc 3d fe 51 2d be
       0.05146327 -0.11498576 0.09182128 -0.16925809
0001f0 2f 3d 1c 3d 15 32 76 3e 7b f1 f1 3c 18 e6 4a 3e
       0.038144287 0.24042542 0.029534092 0.19814336
000200 20 68 b3 3d 7f 00 95 3d 18 20 26 3d fb 8e 89 3e
       0.08760095 0.07275485 0.04055795 0.26866898
000210 c3 f1 17 bc 14 30 08 3e 97 37 a0 bc 43 7c 91 3e
       -0.009273949 0.1329959 -0.019557757 0.28415117
000220 51 6d 89 3d d9 d9 36 3e 5c 45 b9 3d fe 7c b3 bd
       0.067103036 0.1785654 0.090464324 -0.08764075
000230 d2 4f 5a 3e 74 4a 0e be 10 1a b0 bd 3a 6d 75 be
       0.21319512 -0.13895589 -0.08598721 -0.23967448
000240 89 57 8c 3d 25 e4 c1 bd e2 9c 4e be 27 a3 cc be
       0.068526335 -0.09467343 -0.20177034 -0.39968225
000250 38 4f bc be ba 5f d5 be 85 cd 2f 3c 43 f1 84 3e
       -0.3677919 -0.41674596 0.010730152 0.25965318
000260 00 2b d5 3d 34 49 57 3e 51 73 d8 3e 51 3b bd 3d
       0.10408592 0.21024019 0.4227548 0.09239829
000270 4e 5d 8b 3e 02 b9 a0 bd 8a f2 49 3d a4 21 24 3e
       0.27219623 -0.078477874 0.04930357 0.16028458
000280 c0 7f 23 be 87 e2 3c bd 00 8e 51 3d 0a 0e 34 be
       -0.15966702 -0.04611447 0.051160812 -0.1758348
000290 0d b5 df bd 38 e2 e6 be 24 3f 81 be 36 b9 47 3d
       -0.109232046 -0.45094466 -0.25243485 0.048760615
0002a0 8d 88 f6 3d 3f 0b 3d 3e cd 7a d6 be 3b 65 bc be
       0.12037764 0.18461321 -0.41890565 -0.36795983
0002b0 84 ea e3 be 8d 56 2c be 08 88 1f bd 4c af 85 3e
       -0.4451486 -0.16829892 -0.03894809 0.26110303
0002c0 98 a8 8f 3d 7c b7 6d 3e 8e 6b 16 3d 64 28 17 3e
       0.070145786 0.23214525 0.036723666 0.14761502
0002d0 7d f1 f8 3d c1 b2 56 bd 03 a1 50 3e 46 c2 6f 3e
       0.12155435 -0.052416567 0.20373921 0.23413953
0002e0 5d 1a 2a bb 62 88 95 be bd f6 b2 be 7f ec f1 be
       -0.0025955655 -0.29205614 -0.3495387 -0.47250745
0002f0 37 0f a8 be c2 70 76 b9 7a e4 07 bd 5b f3 bb be
       -0.32824108 -0.00023502394 -0.033176877 -0.36709103
000300 fb 21 88 be 03 b3 09 be 60 2e 52 be 0c 01 5e 3e
       -0.26588425 -0.13447194 -0.20525503 0.21680087
000310 4d 73 8e 3e 82 49 32 3e b4 0e 0d 3e 8e b3 9e 3e
       0.27822343 0.17410854 0.1377514 0.30996364
000320 d3 cc b4 bd 57 1c 96 be e8 0f 15 be 5c 03 2d bb
       -0.088281296 -0.29318497 -0.14556849 -0.0026399707
000330 0e 63 58 be 88 65 db bd e5 06 47 bd ab 1d 4a 3d
       -0.21131536 -0.10712725 -0.04859056 0.0493447
000340 2f a2 2b be 56 66 2c be 25 e6 b7 3e 9c bc 40 3e
       -0.16761087 -0.16835913 0.35917774 0.18821949
000350 4c 47 c4 3d e8 72 76 be 01 d7 84 be f9 57 ab 3e
       0.09583911 -0.24067271 -0.25945285 0.33465555
000360 5f a3 97 3e 72 4f 59 3e 95 81 0d bd af 5c 90 3d
       0.2961683 0.21221712 -0.034547407 0.07048928
000370 14 32 bd 3e 6d 29 c3 3e 8a b8 f5 bc 1c 68 ef bc
       0.3695227 0.38117543 -0.029995222 -0.029224448
000380 eb a3 1a be 51 8c 60 3e 12 46 ee 3e 4a 66 11 3f
       -0.15101592 0.21928526 0.46537834 0.56796706
000390 8a 3b e7 3e fd 13 11 3f c9 97 7f 3e f8 1b e3 3e
       0.45162612 0.56671125 0.24960245 0.44357276
0003a0 38 03 bc 3e ad b8 ea 3e af 64 ee 3e 15 ce 65 bc
       0.36721206 0.4584402 0.4656119 -0.014026185
0003b0 e8 10 d9 3d d9 53 a9 3e 56 82 8d 3c c9 7e b9 3e
       0.10598928 0.33071783 0.017274063 0.36229542
0003c0 d1 e6 34 3d 4a d2 b2 3d a7 6c ae be 59 fa cc be
       0.044165436 0.08731516 -0.3406727 -0.4003475
0003d0 6c 1b 85 be af 5b 19 3d 60 b5 24 be 57 65 89 be
       -0.25997484 0.037440952 -0.16084814 -0.2683513
0003e0 34 08 2f bf da a2 57 bf d1 ac 5b 3e 59 5c 71 3e
       -0.6837189 -0.84232867 0.21452643 0.23570384
0003f0 46 2c 36 3e 94 d0 b6 3e 80 a6 ba 3e 5f 3d 82 3d
       0.17790326 0.35706007 0.36455154 0.06359362

bias f4 [16]
000000 b0 95 25 be 0b e9 ba 3e 57 1d 77 be bf de a2 bf
       -0.16170382 0.36505923 -0.24132286 -1.2724227
000010 a8 35 57 3d 33 49 8a 3e f6 4e 37 3f ca e0 55 3e
       0.052541405 0.27008972 0.7160486 0.20886531
000020 71 f5 a9 bd f2 a9 74 be 3c f4 13 bf 1b 34 29 3f
       -0.08298767 -0.23892954 -0.5779455 0.6609513
000030 ff b1 05 be 0f 2b cc 3e 13 59 a3 3f 6c 0c 16 bf
       -0.13056181 0.398766 1.2761558 -0.58612704

weight f4 [16, 16, 5, 5]
000000 27 a6 35 3d b8 83 1d bc ef 8e 41 bd b0 dc 7d 3b
       0.04434791 -0.009613924 -0.047255453 0.0038736276
000010 42 cb d6 3c 13 b6 33 bd 63 86 9d bc 83 25 df bc
       0.026219968 -0.04387481 -0.01922912 -0.027239567
000020 e3 58 3a bd c7 d6 46 bd ae c4 1e bd 19 20 0a 3d
       -0.045494925 -0.04854467 -0.038761787 0.033722017
000030 ec da 72 3c fe c8 29 bd 50 a4 f3 bc 1a 09 05 bd
       0.014822703 -0.041451447 -0.029741436 -0.032479383
000040 c2 47 bd 3c d7 2c 9c bc 18 ae cc bb a8 6c 3e 3c
       0.023105506 -0.01906435 -0.0062463395 0.011622585
000050 00 89 a8 ba f4 c4 38 bc 01 b6 20 3d bf e7 31 3d
       -0.0012858212 -0.011277426 0.039236072 0.0434339
000060 e3 09 e2 bc ee f4 2f bd 19 90 0c 3d 33 db 42 3c
       -0.027592605 -0.042958193 0.03431711 0.0118930815
000070 a0 e0 27 3d 17 f6 58 3c dc 4d 44 3d 3a 16 d2 bc
       0.040985703 0.013242266 0.047925815 -0.025645364
000080 64 6d e3 bb 51 fe c6 bc 16 77 16 bd b5 19 93 bb
       -0.0069405306 -0.02429119 -0.036734663 -0.0044891485
000090 24 e5 ed 3c 35 74 f1 bc 2f 04 a7 bb 5c 00 54 bc
       0.029039927 -0.029474357 -0.0050969343 -0.012939539
0000a0 a9 e8 9d 3b f9 74 70 3c f9 f6 ce bc 1c b2 58 bc
       0.004818995 0.014676326 -0.02526425 -0.013226058
0000b0 41 10 05 bd 6f 8e 30 3c ed 68 13 bc 4e a8 29 3d
       -0.032486204 0.010776146 -0.008997184 0.041420273
0000c0 70 fc 04 3c 4e ee 3f 3c 4d ed 57 bb 29 1a d3 bc
       0.008116826 0.011714531 -0.0032947839 -0.02576931
0000d0 30 85 37 bd 76 61 37 3d 59 2f b2 3c da 77 fd 3c
       -0.044804752 0.04477068 0.021751093 0.030940939
0000e0 04 9d 9d 3c 6d 75 5a bc c3 f2 34 3d 33 e4 1a bd
       0.01923991 -0.013333661 0.044176828 -0.037815284
0000f0 2b 41 48 bc 99 d0 3e bd ec 7f 2c 3d 42 c8 01 3d
       -0.0122225685 -0.046585653 0.042114183 0.03168512
000100 08 73 17 bd 09 fe e3 bc 6a b3 ed bb 43 d4 53 bd
       -0.036974937 -0.027831094 -0.007254054 -0.0517161
000110 5d ff da bc 81 d5 4d bd 72 f0 e6 3c ad 8c 35 bc
       -0.026733095 -0.05025244 0.028190825 -0.011080903
000120 ba 57 51 bd 56 7d ae 3c 05 e3 05 bd c8 94 4c bc
       -0.051109053 0.0213 -0.032687206 -0.012486644
000130 92 27 8c bd 28 0c c6 3c 31 43 3a bd df af 24 3d
       -0.06843485 0.024175718 -0.045474235 0.040206786
000140 c9 bb a3 ba ff 15 5c 3b 3c 49 a6 3c a3 b0 03 3d
       -0.0012491877 0.0033582447 0.020298593 0.032150876
000150 30 ba 79 3b e2 33 5f 3c ee 35 99 3a 21 7b 7d bd
       0.003810536 0.01362321 0.0011689046 -0.061885003
000160 62 13 f1 3b 86 4f f6 3c cc 53 21 bc 4c f9 c7 3b
       0.007357047 0.030067217 -0.009846639 0.0061027166
000170 a3 b9 50 3c 67 72 40 bd 13 b4 0e 3d 7c 31 4e 3b
       0.012739572 -0.046984103 0.0348397 0.00314626
000180 83 4d 45 3d 27 99 c4 bb 07 f8 fd 3c fa 5b d5 3c
       0.048169624 -0.0059997025 0.031002058 0.026044834
000190 4a 9e 0a 3d af c9 94 3c a3 cb 95 3c cf ce 14 bd
       0.033842362 0.018162576 0.018285578 -0.03633004
0001a0 66 33 2e 3d bc d6 29 bd 03 0c aa bc 83 07 66 bb
       0.042529486 -0.041464552 -0.02075768 -0.0035099692
0001b0 4f 5c 46 3d cf c7 f5 bc d4 10 e7 bc 5e c0 3a 3d
       0.048427876 -0.030002503 -0.028206266 0.045593612
0001c0 fb 70 9f bc 1b 84 a3 3c 4e 62 1b 3d 9f 3d 05 3d
       -0.019463053 0.019960454 0.037935548 0.03252947
0001d0 8e 23 05 bd 46 e3 80 3c fe 49 dc 3c 75 79 1b 3d
       -0.03250461 0.015733372 0.026890751 0.037957627
0001e0 74 11 4a 3d d7 63 f3 bc b5 13 db 3c 23 59 bb bc
       0.04933305 -0.029710693 0.026742795 -0.022869652
0001f0 c7 ff 46 3d 0f 05 90 3c e3 93 1d bd 05 f6 3f 3d
       0.048583772 0.017580537 -0.038471114 0.046865482
000200 15 69 fc 3c f3 6b a9 bc cc 97 e8 3c fb ab 26 bd
       0.030811826 -0.020681357 0.028392695 -0.040691357
000210 62 4d f4 3c 0d 34 0c bc 15 33 3a 3d 5b 57 d0 bc
       0.029822055 -0.008557332 0.045458872 -0.02543228
000220 3a ac 34 bd 7c ad 3a bd 09 a8 89 bc c8 50 1d bc
       -0.04410956 -0.045575604 -0.016803758 -0.009601779
000230 06 b8 0d ba 2c 1e 21 3d ce 97 8d 3c 63 4f a2 3c
       -0.0005406145 0.039335415 0.0172843 0.019813245
000240 4f c6 20 bd 18 d4 ad 3b 0b df a2 bb 6c 66 45 3c
       -0.03925162 0.0053048246 -0.0049704365 0.012048345
000250 b0 1b 44 3d 1a 3f 8e bc a2 73 99 3c f0 fa 9e bc
       0.047877967 -0.017364074 0.018731896 -0.019406766
000260 b9 37 e7 bc db 84 1f bc d6 09 80 bc d9 5e fb bc
       -0.028224813 -0.009736265 -0.01562969 -0.030684875
000270 97 12 87 3c 8a 29 4e 3d ff 0b 50 3d 9c 3f e4 bc
       0.016488357 0.050332583 0.05079269 -0.027862363
000280 c6 72 a8 ba c1 86 9c 3c 31 65 bd bc a4 40 5a bc
       -0.0012851588 0.019107224 -0.02311954 -0.013321076
000290 82 78 61 3c 4b a1 d5 3c 17 28 05 bd b1 84 20 bc
       0.013761641 0.026077887 -0.032508936 -0.009797261
0002a0 e0 b7 0a bd f8 3d 07 3d 8d a8 29 bd 9c 85 28 bd
       -0.033866763 0.033018082 -0.04142051 -0.041143045
0002b0 f0 34 04 3d af fc c4 bc 2c 74 18 bd c5 14 03 3d
       0.032277048 -0.02404627 -0.037220165 0.03200223
0002c0 3a 76 84 bb fd 6c 10 bc 11 de 19 3d 2a d6 80 3c
       -0.004042414 -0.008815047 0.037565295 0.015727121
0002d0 43 78 90 bc b3 1d 1e bd 53 62 e3 3c af 3b c5 3c
       -0.01763547 -0.038602542 0.027756846 0.02407631
0002e0 a3 fd 3a ba e4 f3 0f bd e6 05 aa 3c 84 b4 9a ba
       -0.0007133132 -0.0351447 0.020754766 -0.0011803065
0002f0 31 05 71 bb 59 24 13 3d c9 0b d3 3c 49 1f 1b 3d
       -0.0036776776 0.035923336 0.025762456 0.037871633
000300 7b d9 3e bb 81 4d 3d bc 2f c5 30 3d d9 14 0c bd
       -0.0029121328 -0.011554123 0.0431568 -0.03419957
000310 8a a2 ab 3c f4 78 cc bb b7 30 d9 bc 6a 74 14 bd
       0.020951528 -0.0062400047 -0.026512487 -0.036243834
000320 0c ce 7e bb 79 e1 2e 3c 23 b5 30 bd f8 aa 2a 3d
       -0.0038880138 0.010673874 -0.043141495 0.041666955
000330 a7 67 98 3a b3 07 fd 3b fa 52 36 3d a4 ce 31 3d
       0.001162757 0.007721865 0.044512726 0.04340996
000340 96 83 f8 3a 60 dc 21 3d 63 56 e8 3c 23 22 4c bc
       0.0018960114 0.039516807 0.028361505 -0.012459311
000350 3f ed e2 3c c3 cd fa bb 13 ea 13 bd 99 20 36 bd
       0.027701018 -0.0076539232 -0.036111902 -0.04446468
000360 96 9a f2 bc 38 c4 1d bd 18 ba 3c 3d 42 d9 16 3d
       -0.029614728 -0.038517207 0.04607591 0.036828287
000370 3a 62 55 bc f6 21 c5 3c 35 f3 fb bc 92 41 3a 3d
       -0.013023907 0.024064045 -0.030755619 0.04547269
000380 15 15 3d 3d e1 26 54 bd b6 57 4c bd c0 49 77 bd
       0.046162684 -0.05179489 -0.049888335 -0.060373068
000390 f0 47 a8 bc d0 0a fd bc 19 db cc bc d6 3d 1f 3d
       -0.020542115 -0.030888945 -0.025006818 0.03887733
0003a0 35 43 20 bd 02 c6 c4 bc 9b 38 0c 3d 29 a2 54 bc
       -0.039126594 -0.024020199 0.03423367 -0.012978115
0003b0 7b f0 38 bd ac 36 72 bd 81 29 04 bd 80 a3 12 bd
       -0.045151215 -0.05913417 -0.032266144 -0.035800457
0003c0 5c 5b fa bb 58 89 5c bd 56 2f 59 3c dc 8c 8d 3c
       -0.0076402854 -0.05384192 0.013255915 0.017279081
0003d0 56 4d 80 3c 30 64 dd bc 8c e6 0d bd 95 ca 54 bd
       0.015661877 -0.027025312 -0.034643695 -0.05195101
0003e0 27 b1 ae 3b 1c ea 40 bd ba f9 b6 bc f4 0f 9b bc
       0.005331177 -0.047098264 -0.022335876 -0.018928505
0003f0 2a 8f 17 3d 42 5f bc bc 6c e3 80 3c 8b 72 51 bd
       0.037001766 -0.022994641 0.015733443 -0.051134627

bias f4 [16]
000000 62 1b 14 3d f8 76 56 bd 93 2c 5d bd 67 1f 0e bd
       0.036158927 -0.05235955 -0.053997587 -0.034697916
000010 6b ab fa bc 8f d5 c6 bb 11 d5 8e bb 4d 75 ac bc
       -0.030599317 -0.0060679386 -0.0043588956 -0.021052027
000020 04 c2 16 3e d7 45 d6 3c 53 7c dc bd 2f ba c2 3c
       0.14722449 0.02615635 -0.107659005 0.02377042
000030 6e 11 0a 3e a0 92 5e bd 16 a4 e1 bc fd ac e0 bd
       0.13483211 -0.05433905 -0.027544063 -0.10970495

weight f4 [120, 400]
000000 4c 63 f6 bc 58 ae 1e bd e0 1a 1f 3d 61 3b 0d bc
       -0.030076645 -0.038740486 0.03884399 -0.008620114
000010 42 90 47 3d 5a 5d cb 3b 3f 94 d8 bc 95 b0 48 bc
       0.04872156 0.0062061967 -0.026437877 -0.012249132
000020 8c a7 d3 3c 3f ff 11 3c a9 1f ce bc 30 35 02 3d
       0.025836729 0.008910953 -0.025161581 0.031789005
000030 05 0f 9b 3c 5e 5f 2c bd a9 2d 20 bd ce 22 38 bd
       0.01892806 -0.042083137 -0.039106045 -0.044955067
000040 d2 99 84 bc 7c ad 87 bc e0 b9 18 bd 4e bc 88 bc
       -0.016186628 -0.016562216 -0.03728664 -0.016691353
000050 7c 93 a7 bc 99 d3 1c bd 0a 40 83 bc 3a e1 05 bd
       -0.020456068 -0.038287733 -0.016021747 -0.032685496
000060 fc 6b f3 3c 51 3b 5e bd f9 09 fd bc 67 b6 23 3d
       0.029714577 -0.054255787 -0.030888544 0.039968874
000070 00 09 08 bd 8e 04 3d 3d 18 d9 e3 bc 18 fb 9c 3d
       -0.033211708 0.04614692 -0.02781348 0.0766508
000080 6a e5 df 3d 33 cd ce bb 4e 2c 5b 3c ed 2f 52 3d
       0.10932429 -0.0063110827 0.013377262 0.051315237
000090 b2 59 12 bd c7 6c 6e 3b 10 e6 12 3c 8f 84 9d bd
       -0.03573007 0.0036380754 0.008965984 -0.07691299
0000a0 c3 88 ed 3c 8c 5f 1d bc 3f 57 57 bd 59 ca 4c bc
       0.028995877 -0.0096053 -0.05257344 -0.012499415
0000b0 d6 63 dc bc f3 34 03 bd db 1f fa bb 2f e4 c6 bc
       -0.026903074 -0.03203292 -0.007633192 -0.024278728
0000c0 fa 03 af 3c 3c 6d 01 bd e7 65 4a bd 25 da c1 bc
       0.0213642 -0.031598315 -0.049413588 -0.02366359
0000d0 75 7d c7 3b 16 61 d1 3d 7d d2 8e 3d d1 2a 49 bd
       0.0060879537 0.10223596 0.06973741 -0.0491131
0000e0 6d 40 0c bd e4 2b 0a bd d1 ad e1 3d fe b9 09 3e
       -0.03424113 -0.033733264 0.11019481 0.13449857
0000f0 91 31 99 bd 31 af 4f 3c 29 5d b3 3b 37 2c 25 3d
       -0.07480157 0.012676046 0.005473752 0.04032537
000100 3a f1 ad 3a 6d e9 85 bd 17 d6 9b bc bc 51 ff 3c
       0.0013270744 -0.06538663 -0.019022984 0.031166904
000110 a5 c2 2b 3d d1 4a 92 3c 31 18 59 bc c1 1b 60 bd
       0.041933674 0.01785794 -0.013250397 -0.05471397
000120 7c 6b 08 3c 30 f7 90 3c cb e5 08 3d d8 af ac bd
       0.0083264075 0.017695993 0.033422273 -0.08431977
000130 43 77 9d 3c d9 a5 86 3c f7 e7 cc 3d ad e9 d5 3c
       0.019221907 0.016436504 0.10005181 0.026112402
000140 9e 3e d2 bc 3f 37 85 3c 65 3e bb bc 61 a5 8f 3d
       -0.025664624 0.016261695 -0.0228569 0.070139654
000150 ef bc 5a 3b 07 97 18 3d d0 37 d9 3d 71 6a 1b 3d
       0.0033376773 0.037253406 0.106063485 0.037943307
000160 b7 e0 4a b9 9a dc 3a 3d 3f 20 df bb d0 e9 9f bc
       -0.00019347934 0.04562054 -0.006809264 -0.01952067
000170 da 50 16 3d bf 8c d1 3c 03 22 ed 3a 12 b0 e0 bc
       0.0366982 0.025579808 0.0018091801 -0.027427707
000180 41 87 4a bd 61 27 cc bc b3 02 a8 bc 82 db 10 3b
       -0.049445394 -0.024921121 -0.0205091 0.0022103493
000190 0c 3e 06 bd ea de 53 3d f7 35 95 bb f0 42 48 3a
       -0.032774016 0.05172626 -0.0045535523 0.0007639369
0001a0 1a 02 74 3d 04 2c a1 3c 41 23 bd 3d d6 6b e0 3d
       0.059572317 0.019674309 0.0923524 0.10958068
0001b0 d2 45 56 bd 47 30 16 3d 1b ef a2 3b 1f 98 51 3b
       -0.05231268 0.036667135 0.0049723512 0.003198154
0001c0 95 ec 53 3d 22 b7 46 bd 2c 87 d1 bd c4 ba eb bc
       0.051739294 -0.048514493 -0.1023086 -0.02877558
0001d0 38 54 8e 3d 87 48 90 3d 8c d4 c3 3c 22 88 9e bd
       0.06949657 0.070450835 0.023905061 -0.07740809
0001e0 e7 dd 4a bd 3d d9 bb 3c 95 fa bc 3c e4 41 85 bd
       -0.04952803 0.022930736 0.023068706 -0.06506708
0001f0 ff 38 b9 bc f4 26 3c bc f6 56 b9 3c 02 f1 37 3d
       -0.022610186 -0.0114838965 0.022624474 0.044907577
000200 4f ee 0b bd 8b eb a4 bc 57 be e8 bb 86 d6 00 3c
       -0.034162816 -0.020131847 -0.0071027684 0.007863646
000210 f7 c5 64 3d fe fd 11 bd 32 7a 38 3b c4 59 c0 ba
       0.055852856 -0.035642616 0.0028149006 -0.001467519
000220 8c 32 9d 3d b4 d1 22 3d 41 d4 11 3b 0e cd 8b 3d
       0.07675657 0.03975077 0.0022251757 0.068262205
000230 b7 e5 62 bd 14 94 01 3b 70 0e 6c bc 66 28 5f bd
       -0.055394854 0.00197721 -0.014407739 -0.054481886
000240 9d f4 88 bd 0f b9 16 bd 35 23 ff bc 9c aa 04 3d
       -0.06687281 -0.03679758 -0.031144718 0.03238927
000250 29 0c 16 bd b6 e0 1a bd 95 16 10 bd fe 28 05 bd
       -0.03663269 -0.037811957 -0.035177786 -0.032509796
000260 be c0 37 3d e1 ce 2e 3d 31 ef cd bc f4 0b 1a bd
       0.044861548 0.042677764 -0.02513847 -0.037609056
000270 6a f3 b7 bc 12 78 f5 bc 96 ab 22 bc 58 ab 5c bc
       -0.022454936 -0.02996448 -0.009928605 -0.013468586
000280 74 56 70 3c 35 28 43 bd 1b e4 8d bc b5 a8 8b bb
       0.0146690495 -0.047645766 -0.017320683 -0.004262055
000290 98 89 18 bc 68 0d 95 bc 9f f8 ae 3c a3 9b 15 bd
       -0.009310149 -0.01819487 0.021358786 -0.03652538
0002a0 73 57 65 bb 4d 86 8c 3c 36 c7 a4 ba 6a 37 ce 3c
       -0.003499475 0.017153883 -0.0012571577 0.025172908
0002b0 62 d3 69 bc af 14 db bc b8 27 7c 3c 4c 03 45 bc
       -0.014271589 -0.026743261 0.015390329 -0.012024712
0002c0 f2 aa a2 3c 38 0b 48 bc 57 bc 27 3d 6d bc ea bc
       0.019856904 -0.012209706 0.0409511 -0.028654302
0002d0 8c 0e 59 bc ec a2 20 3c d8 27 47 3c e9 4d 1a 3d
       -0.013248097 0.009804469 0.012155496 0.037671957
0002e0 52 3b 1c bd f9 ae 07 3d 81 35 09 3d 96 d0 f4 3c
       -0.03814251 0.03312585 0.03349829 0.029884618
0002f0 0d d6 1f bd d2 55 fa 3c ba 88 27 bd 40 70 29 bc
       -0.039022494 0.0305585 -0.040901877 -0.010341704
000300 ea 94 f9 bc e0 20 11 bd 02 0f fa 3c 75 f0 3e 3d
       -0.030466516 -0.035431743 0.030524734 0.046616036
000310 10 3d f0 bb 03 56 21 3d 30 df 63 bb e1 72 0a 3d
       -0.007331498 0.039388668 -0.0034770481 0.033800963
000320 81 b8 49 bd c3 92 31 bd 91 00 46 3d 3f 29 b8 bc
       -0.049248222 -0.043352854 0.048340384 -0.022480605
000330 53 d4 b0 3d d4 da 3e 3d 34 44 9c 3d 43 c2 57 3a
       0.08634248 0.04659541 0.07630196 0.00082305464
000340 2b 61 60 3d 3b 35 db bb fd 93 2c 3d 38 8d 44 bd
       0.054780167 -0.006689695 0.04213332 -0.04798624
000350 55 d6 c5 3c 81 ba 3b bc 1e 64 85 3b b9 d2 47 bd
       0.024150053 -0.01145804 0.004070773 -0.048784945
000360 47 ce aa ba 33 c4 09 3d 83 a1 34 bd 9d 33 0e bd
       -0.0013031446 0.033634376 -0.044099342 -0.03471719
000370 cb ea bd bc e5 2b d2 3b f1 07 d9 bd 83 d7 81 bd
       -0.023183247 0.006413924 -0.10597218 -0.06339934
000380 cb 11 82 bd 58 7e 14 bd b4 2b 2e bd d9 80 36 bd
       -0.0635105 -0.036253303 -0.042522147 -0.044556472
000390 2f dd 45 3c f2 24 98 3c 1f a6 27 bd 83 b6 f1 39
       0.01207666 0.018572304 -0.04092991 0.00046103084
0003a0 bd eb f0 3b f1 d3 37 3d aa c9 4c bd 4a fd de 3c
       0.007352321 0.044879857 -0.04999701 0.027220387
0003b0 d0 da 82 bd 3c f4 25 3d d2 04 0b 3d a4 d7 ae 3c
       -0.063893914 0.040516123 0.033940144 0.02134306
0003c0 9c cb 63 bd 2b c5 79 3c 71 fe 0f 3d 7f 33 42 bc
       -0.0556141 0.015244762 0.035154764 -0.011853098
0003d0 11 63 85 3d aa 11 82 bc e9 be 63 3b 5a 0b 93 3c
       0.06513036 -0.015877564 0.0034751242 0.017949749
0003e0 5e c3 ff 3c c0 5f 4a 3c b2 1f 71 bd 3a 0c 36 bc
       0.031221088 0.01235193 -0.058868118 -0.0111113135
0003f0 21 a8 bc 3c 15 81 3f bd c1 0c e2 bc 42 e6 8f 3d
       0.023029389 -0.04675396 -0.027593972 0.0702634

bias f4 [120]
000000 ae e2 1f bd fc 4b 05 bd 82 5e 04 3d 09 50 88 bc
       -0.039034538 -0.032543167 0.032316692 -0.016639726
000010 00 6a 5d 3c ab 03 48 bd 88 e3 d3 bc 65 33 11 3d
       0.013514042 -0.048831623 -0.025865331 0.035449404
000020 02 62 98 bc 88 31 d2 bc 10 d6 8a bc ba 5d 3c bc
       -0.018601421 -0.025658384 -0.016947776 -0.0114969555
000030 99 d2 aa bb cf 9d 6e bb f8 f2 06 bd 53 e4 67 3b
       -0.0052130935 -0.003640998 -0.032946557 0.0035383895
000040 4d de f3 3c 1d 26 ec 3c bb ea 02 bd 69 21 81 3c
       0.029769087 0.028826768 -0.031962138 0.015763002
000050 b4 d7 ed 3b 11 86 3d 3d e4 09 84 3c 49 94 3b 3d
       0.00725838 0.046270434 0.016117997 0.045795713
000060 59 38 81 bc 59 12 1e 3d 43 79 9f 3c 0e f9 96 bc
       -0.015773939 0.038591716 0.019467002 -0.018429305
000070 d5 bb 8c 3d 85 a4 c5 bc be 68 dc 3b db 1f 2b 3c
       0.068717636 -0.0241263 0.0067263534 0.010444607
000080 07 5b c2 3c ab 91 c4 3b e2 1f 35 bd 11 3e c0 bb
       0.023725046 0.0059988103 -0.04421986 -0.005866774
000090 ac f7 3d bc 97 3b 50 bc 1f 7e 04 bd 83 86 9a 3c
       -0.011594694 -0.01270952 -0.03234684 0.018862968
0000a0 d7 26 b2 bc 54 c1 c6 3c ec 5f c0 bc c3 18 47 bc
       -0.021747036 0.024262108 -0.02348324 -0.0121519
0000b0 8a 68 c5 3c b5 41 3c bd 97 e8 91 3c 04 12 8c 3d
       0.0240977 -0.0459611 0.017811103 0.06839374
0000c0 ae c5 23 3c 5a 5c 94 3c f0 42 4c bd 2b 41 05 3c
       0.009995861 0.018110443 -0.049868524 0.008133213
0000d0 05 6c 4b 3c 54 0c 24 3d d5 2e 55 bd 76 e2 d9 3c
       0.012415891 0.04005082 -0.052046616 0.026597243
0000e0 a9 bf af 3b 59 3f 7f bc 1a dc 83 bb 03 44 7e 3a
       0.005363424 -0.015579068 -0.004024041 0.00096994656
0000f0 72 26 be 3c 1d a6 44 3d 6f 06 0b 3d 4c 4e c4 3c
       0.023211692 0.04800998 0.033941682 0.023963116
000100 4b 95 3a 3d 9f 44 20 3c 64 6a 46 3c 0f fb 44 bb
       0.045552533 0.009781986 0.012110326 -0.003005687
000110 85 0e 5a 3b e0 fa 2d 3d 06 56 1f bb a8 67 30 bd
       0.0033272814 0.04247558 -0.0024312749 -0.043067604
000120 43 b4 85 bd a3 51 22 bd b4 b1 57 3d cd cc 08 bd
       -0.06528523 -0.039628636 0.052659705 -0.03339844
000130 54 d6 c8 3c 1f 8c 38 bd 31 0a b9 bb b1 6a 3e 3d
       0.024516262 -0.045055505 -0.005646967 0.046488468
000140 eb a8 43 bd 0f b1 87 3b 6c 77 86 bd 91 ce 04 3c
       -0.047768515 0.00414098 -0.06565747 0.00810589
000150 37 e4 b0 3c 49 5a 05 bd e1 74 ad bc 16 6f 08 3d
       0.021593196 -0.032556806 -0.021173896 0.033309065
000160 b4 f5 0e 3d 13 fa 7a 3d af 3c 5f 3d 2f d4 b6 bc
       0.03490229 0.061273646 0.05450123 -0.022317974
000170 5b db 54 3d 90 16 b8 bc 20 8b 2b bd d7 6d b4 38
       0.051967006 -0.022471696 -0.041880727 8.603528e-05
000180 04 ec 06 bd 35 4e 2f 3d a5 f6 89 bc 73 b2 74 3c
       -0.032939926 0.042799193 -0.016841242 0.014935124
000190 a1 d6 2f 3d 10 10 e1 bb e2 53 86 3c 64 86 e0 3a
       0.042929295 -0.00686837 0.01639742 0.0017129895
0001a0 12 b2 fe 3c b0 4d ad 3d be 27 fb 3a cb eb 26 bd
       0.03109077 0.08462083 0.0019161624 -0.040752213
0001b0 33 0b 0e bd 4a 6a 22 bd 8b 9e 3e 3c 35 a9 87 3c
       -0.03467865 -0.039652146 0.011634479 0.016560176
0001c0 65 5c 25 3c 92 3e 21 bd 89 f1 9a bc d0 00 8a bb
       0.010092829 -0.039366312 -0.018914001 -0.0042115226
0001d0 74 09 df bb df a9 bd 3c f1 34 38 bd 51 0d 5e bd
       -0.006806547 0.02315229 -0.044972364 -0.05421192

weight f4 [36, 120]
000000 56 a2 38 3d 77 2b 40 bd 4b 89 db 3c bd f8 61 bd
       0.04507669 -0.04691645 0.026798865 -0.055168856
000010 60 bf b6 bd f8 65 da bd 0b 09 af bb bb e6 ce bd
       -0.08923221 -0.1066398 -0.005341654 -0.10102602
000020 38 9d 31 3c d9 43 9b 3d 55 1a 37 3d 88 73 55 3d
       0.0108407065 0.075813 0.044702847 0.052112132
000030 ae 4d 5a bc df 5d 97 3d c4 a8 87 3d 8a e0 21 be
       -0.013324184 0.07390951 0.06623986 -0.15808311
000040 85 d5 24 3d 8c 9f 08 be 1c 8e 43 bd e6 3a f9 bd
       0.04024269 -0.13342112 -0.047742948 -0.12169437
000050 b5 1b 7a 3d d9 63 f7 3c b8 9e 20 bc c6 2b 50 3d
       0.06106158 0.030198978 -0.0098034665 0.050822996
000060 86 f4 c0 bd f9 05 a7 bb 9c c6 a2 3d 03 74 93 3d
       -0.09421639 -0.0050971475 0.07948038 0.07199862
000070 17 be a3 bc 27 9d 1e bd 09 16 74 bd 14 02 e7 3c
       -0.019988103 -0.03872409 -0.059591327 0.028199233
000080 bb 89 89 3c 04 16 e0 3c 3d e2 63 bd a2 f6 39 bd
       0.016789308 0.027354248 -0.05563568 -0.045401223
000090 bd 5b a0 bd 9a 28 9c 3d 4d 80 11 3d db cb 46 bd
       -0.07829998 0.07624932 0.035522748 -0.048534255
0000a0 1d 1f 25 be 16 78 f4 bc 08 c0 e2 bd 10 a5 f9 3c
       -0.1612515 -0.029842418 -0.11071783 0.030474216
0000b0 cb 51 63 3c 58 e8 2f 3d 83 5b 13 be 0a b5 b7 bd
       0.013874481 0.04294619 -0.14390378 -0.08970077
0000c0 1b e0 90 bd da 02 64 bd ac c2 9f bd 8e 14 70 bb
       -0.07073995 -0.055666782 -0.078008026 -0.0036633345
0000d0 fb d5 f0 bc 82 56 e3 bc 92 d7 9c 3d 15 0e b2 3d
       -0.029398909 -0.027751211 0.07658304 0.08694092
0000e0 42 91 c9 bd a9 6c 85 bc 02 a4 fa 3c 0d 38 7e 3d
       -0.09842159 -0.016287165 0.030595783 0.062065173
0000f0 5f eb b5 bd c5 01 aa bc f5 ce 94 bd da ea 07 bc
       -0.08882784 -0.020752797 -0.072660364 -0.008295739
000100 46 7d ea bd 2a b1 f9 bc 38 d0 61 3d 6a d0 aa bd
       -0.11449675 -0.030479986 0.055130213 -0.08340533
000110 75 c5 e8 bd dd 27 35 3d 98 f4 73 3d 1f 0c 95 3c
       -0.11365787 0.04422747 0.059559435 0.018194256
000120 21 c5 8a bd 08 fc 07 bd 12 73 1f be 8b 39 86 bd
       -0.067758806 -0.03319934 -0.1557124 -0.06553944
000130 bc ca 4f 3d 1a bb bf bc c8 69 2b bd aa 12 ce bd
       0.050730452 -0.023404647 -0.041848928 -0.10062154
000140 c9 78 f7 3b 7e 69 7e 3b 91 6b 43 bc aa f7 37 be
       0.0075522405 0.0038820202 -0.011927501 -0.1796557
000150 6c ab a7 bd 37 bb e5 bd 12 a7 9e bb d2 82 5b bd
       -0.08186993 -0.11217349 -0.0048416937 -0.053591557
000160 4d 6d 0a be 66 6b b3 bd ef 6d 0e be ee b5 9e 3d
       -0.13518257 -0.08760719 -0.13909124 0.07749544
000170 6e ca 8f bd 93 be 0d 3c be c2 eb bc 05 d3 de bd
       -0.07021032 0.0086513935 -0.028779384 -0.108800925
000180 c9 99 b5 bd d6 ca db bc 6a 8f 30 bc 6c 99 01 3d
       -0.08867223 -0.026830118 -0.01077638 0.031640455
000190 25 20 0e bd 83 35 5a bd 5b 01 9e 3c 7e cb b7 bd
       -0.034698624 -0.05327369 0.019287756 -0.0897436
0001a0 e1 1d 58 bc dd 9f 14 be dc 84 90 3c af 24 d9 3c
       -0.013190717 -0.14514108 0.017641477 0.02650675
0001b0 7a 14 b6 3d b2 93 97 3d ed 48 14 bd 75 3d 57 be
       0.08890624 0.074012175 -0.03620236 -0.21019538
0001c0 77 d4 b8 bc 6d c3 9c 3d 76 e9 05 3d 32 eb d4 3c
       -0.022562249 0.07654462 0.03269335 0.025991056
0001d0 b3 22 97 3d b2 e4 3b bd e5 7e 3d bd ec ec 0a bd
       0.07379665 -0.045872398 -0.046263594 -0.033917353
0001e0 d5 2f 95 3c b3 ee aa 3c 63 94 08 bc 37 cb 57 bd
       0.018211285 0.020865774 -0.008336159 -0.052684035
0001f0 3d cc a1 3b 96 88 13 be 2c 77 43 3d 9d 87 de bb
       0.004937677 -0.14407572 0.047721073 -0.0067910687
000200 74 fe df 3c d3 5d 07 bd 57 dc a8 bd fd 7e 36 bd
       0.027343012 -0.033048462 -0.082451515 -0.0445547
000210 42 79 98 bd ac 0f 72 bc b5 82 38 bd 6a f6 14 be
       -0.07445003 -0.014774244 -0.045046527 -0.14547125
000220 48 d0 75 3d f4 47 1b be f3 0b f2 bc 4c 7b 08 be
       0.060013086 -0.15164167 -0.029546713 -0.13328284
000230 1b 27 91 3c e1 a5 9e bd 05 52 a8 3c 87 f5 69 3c
       0.017718842 -0.07746483 0.020546922 0.01427973
000240 f9 c1 80 3c fb 6f 86 bd a0 95 ce 3c 05 10 bc bd
       0.015717493 -0.06564327 0.025217831 -0.09182743
000250 9e 19 ff 3c 3d ed 86 bd 84 3f 3d 3d 64 65 a3 3d
       0.031140145 -0.06588218 0.04620315 0.07978323
000260 e2 02 ae 3d c4 a5 77 3d 16 a6 2b bc 77 83 20 3c
       0.084966436 0.06046082 -0.01047661 0.009796969
000270 89 49 33 be 18 13 27 3a da f3 33 bd ae fd 1c bd
       -0.1750852 0.00063733896 -0.043933727 -0.038327865
000280 e8 1f 58 bd 39 3f 86 3d 14 da 59 bd b3 14 39 3d
       -0.052764803 0.065550275 -0.05318649 0.045185756
000290 15 11 2b 3d ed 51 8f 3d 24 d1 ab bd 24 da c9 bd
       0.041764338 0.06998048 -0.083895 -0.0985606
0002a0 73 05 a8 bd 77 61 26 bd de 27 4d 3d 4c c0 72 bd
       -0.08204164 -0.040620293 0.05008685 -0.05926542
0002b0 78 0a 2b 3c 6b 97 6b bd 70 9b 90 bd 4a d2 31 3d
       0.010439508 -0.05751745 -0.07060897 0.043413438
0002c0 5e e2 d4 3c 91 8d ba bd 3c ea 1c 3d a6 5b a9 3d
       0.025986847 -0.09109033 0.03830932 0.08269434
0002d0 41 63 aa bd 05 c7 1f 3d b9 f6 e8 bd e3 d9 d6 3c
       -0.083197124 0.03900816 -0.113751836 0.026226943
0002e0 be c3 bf bd 68 71 7c 3b f8 15 28 3d b7 aa 9d bc
       -0.09363507 0.0038519744 0.041036576 -0.019246442
0002f0 07 8e 38 be 1c 38 64 3d f1 8c 3f bd 0f 32 57 3d
       -0.18022929 0.055717573 -0.04676527 0.052537974
000300 9a 26 bb bd 23 26 a8 3d f4 36 d1 bd 03 ae 7d bd
       -0.09138222 0.08210399 -0.102155596 -0.06193353
000310 af e6 6a 3d 9b fc 93 3d c8 51 98 3b 02 24 b2 bd
       0.057348903 0.07225915 0.004648421 -0.08698274
000320 e1 ff 17 3b 43 bb 2a 3d d6 22 b0 3d 78 96 64 be
       0.0023193287 0.041682493 0.086003944 -0.22323024
000330 dc 5e f7 bd d0 f6 0f be 36 3b 52 bb de 58 a0 3c
       -0.1207864 -0.14058995 -0.003207875 0.019573625
000340 b7 9b 0b be 79 25 10 bd 28 48 88 bd e0 cd 79 3d
       -0.13633619 -0.035191987 -0.06654388 0.060987353
000350 2f f6 1b be 86 6f 8c 3b 3f 15 f4 3c 0e e8 cb bc
       -0.1523063 0.0042857556 0.029795287 -0.024890926
000360 52 45 6a bd 58 59 8d bd 91 d9 68 3d c9 29 24 3d
       -0.057195015 -0.069018066 0.056848112 0.040078912
000370 a6 95 dc bd 20 22 eb bc c2 9e 3d bd 00 5f 19 3c
       -0.10770731 -0.028702796 -0.04629398 0.009361029
000380 f4 d7 29 3d bb ae 2f be f3 a5 9f bc e0 f5 b2 bd
       0.041465715 -0.17156498 -0.01948831 -0.08738303
000390 04 af 24 bb a7 13 8d 3d c7 f7 45 bd 66 8c 1e be
       -0.0025128732 0.06888514 -0.048332002 -0.15483245
0003a0 c7 6b 18 bd 4d ce 4d bd 82 02 52 3d 09 36 a4 3c
       -0.03721216 -0.050245572 0.051271923 0.020045297
0003b0 6b b8 d6 bc f5 a4 83 bd 35 f3 e2 bc bb 7a 41 bd
       -0.026210984 -0.064279474 -0.02770386 -0.047236186
0003c0 dc 5f 1f bd a7 60 66 3e 7c c3 c4 3c ef 10 03 bd
       -0.038909778 0.22497807 0.024018995 -0.03199857
0003d0 d3 1d d9 bc 2b f2 1b 3d 9a aa 12 be e0 95 4d 3e
       -0.02650348 0.038072746 -0.14322892 0.20076704
0003e0 6e ca 71 3e ad 00 98 3c d1 23 f1 3d 5f 6e c2 bd
       0.23612377 0.01855501 0.117744096 -0.09493708
0003f0 c3 45 b8 3c 94 6e 7c be 7f 3b db bd ac bc 1d 3e
       0.022494202 -0.24651557 -0.10704707 0.15404004

bias f4 [36]
000000 cb 9c ea bd 08 6b 42 be cb a9 77 3d 89 f8 8b 3d
       -0.11455687 -0.18986142 0.06046466 0.06834514
000010 cf 60 87 bd 44 4e 2c bd f5 62 f1 bd 27 9c 46 38
       -0.06610262 -0.042066827 -0.11786453 4.7352307e-05
000020 96 18 c8 bd 51 ff 98 3b 78 53 ab 3d f5 0b d9 3d
       -0.097703144 0.004669108 0.0836553 0.10597984
000030 0b 4f a1 bd 41 ee f3 bc 89 e2 ff 3d 81 57 a5 3d
       -0.078764044 -0.029776694 0.1249438 0.08073331
000040 a0 d1 11 3d f9 8f 11 be e6 e0 7a 3c b9 cf 98 3c
       0.035600305 -0.14215077 0.015312409 0.018653737
000050 69 41 86 3d 57 88 e9 bd 03 6c 1a bd 45 32 df bb
       0.06555445 -0.11402958 -0.037700664 -0.0068114125
000060 c7 95 e7 bd e6 0e c0 3d 82 83 93 3c 91 be 88 3d
       -0.11307865 0.09377842 0.018007044 0.06676973
000070 1b be e8 3d 38 74 ea bc c0 08 9c 3d 32 1a b6 b8
       0.11364385 -0.02861987 0.076188564 -8.6833155e-05
000080 26 9b 04 3d a6 7c 13 bd 7f 69 ce 3d 4e 5a 31 bd
       0.032374524 -0.036007546 0.100787155 -0.043299012
