model/(69)-net.pkl (torch_old, 254784 bytes, 8 tensors)

weight f4 [16, 1, 5, 5]
000000 fa 6d e1 3e 9e e1 ab 3e 1e 78 17 3e 20 d0 b5 3d
       0.44029218 0.3357057 0.14791915 0.08877587
000010 b0 a3 28 3e 3b 91 c4 3d d2 51 8e 3e 42 54 62 3e
       0.16468692 0.09598013 0.277968 0.22102454
000020 8e ad 82 3e cd 0d 3e 3d bc 79 b7 3e e1 af 9c 3e
       0.25523037 0.04639988 0.35835063 0.30602935
000030 8d ad 99 3e d8 a0 d2 bd e1 5e 6c bc 0f 1f dd bd
       0.3001522 -0.10284585 -0.014426918 -0.107969396
000040 d6 fd 15 be a0 8a 63 bd 93 b4 63 be 62 03 94 be
       -0.14647612 -0.055552125 -0.22236852 -0.2890883
000050 38 d1 5c bc 3a 59 e2 be 75 cf 03 bf 82 56 39 bf
       -0.013477616 -0.442087 -0.5148843 -0.72397625
000060 cb 04 0f bf ca 12 9c be 27 04 99 3d da f7 dc bc
       -0.5586669 -0.30483085 0.07471495 -0.026973654
000070 a7 cb c6 bd d3 b7 66 3e 0a 2e 0c 3d 84 ec 61 be
       -0.09706812 0.22531061 0.034223594 -0.2206288
000080 ab ad 8b 3d 98 86 83 3e 46 64 7b 3e f5 6b 1d bd
       0.06820234 0.25688624 0.2454997 -0.038433034
000090 86 73 c0 3c 8a 5e 09 3e f8 4e 73 3e 69 06 d1 3d
       0.023492586 0.1341497 0.23760593 0.10206301
0000a0 a7 c0 9c be fe 8c f8 bc a9 73 55 3d b7 3e 64 3e
       -0.30615732 -0.030340668 0.052112255 0.22289549
0000b0 22 6f 3a 3c 2b b6 05 3d a9 c7 92 3d d9 3d 63 bd
       0.011379035 0.032644432 0.071669884 -0.055478904
0000c0 81 3d ef 3d cc 10 c5 3d 6d c1 15 be a3 bd 8a 3d
       0.11681653 0.096223444 -0.14624567 0.067744516
0000d0 7f 3d 9b bd 18 de 45 be 1d c8 4e bc 4e df 34 3e
       -0.07580089 -0.19323003 -0.012620953 0.17663309
0000e0 c7 a8 3d be b5 4d 2d be 85 1c 0d 3e 04 6a 49 be
       -0.18521415 -0.16924174 0.1378041 -0.19669348
0000f0 bc 2e ab 3d 76 4c 0f be ee 38 1e 3d ec de 92 3d
       0.08358523 -0.13994011 0.03862851 0.07171425
000100 50 63 d3 3d 1f 07 5b 3d 5e 92 1b 3e b8 9d 96 bd
       0.10321677 0.053473588 0.15192553 -0.07354301
000110 85 3f bd 3d 41 e2 2b be bd 08 fe bd 2f f9 0d 3e
       0.09240631 -0.16785528 -0.124040104 0.13864587
000120 7f 8d 07 3e ee b8 3e 3e 21 e9 16 be 57 da 87 bd
       0.1323757 0.18625233 -0.14737369 -0.06633442
000130 da 28 4f bd ce 4b 18 be 9c b1 ba bd 25 2b 7b be
       -0.05057607 -0.14872667 -0.091159075 -0.24528177
000140 dd 61 0a be 93 b9 8c be 73 cb bf bc f6 a2 dc bd
       -0.13513894 -0.27485332 -0.023412442 -0.1077327
000150 27 51 6e be 3e cb 6b 3e ef 49 16 3d 93 31 97 3d
       -0.23273145 0.2302675 0.036691602 0.073825024
000160 c9 d6 47 be 61 49 8a be 48 ff 78 3e 94 31 d7 3e
       -0.19515528 -0.2700911 0.24316132 0.42030013
000170 7a 54 a5 3e 23 31 4f 3d da 52 35 be 44 ab 9a 3e
       0.32291013 0.05058397 -0.17707387 0.3020879
000180 ba 0d cf 3e 76 81 c0 3e 9a c6 97 3e 4c 6f 2b 3e
       0.4044016 0.3759877 0.29643708 0.16741675
000190 f4 68 ab be 56 9e 8a be a4 ed 79 be 66 07 17 be
       -0.3347851 -0.27073926 -0.24407059 -0.14748916
0001a0 30 29 25 3e aa 43 91 bb bd 24 60 be 96 1a 33 be
       0.16128993 -0.004433115 -0.21889015 -0.1749061
0001b0 2a 96 33 3e 74 c9 7a 3d 5b 92 2c 3e 41 e3 51 3d
       0.17537752 0.061227277 0.16852705 0.051242117
0001c0 ce 16 b9 3d f4 be 75 3e 9a ea 80 3d 45 ab 9e 3e
       0.09037553 0.23998624 0.06294747 0.30990043
0001d0 a0 34 cc 3c 04 e5 81 3e d6 7e f3 3d 8e 7c f0 bd
       0.024927437 0.25370038 0.118894264 -0.11742507
0001e0 91 31 73 3e 30 d0 4a 3e 9c cd 05 be 37 0e c3 bc
       0.23749377 0.1980598 -0.13066715 -0.02381049
0001f0 2c da 25 bc 64 bc da bd c4 3b 08 bc 9b 91 19 3e
       -0.010122817 -0.10680464 -0.0083150305 0.1499695
000200 3f 44 de 3d 88 13 0c 3e 44 50 19 be 9f 52 6b 3e
       0.10852861 0.13679326 -0.14972025 0.22980736
000210 c9 aa 7b 3e 4c a7 b3 3d 20 17 aa 3d 1b 48 f4 3c
       0.24576868 0.08772144 0.08305192 0.029819539
000220 b8 32 4f 3d 4d e0 1b 3e 78 d7 93 3c 45 b0 b9 3d
       0.05058548 0.15222283 0.01804708 0.09066824
000230 86 0d 69 be 18 d4 cd 3d c2 96 a2 bd 32 14 c7 3d
       -0.22759065 0.10050219 -0.07938911 0.09720649
000240 5d a0 3c 3d f5 a7 bc be bb f6 1f be a0 d8 5e 3d
       0.04605137 -0.3684689 -0.15621464 0.05440581
000250 e4 9a cf 3d 89 3d 20 be 1f 09 f5 be e0 14 80 be
       0.10136965 -0.15648474 -0.4785852 -0.25015926
000260 6e 3b 07 3e 75 6b 12 3e d8 78 57 3b 17 ee 41 be
       0.13206264 0.14298804 0.0032878425 -0.1893848
000270 9b 38 be 3d 50 a0 b7 3e 77 86 46 3e ce ba a5 3e
       0.092881404 0.35864496 0.19387232 0.32369083
000280 5d 20 f5 3b 72 64 a4 3e b7 ae eb 3e 11 5b 66 3e
       0.0074806646 0.32107884 0.46031734 0.22495677
000290 11 ed c3 3e bf b6 39 bd 6a b0 87 3e 0d 26 6c 3e
       0.38266805 -0.045340296 0.2650178 0.2306139
0002a0 71 8b 9d 3e 92 c6 bb 3e 3a b6 45 be 38 cc 27 3e
       0.30770448 0.36674935 -0.19307795 0.16386497
0002b0 fc c0 7b 3d ad 21 a5 3e 02 51 0a 3e 23 c6 a5 bd
       0.06146334 0.32252255 0.13507465 -0.08094432
0002c0 5a e0 cf bd 86 44 0d be 58 33 31 be b9 ee 46 3c
       -0.101502135 -0.13795671 -0.17304742 0.012141877
0002d0 0a 41 43 3e 48 f8 02 3d 56 dd 54 bc 3e 5d 49 3d
       0.19067779 0.03197506 -0.012992224 0.04916119
0002e0 ba b5 1b be e3 da 1d bd 74 04 9d 3d 56 8f 3b 3e
       -0.15206042 -0.038538825 0.07666865 0.18316397
0002f0 4d f4 13 be 88 34 db 3d 9f a5 4a 3d 41 d7 20 be
       -0.14448662 0.10703379 0.049474355 -0.15707113
000300 61 13 d6 bd d1 a8 06 be e2 ff a7 3d f8 c8 c7 3d
       -0.10452915 -0.13150336 0.08203103 0.097551286
000310 7d 2a 3b be 01 f4 18 bd 33 c9 27 bd 0e 1a b1 3d
       -0.18277927 -0.037342075 -0.040963363 0.08647548
000320 b1 15 d5 bd f9 90 8a 3b 01 7e 07 3d a7 a4 0a 3e
       -0.10404528 0.004228708 0.03307915 0.13539372
000330 9a 33 1d be e5 a6 09 3e 20 11 b5 3e 67 c6 28 3f
       -0.15351716 0.13442571 0.35364628 0.6592774
000340 cf cd ba 3e 01 90 5d 3e 11 0f 53 3e 39 12 03 3f
       0.36485144 0.21636964 0.20611216 0.5119968
000350 f5 a8 28 3f fc a2 0e 3f d4 64 9c 3e 17 1f 4c bd
       0.6588281 0.55717444 0.30545676 -0.049834337
000360 90 80 e9 3e c2 4c e4 3e da c4 14 3f de 5d d3 3e
       0.45605898 0.44589812 0.5811287 0.41282552
000370 88 fd b4 be 95 be a7 3d 33 42 c4 3e 68 b7 a0 3e
       -0.3534968 0.081906475 0.38331756 0.31389928
000380 7a 8a 0a 3e 98 fd 93 be 3f 4a 89 bb 9c 7b b1 bd
       0.13529387 -0.28904414 -0.004189759 -0.08666155
000390 d5 0e ca 3d ea 2a e4 3d d9 85 86 be d6 db 06 be
       0.0986611 0.11140998 -0.26273993 -0.13169798
0003a0 98 51 b6 bd 80 2f 93 3e 5f 7b c5 3d bc 63 e9 3c
       -0.089022815 0.28747177 0.09642672 0.02848994
0003b0 58 3c 68 3e 45 98 4b 3e 44 71 47 3e 99 1f 0b 3e
       0.2267927 0.19882305 0.19476801 0.13586272
0003c0 12 5c 3b be ec 4d 62 3e 5d 03 b3 3e 96 c4 0d 3e
       -0.18296841 0.22100037 0.34963503 0.13844523
0003d0 92 c4 58 3e 7a 94 80 be d5 21 99 3d eb 57 5f 3e
       0.21168736 -0.2511328 0.07477156 0.21810882
0003e0 1e ad 17 bc c9 4f 42 3e 62 30 17 bf 04 f9 26 bf
       -0.009257583 0.18975748 -0.590582 -0.6522372
0003f0 de c9 03 bf 64 45 10 bf 3e 95 d4 be 70 88 b6 be
       -0.514799 -0.5635588 -0.41520113 -0.3565097

bias f4 [16]
000000 b1 25 9f 3e 0e 04 2a be b6 98 f0 bd e3 7d 8f bd
       0.31083444 -0.16603109 -0.11747877 -0.07006433
000010 f8 b1 bb bd 5e 33 8e ba a7 1d 82 bf 1c 0b 23 be
       -0.09164804 -0.0010849049 -1.0165299 -0.15922207
000020 3f 0e e0 bf 5a 4d ed be 05 2b 12 3f b6 6c b3 3d
       -1.7504348 -0.46348077 0.5709689 0.08760969
000030 3f 0d 3e bf 16 ee c8 3e d4 fe fa 3c 79 7e 8b be
       -0.7423896 0.39244145 0.03063909 -0.27244928

weight f4 [16, 16, 5, 5]
000000 13 aa 91 bc e3 7a a0 bd 43 ed 6b bd 38 c8 8e bd
       -0.017781293 -0.07835939 -0.057599317 -0.069717824
000010 8f f6 27 3d 14 cd 5b bd 58 fa 0b bd 64 0d 60 bd
       0.04100662 -0.053662375 -0.034174293 -0.05470027
000020 58 fd 19 bd 44 2f 2f 3d 9d a8 ef bc ae 66 1a bc
       -0.037595123 0.042769685 -0.029255206 -0.009423895
000030 da 18 ec 3c 42 28 96 3d e0 7a de 3d 5c ed 53 3e
       0.028820444 0.07331897 0.1086328 0.20696014
000040 42 c4 5e 3e 30 67 34 3e d1 6c e4 3d b7 4d da 3d
       0.21754554 0.17617488 0.111535676 0.10659354
000050 06 be 81 3c 94 eb 5b bd 22 2d 42 bd 8d ea b5 bd
       0.01583768 -0.05369146 -0.047406323 -0.08882628
000060 63 7e 6e bd d9 39 52 bc ce c2 b0 3d 5f df 30 3b
       -0.058226 -0.012831175 0.08630906 0.0026988608
000070 64 54 27 3d ca 24 90 bb b5 75 20 3c 1c 3d a2 3c
       0.040851966 -0.004398917 0.009793689 0.01980453
000080 17 6b 8c 3d 6b 1f 87 3c 4b 47 f6 bc e0 02 35 3d
       0.06856363 0.016494473 -0.030063292 0.044192195
000090 3e 62 85 3d 5d 2d 76 bb 06 ef f8 3c d3 68 38 bc
       0.06512879 -0.003756366 0.030387413 -0.011255461
0000a0 e0 f2 64 bd b5 14 a3 bd 3c 2b 86 bd 20 c9 b6 bc
       -0.055895686 -0.07962934 -0.06551215 -0.0223127
0000b0 c2 c8 36 bc 9d 88 06 be 87 84 cd bd ec 58 aa bd
       -0.011156263 -0.13138051 -0.10035043 -0.08317742
0000c0 74 13 45 bd d9 d6 95 bd 49 c6 b9 bc e7 58 1a bd
       -0.048114255 -0.073163696 -0.022677558 -0.03768244
0000d0 ea cd e0 3c ea 41 bf bc 80 cc c8 3c 92 67 09 3d
       0.027441937 -0.02334686 0.024511576 0.033546038
0000e0 b5 99 12 3d bd ac 85 3c d6 d9 01 bd 62 ae c2 bc
       0.035791118 0.01631772 -0.031701885 -0.023764793
0000f0 16 1e cc 3c e6 f2 b6 bc d8 f2 0e 3d 48 90 1d 3d
       0.02491669 -0.02233262 0.034899563 0.038467675
000100 2d 20 ba 3b cd e6 d0 3c 79 3c 32 3d 43 33 40 bd
       0.005680105 0.02550068 0.043514702 -0.046923887
000110 5d 1a f8 bb 59 a2 06 3d 48 15 29 3d d5 d7 d5 bb
       -0.007571502 0.03286967 0.04128006 -0.0065259733
000120 cd 48 43 3d 61 0a 7f bc 68 34 27 3d 0e 1e d1 bd
       0.04767685 -0.015566439 0.040821463 -0.102108106
000130 61 e1 7b bc 6e f0 86 3d 8c db 29 bc 23 1c 14 3d
       -0.015373559 0.06588827 -0.010367285 0.036159646
000140 cf 6f 6b bd 5a a1 46 3c 14 dc 6e 3d aa b7 b4 3c
       -0.057479676 0.01212343 0.05831535 0.022060234
000150 38 e0 55 3d e4 52 1a bd 6a 7d b1 bc cf e7 da bc
       0.052215785 -0.037676707 -0.021666247 -0.026721863
000160 0c e5 56 bd 5b 72 1d bd 01 8e d2 bd 77 89 61 be
       -0.05246453 -0.038439136 -0.10280991 -0.22025095
000170 4d 75 43 be 6d d9 1e be 06 34 31 bd 76 6a 94 bd
       -0.19087715 -0.15512629 -0.043262504 -0.07246868
000180 41 31 7c 3d 2c 69 a7 3d 15 57 06 3d 19 68 36 3d
       0.06157041 0.08174357 0.03279789 0.04453287
000190 97 eb c7 3b a1 fb 8e 3b 61 20 d9 bc 66 dd f5 3b
       0.0061010825 0.0043634926 -0.026504697 0.0075031994
0001a0 59 e2 be 3c 2a b3 35 3d 1b 39 28 3c fa 0a 11 bc
       0.02330129 0.044360317 0.010267521 -0.008852715
0001b0 26 b4 7a bd a8 9b 59 3c de 79 0e bd dd 8c 09 bd
       -0.06120696 0.01328174 -0.03478419 -0.033581603
0001c0 d9 5e 81 bb 65 62 c5 3a 8f e3 a5 bd 55 97 45 3d
       -0.0039480743 0.0015059231 -0.08100044 0.048240025
0001d0 72 7e f3 3c f0 cc ee bc 99 e7 cd bd 64 e6 f4 bd
       0.02972338 -0.029150456 -0.10053939 -0.11958006
0001e0 9a 2b 84 bd 71 1c 9c 3c ed a7 90 bc 45 8e 04 bc
       -0.06453629 0.01905653 -0.017658198 -0.00809056
0001f0 41 d2 26 bd 3e eb 09 3c 04 e4 3b 3d cd a3 0b 3c
       -0.040727858 0.0084179025 0.04587175 0.00852294
000200 e0 aa 5c 3d 4a c3 ac bc b4 f1 17 bc 28 0a 85 3d
       0.053873897 -0.021089215 -0.009273935 0.06496078
000210 37 db b8 3c 22 a3 de 3b 46 61 07 3d ea 45 4f 3b
       0.022565467 0.0067943493 0.03305175 0.0031627365
000220 df be 80 3c 69 db f9 3c d0 59 5d 3c 3b 94 29 bc
       0.015716014 0.03050013 0.0135101825 -0.010350282
000230 d2 42 38 3d b2 59 12 3d e7 0f 5e 3d 5a 3e 56 3c
       0.0449856 0.03573007 0.054214384 0.013076389
000240 6a 60 4b 3c 02 19 a9 bd af 73 1b bd 0d b1 2d bd
       0.012413124 -0.08256723 -0.03795212 -0.042405177
000250 32 7a a3 bd 1a 9a b5 bb ac 03 1e 3c 9a da 23 3e
       -0.07982291 -0.005542052 0.00964443 0.16001359
000260 6d 12 34 3e 8f 8a f7 3d c6 da c7 3c ae 2a 32 bc
       0.17585154 0.12086975 0.024396311 -0.010874433
000270 e1 e3 be 3d 55 c1 0b 3e e2 e4 df 3d 4d 70 b1 3c
       0.09320808 0.13647969 0.10932328 0.021659994
000280 56 ea 7f bc f5 76 cf 3d c9 80 f6 3d ae ac 6d 3a
       -0.015619835 0.10130111 0.120362826 0.0009066564
000290 d2 b2 0b bd 43 8c 27 be ac a1 05 be db cd a5 bd
       -0.034106083 -0.163621 -0.13049954 -0.080959044
0002a0 a8 03 db bd 4b ce 01 be ef e4 4f be 25 c6 79 be
       -0.10694057 -0.12676351 -0.20302175 -0.24391992
0002b0 07 fc 44 be 18 86 13 be bb 2c a8 bd ce 2f 13 bd
       -0.19236766 -0.14406621 -0.08211657 -0.035934262
0002c0 7c 3b 17 3c 4a e1 d3 3a 56 53 0d bb e2 8b d1 bc
       0.009230491 0.0016165164 -0.0021564565 -0.025579397
0002d0 47 24 da bc 3a 8f e9 bb c7 c6 17 3d c5 26 9f 3b
       -0.026628627 -0.0071276696 0.037054803 0.0048569166
0002e0 7d 35 19 bd 23 69 3e bd 5a bb b7 bc 4f 73 1a 3c
       -0.037404526 -0.046486985 -0.022428203 0.009426906
0002f0 85 e1 e4 bb 62 03 45 3d a8 ee 17 3d 60 cb d3 3c
       -0.006984892 0.04809893 0.037092835 0.025853813
000300 98 f4 2d bd e0 ea fd 3a c8 ad 21 bd aa d4 95 bc
       -0.04246959 0.0019372366 -0.03947237 -0.018289883
000310 4f 07 a8 bc e0 04 c0 bc 93 e6 ec 3a e4 dc cd 3c
       -0.020511298 -0.023439825 0.0018074088 0.025129743
000320 05 9b 24 bc 54 79 70 3e 4b 15 95 3e 12 44 68 3e
       -0.010046725 0.23483783 0.29117808 0.22682217
000330 c5 81 09 3e b7 11 7b bd af 08 1d 3e 87 60 74 3e
       0.1342841 -0.06129619 0.15335344 0.23864947
000340 fb fd 7b 3e 19 48 a2 3d 30 7c 98 bd f3 c0 31 3e
       0.24608605 0.07923908 -0.07445562 0.1735876
000350 0e 46 4c 3e 6b 30 39 3e 94 29 ce bc 4a 55 99 be
       0.19948599 0.18084876 -0.02516631 -0.29947883
000360 07 8b 6b be d4 df 01 be 76 95 da bd 6d 8e 22 be
       -0.23002253 -0.1268304 -0.10673039 -0.15874644
000370 1f 7a 02 bf 20 13 dd be 6b 42 d8 be f3 f1 89 be
       -0.5096759 -0.43178654 -0.42238173 -0.26942405
000380 80 58 37 be be 49 9d bc 68 73 de 3d 70 b5 81 3d
       -0.17904854 -0.019200202 0.10861856 0.063334346
000390 34 37 23 3d c7 8b 39 3d 6b 8d b0 3c 9a 54 93 3d
       0.039847568 0.045299318 0.021551808 0.07193871
0003a0 8e 6d 3d 3d 6a fa 3e 3c bc c5 07 bd 97 aa 07 bd
       0.046247058 0.011656383 -0.03314756 -0.03312167
0003b0 31 7b 9d 3d 4a c7 a6 3d ce 50 f5 3c 3c da 73 bd
       0.076895125 0.0814348 0.029945757 -0.059534296
0003c0 a9 e5 3c bd 16 30 f7 bb a5 c1 b4 bd 2d 79 77 bd
       -0.04611746 -0.007543574 -0.08825997 -0.060418297
0003d0 f3 ec 69 bd 94 1f d9 bd 99 86 a4 bd b6 c5 a1 bd
       -0.057110738 -0.10601726 -0.08033485 -0.078990385
0003e0 9e 88 8d bd d9 8d 4a 3c 71 a0 49 bd 3c 21 8e bd
       -0.06910823 0.012362921 -0.049225274 -0.06939933
0003f0 07 ab 30 3a c9 f5 8c bd 44 5a 29 bd 47 2b a3 3c
       0.0006739352 -0.06882817 -0.04134585 0.019918097

bias f4 [16]
000000 f4 40 c9 bd 89 e4 cd bb 2a e7 47 bd 03 1f a7 bd
       -0.09826842 -0.006283347 -0.04880444 -0.08160212
000010 6e 7e 51 3c e4 bc e1 bd d1 dc 8a bd 16 cf 22 be
       0.012786491 -0.11022356 -0.06780399 -0.1589931
000020 e5 74 d2 bd b6 3b 35 bd b3 2a 24 3e 17 49 3a 3d
       -0.10276202 -0.044246398 0.16031913 0.04547986
000030 1d da d6 3c 16 1c 49 bd 01 cf 80 bd f0 dd 27 bc
       0.026227051 -0.04909905 -0.06289483 -0.010245785

weight f4 [120, 400]
000000 ed 02 cc bb 66 01 b1 3c 86 d9 30 3c 15 23 1a bd
       -0.0062259347 0.021607112 0.010794049 -0.037631113
000010 af 87 d2 bc 00 a7 0f 3d 40 f6 06 3d 53 86 88 ba
       -0.025699465 0.035071373 0.032949686 -0.0010416008
000020 3a de 61 bc 73 40 38 bd 94 dd 31 3d 7b 1d 3c bd
       -0.013785893 -0.04498334 0.043424204 -0.045926552
000030 84 11 2b 3d 62 ae 01 bd 7c df 39 3d 09 28 48 3d
       0.04176475 -0.031660445 0.045379147 0.048866306
000040 14 95 ca bc e6 24 32 bd cb 8c 20 bd 2b a4 97 3a
       -0.02472929 -0.04349222 -0.03919677 0.0011569312
000050 ba 59 07 bd 05 3d 15 bd cd 9f c1 bb 35 11 7e 3c
       -0.033044554 -0.036435146 -0.0059089423 0.015507032
000060 8f 8a 9a bc 51 8a f8 bc fc 58 44 bd c6 f9 a1 bc
       -0.018864898 -0.030339392 -0.047936425 -0.019772422
000070 70 ff b4 3c 0b 95 1a bc 71 53 2c 3d ce f1 3c bd
       0.022094458 -0.009434949 0.042071763 -0.04612904
000080 88 3f d9 3c 73 13 ba bc ec 31 db bc 7b 29 24 3b
       0.026519552 -0.022714352 -0.026757203 0.0025049138
000090 07 1f a9 3c 3b d2 e9 3c a6 1a 8a 3c 06 41 d1 3b
       0.020644678 0.028542629 0.01685841 0.006385925
0000a0 e9 5e 14 3d f6 23 92 3b 7e a0 78 3c 27 82 00 3d
       0.036223326 0.0044598533 0.015174983 0.031374123
0000b0 4d f0 45 3c cc b3 bc 3c 90 a0 31 3d 12 e9 0c bd
       0.012081218 0.023034953 0.043366015 -0.03440196
0000c0 af d8 aa 3c 18 8c d6 3b 13 52 28 bd aa 23 1b 3d
       0.020855276 0.006547462 -0.041093897 0.03787581
0000d0 f5 0b 42 3c d4 62 fc 3c ac be 44 bb 3b 78 91 3b
       0.011843671 0.030808844 -0.0030020876 0.0044393814
0000e0 06 80 04 bd ec 50 a1 bc 09 39 64 bc 8e 6f d0 bc
       -0.032348655 -0.019691907 -0.013929614 -0.025443818
0000f0 0e 73 1d 3d 64 9c 2a bd bf 11 48 3a 42 97 43 bd
       0.038439803 -0.041653052 0.0007632039 -0.047751673
000100 72 56 f2 bc 08 12 49 3d 05 3b 3e bd 22 69 41 3d
       -0.029582236 0.04908946 -0.046443004 0.047219403
000110 13 31 26 bd 30 d9 fd 3c ab 6a 17 bc 70 8e f7 3b
       -0.040574145 0.030987352 -0.00924174 0.0075548217
000120 f8 49 fe 38 e4 bb 5b ba 6c 12 1d 3d 75 91 f6 3c
       0.000121254416 -0.0008382185 0.038347647 0.030098656
000130 23 d2 3c bd e8 81 73 bc 4c a0 20 bd d2 d8 67 3c
       -0.04609884 -0.014862515 -0.03921537 0.014150815
000140 b0 35 0f bd 23 d0 d5 bb e5 b9 37 3d 3c 74 93 3c
       -0.03496331 -0.006525056 0.044855017 0.01799976
000150 e2 a6 de 3a cc f9 a3 3c ce 83 ef bc 46 8b 95 bb
       0.0016986991 0.020016573 -0.029237654 -0.004563722
000160 be 73 4c bc 82 9c 9b bc fd 96 33 bc 82 71 ea bc
       -0.012478767 -0.018995527 -0.010961291 -0.028618578
000170 89 e8 43 3d e0 7b 40 bc 24 b8 e9 bc 5b f1 28 bc
       0.047829185 -0.011748284 -0.028530188 -0.01031145
000180 af 60 e5 b9 46 a8 c9 3c f8 32 94 3c 49 82 81 bb
       -0.0004375032 0.024616372 0.01809071 -0.003952299
000190 80 ec af bc 75 53 27 bd 82 1c e8 3c 12 91 a8 3c
       -0.021475077 -0.040851075 0.028333906 0.020576987
0001a0 77 0e c5 3c d1 ff 11 3d 1a 6e a5 3c 73 93 02 3d
       0.024054749 0.035644356 0.020194102 0.0318789
0001b0 89 d1 02 3d a2 87 d2 3c 80 a9 3c 3a b0 e5 72 bb
       0.03193811 0.02569944 0.00071968883 -0.0037063174
0001c0 b0 3d db 3b 00 a8 77 bb 41 f9 ae bc f7 f2 eb bc
       0.0066907033 -0.0037789345 -0.021359088 -0.028802378
0001d0 f2 b0 d6 3c 4d 62 42 bd 79 c2 16 3d d8 1a 0c 3c
       0.026207421 -0.04745703 0.036806557 0.008551322
0001e0 50 a0 9f 3b bd 74 0e bd 0c b2 55 3c e2 69 9e 3c
       0.0048714057 -0.0347793 0.013042938 0.019337598
0001f0 f9 fd 43 3d c1 bd 47 bd c1 12 08 bd eb 16 b2 bc
       0.04784963 -0.048764948 -0.03322101 -0.021739444
000200 b4 ab f4 3c a3 90 3a bc ce fc a7 3c a0 4c 85 bb
       0.02986703 -0.011387023 0.020506289 -0.0040679723
000210 7a d0 2a bd 29 fb da bc d3 11 19 3d 95 d0 f2 bc
       -0.041702725 -0.02673109 0.037370514 -0.029640475
000220 89 8b b7 bc 9c 27 92 bc 2a cc 39 bd b0 42 37 3d
       -0.022405403 -0.017841153 -0.04536072 0.044741333
000230 54 4b 0e bc ef 4e c6 bb 0c f7 ef 3a f0 f8 49 3c
       -0.008684952 -0.00605189 0.0018307879 0.012327418
000240 4e a8 10 3d ea a3 1b 3c a5 74 92 bc ad 05 12 3d
       0.035316758 0.009499529 -0.017877886 0.035649944
000250 6b 09 f1 39 ed 50 48 bd d5 5b 75 3c 80 a9 0d bd
       0.0004597412 -0.0489053 0.014975508 -0.034585476
000260 62 e5 8b bc 9a dc 8e bb 2c 47 f2 bc 95 5a 93 3c
       -0.017077152 -0.004359794 -0.029574953 0.017987529
000270 34 21 22 bd 8b c7 59 3c 49 19 e9 bc d0 ff d3 3b
       -0.039582446 0.013292204 -0.02845444 0.006469704
000280 8e a6 46 bd 85 75 cd bc b4 4e 20 bd e0 2e 50 bc
       -0.048498683 -0.025080452 -0.039137557 -0.012706488
000290 69 5d d2 bc 6b 38 29 3d cc 01 5b bc a2 db 89 3c
       -0.025679307 0.04131357 -0.013367128 0.016828362
0002a0 ed d6 ed bb 70 2e 21 3d db da 24 bd 41 19 b1 bc
       -0.007258287 0.039350927 -0.04024778 -0.021618487
0002b0 4c c4 73 bc 3c 09 46 3d f7 11 c6 39 26 a5 f6 3c
       -0.014878344 0.04834865 0.00037778888 0.030108046
0002c0 76 09 d9 ba 1a 4a 20 bb 6e 63 8c bc d9 f9 37 bd
       -0.0016558606 -0.002445823 -0.017137256 -0.044916008
0002d0 35 4b 80 bc 40 0b 82 3b 43 4c 86 bb 64 95 ea bc
       -0.015660862 0.0039686263 -0.0040984466 -0.028635688
0002e0 b1 42 08 bd e0 2c a7 bc a6 31 14 bb bf 9c 6d 3c
       -0.033266727 -0.02040714 -0.00226126 0.014502703
0002f0 c6 2e de bc 79 0b 03 3d fb 06 5c 3c c8 7a 55 3a
       -0.027121913 0.031993363 0.013429399 0.0008143601
000300 e6 80 a9 3b 5b 4f 2e 3d 2e a5 1c 3d 63 ea 13 bd
       0.0051728366 0.042556148 0.038243465 -0.0361122
000310 f2 e1 34 bd 45 0b 56 bc ec 10 8c bb 21 07 a9 bc
       -0.04416079 -0.01306421 -0.004274478 -0.020633282
000320 26 42 11 bc 8e 61 31 bc 16 57 3a 3c 2b 92 82 bc
       -0.008865869 -0.0108264815 0.011373302 -0.015938839
000330 c8 b6 25 3d 69 dc 29 bd 7c 62 27 3d 53 dc 09 bb
       0.040457517 -0.041469965 0.040865406 -0.0021035864
000340 ca f4 76 bc 80 f2 f5 bc 23 ee b0 bc 06 7d 44 bd
       -0.015073011 -0.03002286 -0.021597927 -0.047970794
000350 4b e8 fc 3c ea 47 f4 3c a9 e3 05 bd f6 03 ba 3b
       0.030872485 0.029819448 -0.032687817 0.0056767417
000360 88 7f 5d bc 7f ef ee bc 74 ed 06 3d 3c 60 fd bc
       -0.013519175 -0.029166935 0.032941297 -0.030929677
000370 01 22 b0 bc 8e 62 5b 3b f3 53 c0 3c b2 e6 49 3d
       -0.02150059 0.0033475491 0.02347753 0.049292274
000380 76 7c 38 3d 1d 68 fa bc 09 fe 23 3d 7e ca 97 3c
       0.04504057 -0.030567223 0.04003719 0.018529173
000390 fd 57 3c 3d 5d 60 e0 bc 66 cd 94 bc 20 f7 02 bb
       0.04598235 -0.0273897 -0.018164348 -0.0019983724
0003a0 ef f6 10 3d 92 1b aa 3c 37 af d7 bc b4 53 79 3c
       0.035391744 0.0207651 -0.026328666 0.01521771
0003b0 31 01 22 3d b8 b9 28 3c c0 cd fa 3b 69 a8 37 3d
       0.039551917 0.010298185 0.007653922 0.044838343
0003c0 d8 2c 1e bd 92 b8 48 bd 8a 66 a7 bc d8 e3 a7 bb
       -0.038616985 -0.049004145 -0.020434637 -0.0051235966
0003d0 10 e1 09 bd 10 f3 c6 bc 2e 82 e1 3c cb f2 17 bd
       -0.033661902 -0.024285823 0.027527895 -0.03709678
0003e0 6c cf 35 3c 41 ba 13 3d fd 4e 32 bd 71 14 7e bc
       0.0110968165 0.036066297 -0.04353236 -0.015507803
0003f0 49 6f 47 bd a4 5f 92 bc 34 c1 97 bc 3f 66 8e bc
       -0.048690114 -0.01786787 -0.018524744 -0.01738274

bias f4 [120]
000000 79 19 c8 ba cd 2b 09 3d 53 5c 8e 3c f1 09 ee 3c
       -0.001526638 0.033489037 0.017378008 0.029057475
000010 fe 8c 8b 3a 24 bd 27 3d fd f1 02 3d 8d f6 22 3d
       0.0010646877 0.040951863 0.03196906 0.03978591
000020 ce 41 a0 3c 29 7b 73 3d aa 7d 41 bd 8d 14 05 3d
       0.019562628 0.059443627 -0.047238983 0.032490302
000030 b3 96 79 bc 54 06 43 bd 41 cc 87 ba 2f ea 9a bc
       -0.015233683 -0.047613457 -0.0010360555 -0.018910496
000040 52 bb 72 bb f6 74 3f bc de a6 d7 3c 2a 1a f1 bc
       -0.003703792 -0.0116856005 0.026324686 -0.029431421
000050 8e 33 4a bd 45 5f 02 3d d1 31 49 bd 67 b4 08 bd
       -0.049365573 0.031829137 -0.049119774 -0.03337517
000060 b4 6d 01 3c ac c9 06 bc 37 b2 24 3d c3 ee 81 3c
       0.00789969 -0.008226793 0.04020902 0.01586092
000070 36 8d 98 bc 2c e6 29 3d 26 d0 a8 bc f6 f2 5d bc
       -0.018622022 0.041479275 -0.020607065 -0.013546696
000080 70 6c b7 bc d8 03 8b bc 1e 54 9b 3c 34 e3 3b 3d
       -0.022390574 -0.016969606 0.018961009 0.045870975
000090 31 75 1f bd 58 c2 c4 3c 55 df b5 bc d7 a3 13 3d
       -0.03893012 0.024018452 -0.02220122 0.03604492
0000a0 f0 6f 70 bc e7 4f da 3c 29 57 0e bd 56 f3 fb bc
       -0.0146751255 0.026649429 -0.03475109 -0.03075568
0000b0 55 94 18 3c 84 51 1e bc ad 27 a5 bc e2 b8 b6 3c
       0.009312709 -0.0096629895 -0.02016052 0.022304956
0000c0 3b 4c cc bc 08 18 30 3d 91 1f e2 3c 00 b5 02 3d
       -0.024938693 0.042991668 0.027602943 0.031910896
0000d0 42 53 f8 bc d7 88 3d bd e5 94 31 bd 57 e3 9d 3d
       -0.030313138 -0.04627308 -0.043354888 0.07709377
0000e0 a3 c5 0b 3d 30 ff 55 bd fb 8a 01 bd 2a 6e 66 3c
       0.034124028 -0.05224532 -0.031626683 0.014064351
0000f0 a8 6a 4b bd 3d 86 a6 3b 0c 31 43 3c 4a 8b 3a bc
       -0.049662262 0.0050819204 0.011913549 -0.011385748
000100 90 96 3e 3d 02 c9 dd 3c 34 0e ca bc a3 f3 bb 3c
       0.046530306 0.027073387 -0.024664976 0.022943323
000110 2f ed 7f 3c b3 e6 90 ba be ca 13 bd 15 67 d7 3c
       0.015620514 -0.0011055082 -0.036082022 0.02629427
000120 67 3f 48 bd f2 9f 2f 3c 4d 7c b1 3c 0e b5 bc 3a
       -0.04888859 0.010719286 0.021665717 0.001439722
000130 6c 5c 2d 3d 59 b5 48 bd 60 7f 15 bd 26 29 d4 bc
       0.04232447 -0.04900107 -0.036498427 -0.025898527
000140 d2 ec 51 3c 20 0b 4b bb 98 29 30 bd 3c 74 26 bd
       0.01281281 -0.0030981973 -0.043008417 -0.040638193
000150 3d 83 0b bc 52 1b 3e bd 65 ff 21 3d 4a 42 45 3c
       -0.008515176 -0.046412773 0.039550204 0.01203973
000160 e8 a9 9a 3c 89 98 53 bd a8 32 20 bd 27 72 d7 3c
       0.018879846 -0.05165914 -0.03911081 0.02629955
000170 d5 d4 c3 3b 38 7d 2c bd 8c b8 61 bd 86 6e 2f 3d
       0.0059762993 -0.042111605 -0.05510764 0.042830013
000180 f0 09 c9 bc b3 b8 92 bc c4 ab 84 3b 68 25 11 bd
       -0.024540871 -0.017910337 0.0040487964 -0.035436064
000190 82 e7 32 bd dc 13 4b bc e7 f2 fd 3c c6 66 54 3c
       -0.043677814 -0.012394872 0.030999614 0.012963956
0001a0 ac 63 ca 3b b3 f1 f2 bb e5 50 67 bd 15 be 0b 3d
       0.0061764326 -0.0074140667 -0.05647363 0.034116823
0001b0 76 70 9d bc fb 38 f9 bb ae f4 cd bc f6 0d 35 3d
       -0.019218665 -0.0076056696 -0.025141086 0.044202767
0001c0 63 e9 7a 3c 8a 46 9d bc f7 35 d6 3c 41 72 80 3d
       0.015314433 -0.019198675 0.02614878 0.06271792
0001d0 76 d3 0f 3d 22 5d 04 3e b4 9f ee bc 57 38 80 3c
       0.035113774 0.12926152 -0.029128887 0.015651865

weight f4 [36, 120]
000000 07 8f a0 bc 65 9b 88 3c 32 d4 2f 3d 85 e7 fa bd
       -0.01959945 0.01667566 0.042926975 -0.1225119
000010 57 ac 6d 3d 10 ee 57 3d a9 0f e7 bc 66 52 96 3d
       0.058025684 0.05271727 -0.02820571 0.07339935
000020 98 4c a3 bc 84 e2 3e 3c 64 ee c2 3c 2e 6d b9 bd
       -0.019933984 0.011650685 0.023795314 -0.090540275
000030 f0 4b 9c 3c ea eb 16 bd e3 2e 9c bd fc 44 82 bd
       0.019079179 -0.03684608 -0.076261304 -0.06360814
000040 50 03 51 bd 58 c1 25 3d 27 da 55 3d 71 b2 97 3d
       -0.05102855 0.04046759 0.05221 0.07407082
000050 06 e7 cd bd 95 ee 86 bc 6c 10 4a 3d cd 4f 2e ba
       -0.1005383 -0.016471187 0.049332067 -0.00066494645
000060 b6 fe 5a bd c7 37 7d bd 47 8c 72 3b 9a b5 ba bd
       -0.053465568 -0.06182077 0.0037009881 -0.09116669
000070 a5 92 d3 bd 5f d5 67 bc a3 47 07 bd e9 c2 30 3d
       -0.103307046 -0.014149993 -0.033027302 0.04315463
000080 62 1e 63 3d 05 e7 44 bc a1 e3 56 bd 8c c3 51 3d
       0.055448897 -0.01201797 -0.052463178 0.05121188
000090 8f e2 92 bc 2b 25 37 be 88 83 86 3c 1a 74 7f 3c
       -0.017930297 -0.17885272 0.01642014 0.015591646
0000a0 ce 23 64 bd ec c1 26 bd 9c b0 a1 3d cf 14 7d bd
       -0.05569821 -0.040712282 0.07895014 -0.061787423
0000b0 3a 43 81 bd d3 22 dc 3c 2d 02 1f bd 97 4a 00 3d
       -0.063116506 0.026872074 -0.038820434 0.031321134
0000c0 70 58 27 bd bd ad 18 be 38 77 c9 3c 70 2f 83 bd
       -0.040855825 -0.14910026 0.02459298 -0.06405532
0000d0 64 b7 a3 bd 2d ae b2 bc 4b 6f bf 3b 13 fa 90 bd
       -0.07993963 -0.02181157 0.0058421246 -0.07078948
0000e0 2c 2c a0 bb e0 29 c6 bb a7 96 9f 3c 0d 34 4b 3d
       -0.004888078 -0.0060474724 0.019481016 0.049610186
0000f0 7d 5e d7 3b 82 94 aa bd 44 2a 16 3d 68 f8 84 3d
       0.006572543 -0.08329107 0.0366614 0.06492692
000100 d3 b7 2a bd 0e 69 f8 bc fc 3c b1 bd 39 03 db bd
       -0.041679215 -0.030323531 -0.0865421 -0.10693974
000110 99 53 06 be 6c df 70 bd f9 68 d1 bd c2 b5 a6 bc
       -0.13117827 -0.05880682 -0.102251 -0.02035034
000120 b7 6f 7f 3d 78 66 90 bd 12 b6 8f bd cc 94 a1 3c
       0.0623624 -0.07050794 -0.07017149 0.019724272
000130 cd f5 37 bd 7f a3 b4 3b 97 2e b6 3c 95 5a 09 bc
       -0.04491215 0.0055126543 0.022239013 -0.008383413
000140 7a 9b a0 bd 61 1f 93 ba 71 1b bf bd d0 13 bc bd
       -0.07842155 -0.0011224562 -0.09331406 -0.091834664
000150 07 4e 00 be e2 33 07 3d cc 80 1f bd 4a 36 1f 3d
       -0.12529765 0.033008464 -0.03894119 0.038870133
000160 6c 98 f4 3c 18 4c 42 3c 2f e4 db bd 0f 66 cb bd
       0.029857837 0.0118589625 -0.10736882 -0.099315755
000170 2e a4 ac 3d 40 d5 ae bd 9f 4c a0 39 fb e6 19 bd
       0.08429752 -0.08536768 0.00030574665 -0.037573796
000180 bb c9 80 bd 17 5f 6f 3b eb ec 1f 3d 45 51 28 be
       -0.06288477 0.0036525184 0.039044302 -0.16437252
000190 a5 e8 87 bd eb 1d b7 bd 58 df 5e be 7f a9 52 bd
       -0.0663617 -0.08941253 -0.21764886 -0.051431175
0001a0 aa bc 04 bd c0 c9 3f 3d 7e 1a e3 3c 34 f1 86 bd
       -0.032406487 0.046823263 0.027722593 -0.065889746
0001b0 d7 fc 7a bd f2 91 51 bc 76 ca 22 be 3d 80 b4 3d
       -0.061276283 -0.012791144 -0.15897545 0.08813522
0001c0 ce fe d7 bc a5 12 58 be 38 3b 12 be 0a ce 06 be
       -0.026366618 -0.21100862 -0.14280403 -0.13164535
0001d0 74 78 32 be 4a b6 1a 3d 65 dd 15 be 47 52 3d 3c
       -0.17428762 0.0377715 -0.14635237 0.011555261
0001e0 31 40 65 bd b5 2e c6 bc 9f 57 8f 3d fb c6 13 be
       -0.05596942 -0.024192194 0.06999134 -0.14431374
0001f0 01 88 2d bd 2d a9 2c bd 21 43 6f bd 83 21 31 3d
       -0.04236603 -0.042153526 -0.05841363 0.04324485
000200 b8 ee ab bc b4 7e c6 3c a8 c0 fd 3c a4 84 4f bd
       -0.020987853 0.024230339 0.030975655 -0.050663605
000210 6d 15 a5 bd d9 16 6c 3d 5f 37 ee 3c 99 8b b8 bd
       -0.08060727 0.057638977 0.029079137 -0.09011001
000220 f2 84 9a 3d 37 61 ae bd 45 a4 04 bd 11 f1 b3 3c
       0.075448886 -0.08514636 -0.032383222 0.021965535
000230 eb ee 16 bc 6e 1d 82 bd df a6 4e bd e5 fd b8 bd
       -0.009212236 -0.063532695 -0.05045211 -0.090328015
000240 b3 5e ad bd f7 ad 62 bc b3 b6 65 bd 13 47 97 3d
       -0.08465328 -0.013835422 -0.05608244 0.07386603
000250 74 85 d5 bd 73 4a 20 bd d8 ae 3a be 82 c1 a5 ba
       -0.10425845 -0.0391335 -0.1823076 -0.0012646171
000260 50 2b b9 3d f2 d1 3e bd 54 f5 e2 3c 1d cd 8c bd
       0.09041464 -0.04658694 0.027704872 -0.0687506
000270 91 4f 81 3d 02 54 08 be 42 ab 5a 3d 3d 1b 50 bd
       0.06314004 -0.13313296 0.05338598 -0.050807226
000280 73 31 37 3d 64 59 41 3d 7e 0b 98 3d 28 55 62 3d
       0.044724893 0.04720439 0.07424067 0.055256993
000290 35 e4 94 3d 34 44 8c 3c c4 85 cc 3c 35 5b 87 bd
       0.072700895 0.017122366 0.024966128 -0.06609193
0002a0 62 9f 23 bd 1b fe 05 be 43 62 9a 3d 73 81 77 bd
       -0.03994692 -0.13085215 0.07538273 -0.060426187
0002b0 8d 60 3d bc cd 1e 8d 3c df 14 a3 3d c4 fc 49 be
       -0.011558664 0.017226601 0.07962965 -0.19725329
0002c0 9d a1 97 3d 3d db 4c bd 4b 57 f1 3c 5e 0f 08 3c
       0.07403872 -0.05001377 0.02946057 0.008304445
0002d0 0a c5 b3 bc ab 1b d3 bd cd f6 5f bd e1 eb 84 3d
       -0.021944541 -0.103080116 -0.054678727 0.06490303
0002e0 74 6e 41 bc d9 4a 74 3d 42 cf c5 bd 2c 4d 88 bd
       -0.011806119 0.059641693 -0.09658672 -0.06655344
0002f0 e9 e3 00 be 55 d6 a9 3d f1 4a 1c be d6 07 83 3c
       -0.12586941 0.08292834 -0.15262963 0.015994947
000300 17 1a b9 bb b1 a1 49 3d 77 39 50 3d 2a 12 96 bc
       -0.005648862 0.049226467 0.050836053 -0.018319208
000310 2a e9 78 3d df 40 46 bd 55 42 94 bd 5f b4 44 bd
       0.060769238 -0.04840171 -0.07239214 -0.048023578
000320 e9 24 23 be 21 b3 ce bd 7b 6e 9f 3c fb 33 43 3d
       -0.15932049 -0.1009276 0.01946186 0.047656994
000330 03 0a 40 bd 55 bb 21 3c a6 29 ce bd 8b 55 38 3d
       -0.046884548 0.009871324 -0.100665376 0.045003455
000340 da 5d f9 bb 8a 1b ae bc f4 c9 f8 bd de d9 a9 bc
       -0.007610065 -0.021253366 -0.121478945 -0.02073377
000350 34 78 6b bd de 98 77 3b 55 6d 9a 3c c8 51 20 3d
       -0.05748768 0.0037780325 0.018850962 0.039140493
000360 70 bf 07 be ba b9 8c bd 45 4e 44 3d b1 7a b7 b9
       -0.13256621 -0.06871362 0.047926206 -0.00034995892
000370 b9 bd c9 bd be 37 9b 3d c0 40 32 be 8a b7 ce bc
       -0.0985064 0.07578991 -0.17407513 -0.025234003
000380 ca db 73 bd 54 6a 25 bd 83 7b 1c bd db 06 53 3d
       -0.05953578 -0.040384606 -0.038203727 0.05152021
000390 73 76 d3 bd 67 35 2c bd 4a 5b 18 bd 65 63 83 3c
       -0.10325327 -0.042043116 -0.037196435 0.016038606
0003a0 93 eb 3d bd 64 f2 56 be 60 a6 22 be bd bc 51 be
       -0.04636724 -0.20990902 -0.1588378 -0.20482154
0003b0 9e c0 a5 bd 8a e5 d3 3c d8 54 81 3b 46 b1 e2 bd
       -0.080933794 0.025866289 0.0039468817 -0.110689685
0003c0 7c 04 ad bd 99 87 4d be 97 e4 e2 bc 90 ff c6 bc
       -0.08448121 -0.20071258 -0.02769689 -0.024291784
0003d0 3e 78 09 bd 9a 54 8e bc 1e b3 d3 bc ca 40 9d be
       -0.033561938 -0.017374326 -0.025842246 -0.30713493
0003e0 ef 34 72 bd 3a 63 27 be 35 a4 98 3d 50 80 6a 3e
       -0.059132513 -0.16346446 0.07453195 0.2290051
0003f0 ac 3c b0 bc 59 71 c3 3d 51 2a a9 3d 02 09 50 3d
       -0.021513306 0.09543104 0.08260024 0.05078984

bias f4 [36]
000000 c5 a3 d5 bd b9 34 9c bd db e5 30 3e fc ef d8 bc
       -0.10431627 -0.076272435 0.17275183 -0.026481621
000010 01 3c 51 3d 7f e3 ae bd f6 be c6 bd ab c5 9e bc
       0.051082615 -0.08539485 -0.09704392 -0.019381365
000020 3f 65 81 bd 87 c1 a3 3d 5e e1 b2 3d dc f8 7d 3c
       -0.06318139 0.07995897 0.08734392 0.015501227
000030 ca 48 6b 3d a1 13 a1 bd 76 bd 08 bd 37 f5 de bd
       0.057442464 -0.07865072 -0.03338381 -0.10886615
000040 17 16 52 3d 41 21 19 bd 99 d9 fe 3c 01 6f 16 3e
       0.051290598 -0.03738523 0.031109618 0.14690782
000050 4a ed 99 3d 91 03 26 bd d1 75 0e 3d 35 a0 18 bd
       0.075159624 -0.040530745 0.034780327 -0.03726216
000060 56 a4 10 be 9f 8a 25 3d 43 7c 39 bd 0b 0b 83 3d
       -0.14125189 0.040415403 -0.04528452 0.06398591
000070 cc 93 1a 3d 9b d3 80 bd 7e 8d 2a bd 96 76 98 3d
       0.037738606 -0.062903605 -0.041638844 0.074444935
000080 06 30 58 3e b5 3f f8 bc 26 7b 57 3c 84 b7 d1 bd
       0.2111207 -0.030303815 0.0131519195 -0.10240081
