model/(98)-net.pkl (torch_old, 254773 bytes, 8 tensors)

weight f4 [16, 1, 5, 5]
0	0xbdd104c9	-0.10205991
1	0xbd9f9b4e	-0.07793294
2	0x3e14c5c8	0.14528573
3	0x3ea45b93	0.32101116
4	0x3ea446c0	0.32085228
5	0x3d3ba1e8	0.045808703
6	0x3d400ad0	0.04688531
7	0xbd9f9040	-0.077911854
8	0x3e5bf279	0.21479215
9	0x3d98b5f1	0.074565776
10	0xbd6ebb27	-0.05828395
11	0xbec77cb2	-0.38962322
12	0xbe979e01	-0.29612735
13	0xbe48c0fe	-0.1960487
14	0xbe076688	-0.13222706
15	0xbe52517b	-0.20538895
16	0x3d4db83e	0.050224535
17	0xbdfbbe9f	-0.122922175
18	0xbe627dd7	-0.22118317
19	0x3d6f7b2a	0.058467068
20	0x3d4c8c9a	0.049938776
21	0x3e488fcc	0.19586104
22	0xbd73de9e	-0.059538476
23	0x3d84936e	0.064734325
24	0x3dd94679	0.10609145
25	0xbd0d15f4	-0.034444764
26	0xbd42682e	-0.047462635
27	0xbc7f6b1c	-0.015589502
28	0x3b87af71	0.0041407873
29	0xbedaba4a	-0.42720252
30	0x3ea933c4	0.33047307
31	0x3edd8f64	0.4327346
32	0x3f04a50f	0.5181436
33	0x3e0e2de8	0.138847
34	0x3c3b53ec	0.011433583
35	0x3e402e92	0.18767765
36	0x3eb712bf	0.3575649
37	0x3eee5422	0.46548563
38	0x3e5dcbec	0.21659821
39	0x3d87ec5f	0.06636881
40	0x3e9e3f88	0.30907845
41	0x3e30342c	0.17207402
42	0x3e808100	0.2509842
43	0x3ea6f3a9	0.32607773
44	0x3e568497	0.20949017
45	0x3ce4936a	0.027902324
46	0x3d092204	0.033479705
47	0x3eab592a	0.33466464
48	0x3e98f610	0.2987523
49	0x3d839c4b	0.06426295
50	0x3e3cd993	0.18442373
51	0x3e8dae97	0.27672264
52	0x3e90bdd9	0.28269842
53	0x3e8bc06b	0.2729524
54	0x3e239555	0.15974934
55	0xbe67c13e	-0.2263231
56	0xbe3f0f7a	-0.18658248
57	0xbe11feff	-0.1425743
58	0xbe42551a	-0.18977776
59	0xbce02876	-0.027363043
60	0x3d8f93c4	0.07010606
61	0xbe95136b	-0.29116377
62	0xbcfa6833	-0.030567264
63	0xbcdfee0b	-0.027335187
64	0xbe16060c	-0.14650744
65	0xbd968f8b	-0.073515974
66	0xbe18881f	-0.14895676
67	0xbb56ae54	-0.0032757716
68	0xbe0872d1	-0.13325049
69	0x3dac0a89	0.08400447
70	0x3e0f0cbf	0.13969706
71	0x3e70c2d2	0.23511818
72	0xbde80171	-0.113284
73	0x3da8e812	0.08247389
74	0xbc47ec7a	-0.0122023765
75	0x3dae86a7	0.08521777
76	0x3e01351f	0.1261792
77	0xbc56367a	-0.013074512
78	0x3c9ec779	0.019382225
79	0xbdd11bb1	-0.1021036
80	0xbe412491	-0.18861605
81	0xbe393886	-0.18087968
82	0x3d233233	0.039842796
83	0xbe05ff0c	-0.13085574
84	0xbe271d52	-0.16319779
85	0xbe634bf5	-0.22196944
86	0xbe463443	-0.19355874
87	0xbe514b95	-0.20438989
88	0xbdcea60a	-0.10090263
89	0xbd9e98ff	-0.077440254
90	0x3e2f688e	0.17129728
91	0xbb0dbba4	-0.0021626735
92	0xbe03b70a	-0.12862793
93	0x3d7985f7	0.060918774
94	0x3d90e409	0.07074744
95	0x3defebf8	0.11714929
96	0x3e94ee6b	0.29088148
97	0x3e8a01a5	0.2695438
98	0x3ea8b87d	0.32953253
99	0x3da45999	0.08024902
100	0xbd90ffa3	-0.07080009
101	0xbd682d1d	-0.05668365
102	0x3dbaa7d7	0.09114044
103	0xbc8399ec	-0.016064607
104	0xbdb886af	-0.09010064
105	0xbe096c93	-0.13420324
106	0xbc226167	-0.009910918
107	0x3dd6f41b	0.10495778
108	0xbd58b7b9	-0.052909587
109	0xbe83bc19	-0.25729445
110	0x3e840abb	0.25789437
111	0xbdd91492	-0.105996266
112	0x3d1ecd4b	0.03877
113	0xbe625005	-0.22100838
114	0xbea3af05	-0.31969467
115	0x3d5935a2	0.053029664
116	0x3ea04956	0.3130595
117	0x3e4783cb	0.19483869
118	0x3e3378c8	0.17526543
119	0xbe281c72	-0.16417101
120	0x3e32130b	0.17390077
121	0x3c0d12c8	0.008610435
122	0x3e3b76e3	0.1830707
123	0x3d9e54d5	0.07731024
124	0x3b7a45d9	0.0038188605
125	0x3eac744b	0.33682474
126	0x3ea5b505	0.3236467
127	0x3ee16e28	0.44029355
128	0x3e685133	0.22687225
129	0x3e7af3a8	0.2450701
130	0x3eb87bdc	0.36031997
131	0x3e3f0bc9	0.1865684
132	0x3ec629f7	0.38703892
133	0x3ea69796	0.32537526
134	0x3e8b9964	0.27265465
135	0xbe8e3bf1	-0.27780107
136	0xbe60f6f8	-0.21969211
137	0xbe321d8c	-0.17394084
138	0xbed6c81e	-0.41949552
139	0xbe5478b4	-0.2074917
140	0xbed81ea7	-0.42210886
141	0xbe82709d	-0.25476542
142	0xbf2197e9	-0.6312242
143	0xbf20aaca	-0.62760603
144	0xbea5b632	-0.32365566
145	0xbe206c7e	-0.15666386
146	0xbe33cb73	-0.17558078
147	0x3d9c6f7c	0.076384515
148	0xbe2b6b37	-0.16740118
149	0x3d861cac	0.065484375
150	0x3c4be129	0.012443819
151	0xbd38695c	-0.045022354
152	0xbd70b23c	-0.058763728
153	0x3e0aae64	0.13543087
154	0xbc9a8a68	-0.018864825
155	0x3dbaf7a2	0.091292635
156	0xbe15aa92	-0.14615849
157	0x3c8f830b	0.01751854
158	0xbc96a669	-0.018389897
159	0xbd319499	-0.043354604
160	0xbe19c37f	-0.15015982
161	0xbe19abbc	-0.15006918
162	0xbc2fc11c	-0.010727193
163	0x3dcc9859	0.099899955
164	0xbdf776cb	-0.12083205
165	0xbe45a99f	-0.19302987
166	0xbdad95c0	-0.08475828
167	0xbe39b11b	-0.18133967
168	0xbbca2f36	-0.0061701788
169	0xbe2dfc08	-0.16990674
170	0xbd6df5f2	-0.05809588
171	0xbbfa3ee8	-0.0076368935
172	0x3da20737	0.07911532
173	0xbe481fa9	-0.19543327
174	0x3dd586d9	0.10426111
175	0xbeda9cb2	-0.42697674
176	0x3dd5539f	0.1041634
177	0x3ec84a71	0.39119294
178	0x3f019ff9	0.50634724
179	0x3f03c46d	0.51471597
180	0xbe6ec0de	-0.2331576
181	0xbc679dd9	-0.014136755
182	0x3e6a0b22	0.2285581
183	0x3f108788	0.56456804
184	0x3f14ecc2	0.58173764
185	0xbe611fee	-0.21984836
186	0xbe1822a8	-0.1485697
187	0x3ec54531	0.3852935
188	0x3f28bdf0	0.6591482
189	0x3f0730a1	0.52808577
190	0xbf07a0dd	-0.5297983
191	0xbe80fc8c	-0.25192678
192	0x3ec7b1f6	0.3900296
193	0x3eda9aad	0.42696133
194	0x3e799a28	0.24375212
195	0xbea32288	-0.31862283
196	0xbe1a2715	-0.15053971
197	0x3d94373c	0.072370976
198	0x3dabc753	0.083876275
199	0x3e78247c	0.24232668
200	0xbe24e32c	-0.16102284
201	0xbe95379d	-0.29143992
202	0xbed294cc	-0.41129148
203	0xbf06b239	-0.52615696
204	0xbe4b3ff5	-0.19848616
205	0xbd029972	-0.031884618
206	0xbdebde39	-0.11516995
207	0xbe4bb421	-0.19892932
208	0xbec0fac5	-0.37691322
209	0xbea61253	-0.32435855
210	0x3e9231df	0.28553674
211	0x3ea63df2	0.32469136
212	0x3e3b8af9	0.18314733
213	0xbe35e6fa	-0.17763892
214	0xbe696ae3	-0.2279468
215	0x3f092431	0.5357085
216	0x3ef5eed2	0.48033768
217	0x3ec61f46	0.38695735
218	0x3eb05e36	0.34446877
219	0x3e475a54	0.19468051
220	0x3ecba164	0.3977157
221	0x3eaae3c0	0.33376884
222	0x3f012e07	0.5046086
223	0x3ee2fe57	0.4433467
224	0x3d287ba5	0.04113354
225	0x3d947be1	0.072501905
226	0x3dbae6d8	0.09126061
227	0x3e338254	0.17530185
228	0x3d57c013	0.05267341
229	0x3e849bc1	0.2590008
230	0x3e9ab0e2	0.30213076
231	0x3dd994da	0.10624094
232	0x3e813f2a	0.25243503
233	0x3ecb9b68	0.39767003
234	0x3e2a9732	0.16659239
235	0x3dde0c42	0.10842182
236	0x3d738ce3	0.059460532
237	0x3e3dee0a	0.18547836
238	0x3e58d588	0.21175206
239	0x3e6c0f97	0.23052822
240	0xbeeb1ded	-0.4592127
241	0xbe963dc4	-0.29343998
242	0xbe841d3f	-0.25803563
243	0xbe8a0cc6	-0.2696287
244	0xbdec9486	-0.11551766
245	0xbece0686	-0.40239352
246	0xbe605559	-0.21907558
247	0xbeeb30f0	-0.45935774
248	0xbe9b8ae5	-0.30379406
249	0xbe97376a	-0.29534465
250	0x3e29c825	0.16580255
251	0x3f1f3bed	0.62200814
252	0x3f249560	0.6429043
253	0x3f31c5ef	0.6944265
254	0x3f1a2ac0	0.6022148
255	0x3eea944c	0.45816267

bias f4 [16]
0	0x3e311e2a	0.17296663
1	0xbf5e02c4	-0.8672297
2	0x3c860558	0.01635997
3	0x3d20165c	0.039083824
4	0x3e0b600c	0.13610858
5	0x3f38ede9	0.7223802
6	0x3ddf44e4	0.10901812
7	0xbf4fab91	-0.81121165
8	0xbe59a7dc	-0.2125544
9	0x3eb01f87	0.34399053
10	0xbe714cca	-0.23564449
11	0x3e1960d6	0.14978346
12	0xbf809515	-1.0045496
13	0x3dbd4388	0.09241396
14	0xbcdbe823	-0.02684409
15	0xbd4d1ca1	-0.05007613

weight f4 [16, 16, 5, 5]
0	0x3d1af0ec	0.037827417
1	0x3b8221ea	0.003971328
2	0x3d3b17a3	0.04567684
3	0xbb4add9f	-0.003095485
4	0x3d421560	0.047383666
5	0xbd1530ca	-0.036423482
6	0x3ccf9bd2	0.025342856
7	0x3d2aad1d	0.041669
8	0xbc81bb4c	-0.01583638
9	0x3d3ede95	0.04659899
10	0xbd1f104e	-0.03883391
11	0x3d085cd4	0.033291653
12	0xbd011f20	-0.031523824
13	0x3ca45ebc	0.020064704
14	0xbc4f99eb	-0.012670974
15	0x3be5fafc	0.007018445
16	0x3d2abf58	0.041686386
17	0x3d275149	0.040849004
18	0x3cdc00cd	0.02685585
19	0xbcfc2e7e	-0.030783888
20	0x3ca6ed10	0.020376712
21	0x3d3e3fe5	0.046447653
22	0x3ce3331d	0.027734334
23	0x3bf3f80c	0.007445341
24	0x39e217b1	0.0004312373
25	0x3d071630	0.032980144
26	0x3d06aad1	0.032877747
27	0xbd3c28c6	-0.045937322
28	0xba5a8139	-0.0008335296
29	0x3d34256e	0.04398101
30	0xbd1672c0	-0.036730528
31	0xbbb3c4f6	-0.005486126
32	0x3b924227	0.0044634524
33	0xbb923ed8	-0.004463058
34	0xbb6286f9	-0.0034565313
35	0x3d27eeae	0.040999107
36	0xbd300d9a	-0.04298172
37	0xbca877b5	-0.020564893
38	0xbca96753	-0.020679152
39	0x3c8e3a11	0.017361673
40	0xbc758a14	-0.014986534
41	0xbd007b01	-0.031367306
42	0x3ce22416	0.027605098
43	0xbccbbdac	-0.024870716
44	0xbd3ffe14	-0.046873167
45	0x3c652da9	0.013987937
46	0xbd120971	-0.035653535
47	0x3bd40afe	0.006471037
48	0xbbba23cc	-0.005680537
49	0xbcc7b44e	-0.024377968
50	0xbd3c980d	-0.046043444
51	0xbca76bd4	-0.020437159
52	0xbcb8345d	-0.022485906
53	0xbd41f9b4	-0.047357276
54	0xbcc28f80	-0.023750067
55	0xbce42997	-0.027851863
56	0x3cfc9bda	0.030836035
57	0xbc825271	-0.015908452
58	0x3c5ad699	0.013356828
59	0x3d1b7f5e	0.037963264
60	0xbce71fb7	-0.028213365
61	0xbd2a40ef	-0.04156583
62	0xbca3882c	-0.019962393
63	0x3ca6ea93	0.020375526
64	0xbd26acec	-0.040692255
65	0x3d08a6da	0.033362247
66	0x3cd8055e	0.026369747
67	0x3cd32959	0.025776552
68	0x3babde83	0.0052450313
69	0xbc6538bc	-0.013990577
70	0x3c70f238	0.014706187
71	0xbd098e28	-0.033582836
72	0x3d22ce47	0.039747503
73	0x3c9c76d3	0.019099629
74	0xbd3998aa	-0.045311607
75	0x3adc4eaf	0.0016808118
76	0xbd4a31ca	-0.04936389
77	0x3ce57ca5	0.028013537
78	0x3cb0086f	0.021488396
79	0xbce41afb	-0.027844897
80	0xbd395614	-0.045248106
81	0x3d19a30f	0.03750902
82	0xbabad0ff	-0.001425296
83	0x3ccfb36b	0.025354108
84	0x3cface72	0.030616019
85	0x3cc49a19	0.02399926
86	0x3c26ee12	0.010188596
87	0xbcae4f57	-0.021278067
88	0x3d0c11fd	0.034196842
89	0xbc49d486	-0.012318736
90	0xbca41cb0	-0.02003321
91	0x3cc7d026	0.024391245
92	0xbd3781fd	-0.0448017
93	0x3d0f429f	0.034975644
94	0x3d23fe4a	0.04003743
95	0xbd10882d	-0.035286117
96	0x3d1168b5	0.035500247
97	0x3c0f5a1b	0.00874951
98	0x3d47b35b	0.04875503
99	0xbbb3c6f4	-0.0054863635
100	0x3b3f1dc3	0.0029162026
101	0x3d27ed18	0.040997595
102	0xbd2236b4	-0.03960295
103	0x3d0cc1b5	0.03436442
104	0x3ad1844a	0.001598486
105	0xbcbc9376	-0.023019534
106	0xbd5106c3	-0.05103184
107	0x3c2d74b0	0.0105869025
108	0x3d389a1e	0.045068853
109	0xbc970ae1	-0.018437805
110	0xbca9df5a	-0.020736385
111	0x3cccba13	0.02499107
112	0xbcd54158	-0.026032135
113	0x3cdf2be2	0.027242605
114	0xbaaf2943	-0.0013363737
115	0xbca3b156	-0.019982021
116	0x3cc4c9a7	0.024021937
117	0xbbdc9528	-0.006731648
118	0xbcc57223	-0.024102276
119	0x3c6f1603	0.01459265
120	0x3cba8945	0.022770533
121	0x3c918da4	0.017767735
122	0xbc962153	-0.018326437
123	0x3d35768f	0.04430252
124	0xbd1c21c0	-0.038118124
125	0xbc03c15e	-0.008041708
126	0x3d098873	0.033577394
127	0xbd1eaf86	-0.03874161
128	0xbd356023	-0.044281136
129	0xbcfcc250	-0.030854374
130	0xbcb8574a	-0.02250256
131	0x3d419721	0.04726327
132	0x3d3c54bc	0.045979246
133	0xbd29040d	-0.04126363
134	0x3d139b7a	0.036036946
135	0x3c8bf677	0.017085297
136	0xbb91659e	-0.0044371625
137	0x3d4499b0	0.04799813
138	0x3d00e7e5	0.03147115
139	0x3c884cf9	0.016638266
140	0xbc92b205	-0.017907152
141	0x3a861f20	0.0010232665
142	0xbcca21cf	-0.024674324
143	0xbc74a42a	-0.014931718
144	0xba8d9fae	-0.0010805035
145	0x3d2d2718	0.04227361
146	0x3d2811c8	0.041032583
147	0x3c22edca	0.009944389
148	0xbc9453bf	-0.01810634
149	0x3ce02424	0.027360983
150	0xbd1896d8	-0.03725323
151	0xbd3cdaaa	-0.04610697
152	0xbd06c0f2	-0.03289885
153	0x3bede31a	0.0072597386
154	0xbaa53d08	-0.001260669
155	0xbc4cf27b	-0.012508984
156	0xbcc64bec	-0.024206124
157	0xbcd14808	-0.025547042
158	0xbd3916db	-0.045187812
159	0xbd4a3348	-0.04936531
160	0xbced88e7	-0.028995944
161	0x3c181540	0.00928241
162	0xbca8d42c	-0.020608984
163	0xbd47b3b8	-0.048755378
164	0x3cad9f13	0.021194017
165	0xbd448b06	-0.047984146
166	0xbc9169fa	-0.017750729
167	0xbc858387	-0.016298069
168	0xbad7e793	-0.0016472213
169	0xbb975ea6	-0.0046194373
170	0xbce5af5d	-0.028037721
171	0xbd00cf08	-0.03144744
172	0x3c489859	0.012243354
173	0xbcb3435e	-0.02188271
174	0xbbd59371	-0.0065178205
175	0x3d29157c	0.041280255
176	0x3c86f342	0.016473416
177	0xbaa4d7dc	-0.0012576538
178	0xbd200e8a	-0.039076366
179	0x3d192227	0.037386086
180	0xbc23138c	-0.009953391
181	0x3cb892f5	0.022531012
182	0x3d1acccc	0.037792966
183	0xbcc6ce0a	-0.024268169
184	0xbcd38896	-0.025821965
185	0x3d2fbb5c	0.04290329
186	0x3d1c51f0	0.03816408
187	0xbb669590	-0.003518436
188	0xbc14eac4	-0.009089176
189	0xbca31e8c	-0.019912027
190	0x3d0c7c72	0.034298368
191	0xbb4f6717	-0.003164714
192	0x3d1b5aac	0.03792827
193	0x3d04cea4	0.03242363
194	0xbcc65c30	-0.02421388
195	0x3cc03868	0.023464397
196	0x3d09a745	0.033606786
197	0x3d27d726	0.040976666
198	0x3d13602b	0.035980385
199	0xbcbb7bfb	-0.022886267
200	0x3b86875e	0.0041054925
201	0xbc83a0c5	-0.016067872
202	0x3980f092	0.000245933
203	0x3d0a3c44	0.03374888
204	0x3cd9fe7b	0.026610604
205	0xbce7dab5	-0.02830253
206	0x3d324157	0.043519344
207	0x3d164e9d	0.036696065
208	0xbcab93ac	-0.020944439
209	0x3a883a84	0.0010393416
210	0x3d3475e7	0.044057753
211	0xbd41e469	-0.04733697
212	0x3d3a165c	0.04543148
213	0xbcb8e0d7	-0.02256815
214	0x3ce90230	0.028443426
215	0xbd1b31ce	-0.037889294
216	0xbcc0f1a4	-0.023552723
217	0xbd08035d	-0.033206332
218	0x3c0ef5ad	0.008725566
219	0xbc9cee5e	-0.019156631
220	0x3caf8a76	0.021428328
221	0xbc60fbc3	-0.0137319
222	0xbd16b1b6	-0.036790572
223	0x3ce7781c	0.028255515
224	0xbbfa9d19	-0.007648122
225	0xbc7b2065	-0.015327548
226	0x3c4f930c	0.012669336
227	0xbd3f8f70	-0.046767652
228	0x3a5a93ce	0.00083380647
229	0xbd481fe5	-0.048858542
230	0xbc222a9a	-0.009897852
231	0x3c14a673	0.009072888
232	0x3d298537	0.04138681
233	0xbd04c4ae	-0.03241413
234	0xbd3dc9b9	-0.046334956
235	0xbc986562	-0.01860303
236	0x3cd0cf90	0.025489599
237	0x3ccd3586	0.025049936
238	0xbca12425	-0.019670555
239	0x3c7903e7	0.015198684
240	0x3cb85c14	0.022504844
241	0xbd43e802	-0.04782868
242	0xbca41962	-0.020031635
243	0xbbb609d1	-0.0055553694
244	0x3d28e957	0.041238155
245	0xbd020cc2	-0.031750448
246	0xbd1d7a50	-0.038446724
247	0xbbc65bda	-0.00605343
248	0x3c7689f4	0.015047539
249	0xbbed82b6	-0.007248248
250	0x3c12aa3a	0.008951718
251	0xbd3e052f	-0.046391662
252	0xbd4e557e	-0.0503745
253	0xbc515656	-0.012776932
254	0xbbdbddec	-0.0067098048
255	0x3c8be333	0.01707611

bias f4 [16]
0	0x3b3479f4	0.002753851
1	0x3d8ac8f7	0.06776612
2	0xbd2d1340	-0.042254686
3	0x3c01d97f	0.00792539
4	0xbdaa2ea4	-0.08309677
5	0x3c48433d	0.012223062
6	0xbd8eccbd	-0.069726445
7	0x3c0ce82a	0.008600274
8	0xbd48f6c7	-0.04906347
9	0x3d0e6d82	0.034772404
10	0xbe218f68	-0.15777361
11	0x3d11e4ce	0.035618596
12	0x3c997f29	0.018737393
13	0x39096008	0.00013101113
14	0xbd632f6a	-0.05546514
15	0x3c7bc43f	0.015366613

weight f4 [120, 400]
0	0xbc7b6f6a	-0.015346387
1	0xbc2647a5	-0.010148917
2	0xbc363a59	-0.01112231
3	0xbcbcdf74	-0.02305577
4	0x3c94ef8d	0.018180633
5	0xbc637f47	-0.013885326
6	0x3d00d2c0	0.031450987
7	0xb992bcd8	-0.0002798799
8	0x3d2ba019	0.041900728
9	0xbce88c90	-0.028387338
10	0xbbc1e343	-0.0059169843
11	0xbb9f371d	-0.004858865
12	0x3d407b68	0.04699269
13	0x3c526f86	0.012843972
14	0x3ce9ef93	0.02855662
15	0x3ccfd3f7	0.025369627
16	0x3ca83260	0.020531833
17	0xb9136aeb	-0.00014058842
18	0x3d13bb7d	0.036067475
19	0xbd4ebb79	-0.050471757
20	0xbcd4d709	-0.025981443
21	0x3d117939	0.035515998
22	0xbd1b9b35	-0.037989814
23	0x3b4790d8	0.0030451324
24	0x3c73a366	0.0148705
25	0x3cee5ac4	0.029096015
26	0x3d2dc3c1	0.042423014
27	0x3c63a4c8	0.013894267
28	0xbc1cffe2	-0.009582492
29	0x3cb7dab4	0.022443153
30	0x3d76ef43	0.06028677
31	0x3c0013e9	0.007817247
32	0xbc8ea86a	-0.01741429
33	0xbc017fb9	-0.007903987
34	0x3cfb88d5	0.030704895
35	0xbd072f34	-0.033004
36	0xbca2af03	-0.019858843
37	0x3c3e43b4	0.011612821
38	0xbc1dc550	-0.0096295625
39	0xbcabeca6	-0.020986866
40	0x3c92b95f	0.017910657
41	0x3c49213f	0.012275993
42	0xbc017fb2	-0.00790398
43	0x3c22e138	0.009941392
44	0x3b8618eb	0.004092326
45	0x3d16d3fe	0.036823265
46	0xb95d002c	-0.00021076266
47	0xbc8a9631	-0.01691732
48	0xbc06e153	-0.008232432
49	0xbc293143	-0.010326686
50	0xbb3e7902	-0.0029063825
51	0xbc1139f8	-0.0088639185
52	0xbd10ab37	-0.035319533
53	0xbbff7b51	-0.007796683
54	0xbc9e2e86	-0.019309293
55	0x3d2402ae	0.040041618
56	0x3cfebf50	0.031097084
57	0xbcc7a98e	-0.024372842
58	0xbd043f0f	-0.0322867
59	0xbb71a24f	-0.0036870425
60	0xbbed3384	-0.007238807
61	0x3d004f41	0.031325582
62	0xbbc4b438	-0.006002929
63	0xbbb8108f	-0.0056172083
64	0xbc8a62c8	-0.016892806
65	0xbd15d438	-0.03657934
66	0xbcbcc2fd	-0.023042196
67	0x3b9dd111	0.0048161824
68	0xbb4cfc6e	-0.003127839
69	0xbc007631	-0.007840679
70	0xbc8b809e	-0.017029103
71	0x3be770c0	0.0070630014
72	0x3b6b1f22	0.003587671
73	0x3ce105f0	0.027468652
74	0x3d30fbe0	0.043208957
75	0x3cb8ac5a	0.022543121
76	0xbd8c5769	-0.0685261
77	0xbd1df673	-0.03856511
78	0x3d6db5e8	0.058034807
79	0x3d2aac47	0.041668203
80	0x3ce4f855	0.027950445
81	0xbcec727b	-0.028863182
82	0xbd64da83	-0.05587245
83	0x3cc1bbd8	0.023649141
84	0xbc0fb8bf	-0.008772074
85	0x3d14222a	0.036165394
86	0x3d42ab15	0.047526438
87	0xbbedbb35	-0.007254983
88	0xbd47430f	-0.048647936
89	0xbde8b625	-0.11362866
90	0xbb92dc50	-0.0044818297
91	0xbd0f4c29	-0.03498474
92	0xbd716fbe	-0.058944456
93	0xbc23bf5e	-0.009994356
94	0xbce7eee0	-0.028312147
95	0x3c1a002c	0.009399455
96	0x3b958e40	0.0045640767
97	0x3d330c54	0.04371293
98	0xbbcaf6bd	-0.0061939643
99	0xbcf50ceb	-0.029913386
100	0xbc8f00fe	-0.017456528
101	0xbcf30ad5	-0.029668251
102	0x3cf3a1d4	0.029740252
103	0x3d53dd4c	0.051724717
104	0x3d35200d	0.04422002
105	0x3d9c8959	0.076433845
106	0xbd7186a7	-0.058966305
107	0xbde845d5	-0.113414444
108	0xbc6baeaa	-0.014384905
109	0xbde36fa7	-0.1110528
110	0x3d1df3e3	0.038562667
111	0xbb697d81	-0.0035627785
112	0x3bbe31f6	0.0058042957
113	0x3e2f4826	0.17117366
114	0xbd87024e	-0.065922365
115	0xbccf500c	-0.025306724
116	0x39014716	0.0001232888
117	0xbd9ff1b1	-0.07809771
118	0xbd15a164	-0.036530867
119	0xbd9f99ad	-0.07792983
120	0x3d2861c3	0.041108858
121	0xbc947d9b	-0.0181263
122	0xbc411b1d	-0.0117862495
123	0x3c5a84c7	0.013337321
124	0xbcc24ee4	-0.023719259
125	0xbc1044d8	-0.008805476
126	0xbcc66400	-0.024217606
127	0x3d322b55	0.043498356
128	0xbd332915	-0.04374035
129	0xbd057bce	-0.032588772
130	0xbcc4bdad	-0.024016226
131	0xbd04496f	-0.032296594
132	0xbd2fc2ac	-0.042910263
133	0xbb094d73	-0.0020950704
134	0xbd122856	-0.035683
135	0x3a5fb68e	0.00085339777
136	0xbc1ff47d	-0.00976288
137	0xbd29e42c	-0.041477367
138	0xbab54646	-0.0013830147
139	0xbadbcb8f	-0.0016769039
140	0x3d177a44	0.036981836
141	0x3d04a9ef	0.032388624
142	0xbcc0c19b	-0.023529818
143	0x3c5c8c44	0.013461176
144	0xbd1609fe	-0.036630623
145	0x3a5eaf05	0.0008494708
146	0x3cd93997	0.026516719
147	0xbc23f78d	-0.010007751
148	0xbcbaac0a	-0.022787113
149	0xbcf3abd7	-0.029745026
150	0x3b8f6150	0.004375614
151	0xbb955df6	-0.00455832
152	0xbdca3d0d	-0.09874926
153	0xbdb03620	-0.086040735
154	0xbd649937	-0.05581018
155	0xbd8c2f9f	-0.068450205
156	0xbd32ae0b	-0.04362301
157	0xbb954e7e	-0.004556476
158	0x3dced359	0.10098905
159	0xbcdebd4b	-0.027189871
160	0xbba143fc	-0.0049214344
161	0x3c8e41d7	0.01736538
162	0xbdb9636f	-0.090521686
163	0xbda6e0f6	-0.08148377
164	0xbc2db466	-0.010602092
165	0x3cd041af	0.025421945
166	0xbc9b85b7	-0.018984659
167	0x3d8b0702	0.06788446
168	0x3d8a69a4	0.067584306
169	0x3d32f441	0.04368997
170	0x3d6803ed	0.05664437
171	0xbc7d4397	-0.015458009
172	0xbd05940d	-0.032611895
173	0xbd5b361e	-0.053518407
174	0xbd88afce	-0.06674157
175	0x3d10b86a	0.03533212
176	0xbd21b5b8	-0.03947994
177	0xbbf46889	-0.0074587506
178	0x3aec5b86	0.0018032647
179	0x3c3a784e	0.011381222
180	0x3ca08876	0.01959632
181	0xbd362d25	-0.044476647
182	0x3a229f0a	0.0006203508
183	0x3d317faf	0.04333466
184	0x3c0ef8e1	0.00872633
185	0xbbd1c117	-0.006401192
186	0xbd09ae1c	-0.03361331
187	0x3bbef302	0.0058273086
188	0x3c7ed807	0.015554435
189	0xbd00be87	-0.0314317
190	0xbcca56f5	-0.024699667
191	0x3cbb6510	0.022875339
192	0xbd3c4e14	-0.0459729
193	0x3d35c6b0	0.044378936
194	0x3d21dc9e	0.039517038
195	0x3c281968	0.010259964
196	0x3d14e865	0.03635444
197	0xbc8e4c27	-0.017370297
198	0x3c8af93f	0.016964553
199	0x3d2ed4f6	0.042683564
200	0xbd18395a	-0.03716407
201	0x3d7ffd6d	0.062497545
202	0x3c12358d	0.0089239
203	0x3cbd8b6b	0.023137769
204	0x3cdf1a9b	0.027234366
205	0x3cc6a492	0.024248395
206	0x3d389ff1	0.045074407
207	0xbd61c741	-0.055121664
208	0xbc0ae936	-0.008478453
209	0x3cfb2118	0.030655429
210	0x3da1e79a	0.079055026
211	0x3deb481e	0.11488365
212	0x3d357c77	0.044308152
213	0x3cfd076b	0.030887326
214	0xbcf135aa	-0.029444534
215	0xbd3ace95	-0.04560717
216	0xbcd953b1	-0.026529165
217	0x3cd44fc5	0.025916943
218	0x3cca772d	0.02471503
219	0xbc33b243	-0.010967794
220	0xbd32c9bb	-0.043649416
221	0xbc5bade3	-0.013408157
222	0x3c136430	0.0089960545
223	0xbcb7e1fa	-0.022446621
224	0xbd391e5c	-0.04519497
225	0x3da8b2a5	0.08237199
226	0x3d12b37c	0.0358157
227	0x3d56c1ef	0.052431043
228	0x3c5ab5cc	0.013349008
229	0xbcd8fcbe	-0.026487704
230	0x3c8e4020	0.017364562
231	0xbbfde555	-0.007748286
232	0x3c7ea361	0.015541882
233	0x3d77e67e	0.06052255
234	0xbdfa084e	-0.12208615
235	0x3d07b2eb	0.033129614
236	0x3cda6f36	0.026664358
237	0x3b5ec20c	0.0033990173
238	0xbc3415a1	-0.010991485
239	0xbc3b648c	-0.011437546
240	0x3d28ec39	0.041240904
241	0xbd427e23	-0.047483575
242	0xbb726b7c	-0.0036990335
243	0xbd34c8ae	-0.044136696
244	0xbce82ffa	-0.02834319
245	0x3c82d4fd	0.015970701
246	0x3d2bd418	0.041950315
247	0xbd2a1017	-0.04151925
248	0xbd291f50	-0.041289628
249	0xbd06dc6f	-0.032925066
250	0xb7636e81	-1.3555983e-05
251	0xbd30c99b	-0.043161016
252	0xbd3fb7c0	-0.046806097
253	0xbd963262	-0.073338285
254	0xbd84fd90	-0.06493676
255	0xbcd8364a	-0.026393075

bias f4 [120]
0	0xbd72df6d	-0.059295107
1	0xbabee4d5	-0.0014564047
2	0x3d044f7a	0.032302357
3	0x3dc7ffb3	0.09765568
4	0xbd7d1f3f	-0.061797377
5	0x3d2577e1	0.04039753
6	0x3cf453de	0.029825147
7	0x3d188ca6	0.037243508
8	0x3c84384f	0.016140131
9	0x3c453a03	0.012037757
10	0xbcd2ba5b	-0.025723627
11	0x3d440713	0.04785831
12	0x3bb3ed2f	0.005490921
13	0x3cfae76d	0.03062793
14	0xbd9d4be7	-0.07680493
15	0xbd056115	-0.032563288
16	0x3da46625	0.08027295
17	0xbd6e28be	-0.058144324
18	0x3dfa12ca	0.12210615
19	0xbcf7777b	-0.03020834
20	0xbd011140	-0.03151059
21	0x3d07b335	0.03312989
22	0x3c09632d	0.008385462
23	0xbc8aca52	-0.016942177
24	0xbc7adf71	-0.015312062
25	0xbc8915ea	-0.016734082
26	0xbccf7862	-0.025325958
27	0xbca2369f	-0.019801436
28	0xbc8d1ab2	-0.017224643
29	0xbd0b33e4	-0.033985034
30	0xb8bb0362	-8.917485e-05
31	0xbc1f31a2	-0.009716423
32	0xbd4b253c	-0.049596056
33	0x3b04b6c2	0.0020250534
34	0xbcbe61b3	-0.023239946
35	0x3c6824ba	0.014168913
36	0xbd3fb86f	-0.04680675
37	0x3cf26c32	0.029592607
38	0x3d9e3017	0.07724016
39	0xbd3f88b4	-0.04676123
40	0xbc6635b3	-0.014050889
41	0xbcfdf31a	-0.030999709
42	0xbc1667ce	-0.009180022
43	0xbd108080	-0.035278797
44	0x3d0d5762	0.034507163
45	0xbd2c2ac4	-0.042032972
46	0x3c088001	0.0083313
47	0xbc910162	-0.017700855
48	0x3cb33fe9	0.02188106
49	0x3c91a882	0.017780546
50	0x3d61acd3	0.05509646
51	0x3d3ff5b0	0.046865165
52	0xbb9ae8dc	-0.004727466
53	0xbc95fded	-0.018309558
54	0x3d9f922f	0.07791554
55	0xbd8f9688	-0.070111334
56	0x3cbb91fa	0.022896755
57	0xbd34018e	-0.043946795
58	0xbd5428e2	-0.0517968
59	0x3d0be81f	0.034156915
60	0xbd89d189	-0.06729419
61	0xbd45826b	-0.04822008
62	0xbd0e04b5	-0.034672458
63	0xbbfcfbab	-0.007720431
64	0xbca9af57	-0.020713491
65	0x3d9932bd	0.07480381
66	0x3d6242bb	0.05523942
67	0x3d458817	0.04822549
68	0xbd554e0d	-0.05207639
69	0x3c8b7aa1	0.017026247
70	0xbd4614bd	-0.04835962
71	0xbcbe1579	-0.023203598
72	0xbcdb7171	-0.026787492
73	0x3cef6777	0.02922414
74	0x3ccf09e6	0.025273275
75	0xbb6fad11	-0.0036571661
76	0x3b1aa533	0.0023597002
77	0xbcb2c7fc	-0.021823876
78	0xbc148867	-0.009065724
79	0xbc5cf69d	-0.013486532
80	0x3ca47866	0.020076942
81	0x3d36bdc4	0.04461457
82	0xbc59925f	-0.0132795265
83	0xbaad27fb	-0.0013210768
84	0xbd65e1c9	-0.05612353
85	0x3d46050d	0.04834466
86	0x3ccce790	0.025012761
87	0x3d27b72d	0.040946174
88	0xbcec9e52	-0.028884087
89	0x3dbf9107	0.09353834
90	0x3d3aefac	0.045638725
91	0xbd874429	-0.066047974
92	0xbc3dde83	-0.011588695
93	0xbb09fdae	-0.0021055746
94	0xbcc9486d	-0.024570668
95	0x3c402663	0.011727902
96	0xbb89cbba	-0.0042051943
97	0xbb3fd3d7	-0.0029270553
98	0xbd5ee32f	-0.054415878
99	0x3cfaa3ab	0.030595621
100	0xbd334aff	-0.043772694
101	0xbbace54f	-0.005276359
102	0xbd190fde	-0.037368648
103	0x3d4063a7	0.046970036
104	0x3a9a41be	0.001176886
105	0x3d21cbfe	0.039501183
106	0x3b955317	0.004557024
107	0x3d2969cc	0.04136066
108	0xbc5fbc9a	-0.013655806
109	0x3d424d29	0.047436867
110	0x3a2241a1	0.0006189589
111	0x3d2b5915	0.041833002
112	0x3d1e61aa	0.03866736
113	0x3a1143ec	0.0005541432
114	0x3c9d8145	0.01922668
115	0xbd4198d1	-0.047264878
116	0xbd049e1e	-0.032377355
117	0xbbe9a0a8	-0.0071297474
118	0x3caffca8	0.02148278
119	0x3bd064a7	0.006359655

weight f4 [36, 120]
0	0x3d998832	0.0749668
1	0xbd15bba4	-0.0365559
2	0xbc889b6a	-0.01667567
3	0xbd6cc9f9	-0.057809804
4	0xbbf30c0e	-0.0074172085
5	0x3cc14a6f	0.023595063
6	0x3da1d800	0.07902527
7	0xbd7625a5	-0.060094494
8	0x3d2d5dfe	0.042325966
9	0x3d141446	0.036152147
10	0xbd9a0c9d	-0.07521937
11	0x3c50efad	0.012752456
12	0x3d8ac7bb	0.06776377
13	0xbe354d1d	-0.17705198
14	0x3d14d461	0.036335353
15	0x3d66e723	0.056372773
16	0xbe070c16	-0.13188204
17	0xbd7ebd1f	-0.06219208
18	0xbdc1f43d	-0.09470413
19	0x3c511226	0.012760675
20	0xbc28c130	-0.010299966
21	0xbc93c3b3	-0.018037653
22	0x3c70ee03	0.014705184
23	0x3c6749db	0.01411673
24	0x3c5d600c	0.013511669
25	0xbdf65754	-0.12028375
26	0xbcd0bede	-0.025481638
27	0xbd38d33e	-0.04512333
28	0xbd15b8e0	-0.036553264
29	0xbd790082	-0.0607915
30	0x3d254727	0.04035106
31	0x3d821c6b	0.063530765
32	0xbdda65a0	-0.10663915
33	0xbc10f81f	-0.008848219
34	0xbcde6f11	-0.02715257
35	0x3d41516d	0.047196794
36	0x3c95dea2	0.018294636
37	0x3d019ef6	0.031645738
38	0xbe358ccd	-0.17729492
39	0xbd9421d5	-0.072330154
40	0xbe2e6248	-0.17029679
41	0x3d62104d	0.055191327
42	0x3ce64594	0.02810935
43	0xbd8f3447	-0.06992393
44	0x3da58c97	0.08083456
45	0x3ab25c2a	0.0013607789
46	0x3c1084eb	0.008820753
47	0x3cf8517a	0.030312289
48	0xbc5b3107	-0.013378388
49	0x3d9b8474	0.07593623
50	0xbb5e6612	-0.003393535
51	0xbb098270	-0.0020982288
52	0xbb03c856	-0.0020108423
53	0xbd8170ef	-0.063203685
54	0xbe1c738a	-0.1527845
55	0x3da5c120	0.08093476
56	0xbdb625d0	-0.08893931
57	0xbdbeb2c4	-0.093114406
58	0x3db1654c	0.08661899
59	0x3d8270a2	0.06369139
60	0xbda52adb	-0.08064815
61	0x3cc6c691	0.024264606
62	0xbcadddc5	-0.021223912
63	0x3d49b2d1	0.0492428
64	0xbdff9cb4	-0.124810606
65	0xbe6a4484	-0.22877699
66	0xbe52a8ff	-0.2057228
67	0x3d8ca5e7	0.06867581
68	0xbd0bd8a5	-0.034142155
69	0xbbaee52e	-0.005337379
70	0xbdb9e2b8	-0.09076446
71	0x3cef4679	0.029208409
72	0xbe1efde5	-0.1552654
73	0xbd04f20c	-0.032457396
74	0x3d3d8151	0.046265904
75	0x3cba98a4	0.022777863
76	0x3d1a7790	0.03771168
77	0xbe167a2c	-0.14695042
78	0xbc38fc60	-0.01129064
79	0x3cb9c571	0.022677155
80	0xbe7e8b87	-0.24857913
81	0xbd53b5db	-0.051687103
82	0x3db4a56b	0.088206135
83	0xbcd4a30c	-0.025956653
84	0x3bae828f	0.0053256224
85	0xbd97c987	-0.07411485
86	0x3d702754	0.058631256
87	0xbdb57e68	-0.08862001
88	0xbda6f81d	-0.081527926
89	0xbde8a55f	-0.11359667
90	0xbc4fe66e	-0.012689216
91	0xbdcfa9e7	-0.10139828
92	0xbbf7ccf6	-0.007562275
93	0x3d89ec65	0.06734542
94	0x3d1533ff	0.03642654
95	0xbc6e08ea	-0.014528492
96	0xbc00228d	-0.007820738
97	0x3da19e38	0.07891506
98	0x3d5a1781	0.05324507
99	0x3d10e89d	0.035378087
100	0x3d0c17ba	0.034202315
101	0xbdc1de51	-0.094662316
102	0x3d14f729	0.036368523
103	0xbc9e1a19	-0.019299554
104	0x3c4c6784	0.012475852
105	0xbce5b02c	-0.028038107
106	0x3ba5328a	0.005041425
107	0xbe2644d5	-0.16237195
108	0x3c933727	0.017970635
109	0xbd313bf8	-0.04327008
110	0xbd2f97da	-0.042869426
111	0x3c1a968a	0.009435305
112	0x3bb82b7d	0.0056204186
113	0xbd57f0a0	-0.052719712
114	0x3bd4b1c7	0.0064909193
115	0x3d7abd96	0.06121596
116	0x3db23056	0.087006256
117	0x3db5a887	0.08870035
118	0x3d2b7bce	0.041866116
119	0xbdaf3128	-0.08554298
120	0x3da36389	0.07977969
121	0x3d367490	0.044544756
122	0xbd564008	-0.05230716
123	0xbdfa37ed	-0.12217698
124	0xbd3b5fe6	-0.045745753
125	0xbd406278	-0.046968907
126	0xbd8d4caf	-0.06899392
127	0x3d8fcaa6	0.07021074
128	0x3c53756f	0.012906416
129	0x3d972168	0.073794186
130	0xbd5a7348	-0.053332597
131	0xbd9761e5	-0.07391719
132	0x3c2a6c78	0.0104018375
133	0xbe119b70	-0.14219451
134	0x3ccd2425	0.02504165
135	0xbd82f74b	-0.06394824
136	0xbd205787	-0.039145973
137	0xbdf8e235	-0.121525206
138	0xbd34dc8d	-0.044155646
139	0x3d91b8f1	0.07115353
140	0x3c3835cf	0.011243298
141	0xbc932ec0	-0.017966628
142	0x3dacc231	0.084354766
143	0x3d96fb63	0.07372167
144	0xbcdca02a	-0.02693184
145	0xbdcc6285	-0.099797286
146	0xbde89308	-0.11356169
147	0x3db6cf78	0.0892629
148	0xbd4dc0fa	-0.050232865
149	0xbd9e958e	-0.07743369
150	0x3d29ec4e	0.041485123
151	0x3b54ca98	0.0032469388
152	0xbdae60d6	-0.08514564
153	0xbd0e68c1	-0.03476787
154	0xbd087f55	-0.03332456
155	0xbd3e713b	-0.046494704
156	0xbb94dfe6	-0.0045432923
157	0xbc2cd4e7	-0.010548807
158	0xbe367d3f	-0.17821215
159	0x3c5cdf20	0.0134809315
160	0xbe0e5af0	-0.13901877
161	0xbcf773bf	-0.03020656
162	0xbbc6b19f	-0.0060636546
163	0x3cf4ce40	0.029883504
164	0x3c857c4f	0.016294627
165	0xbcebef8c	-0.028800748
166	0x3cc7b11a	0.02437644
167	0x3d857ee1	0.06518341
168	0x3d1ff16a	0.03904859
169	0x3d31a4fc	0.043370232
170	0xbd9c3c3a	-0.07628675
171	0x3d6f19d0	0.058374226
172	0xbd62d6ee	-0.055380754
173	0xbbb869c5	-0.005627843
174	0xbe221a13	-0.15830259
175	0xbd392d4b	-0.04520921
176	0xbe107220	-0.14106035
177	0xbe0583f4	-0.13038617
178	0xbd9e02df	-0.07715391
179	0xbd0e933b	-0.03480838
180	0xbd773e2f	-0.060362037
181	0x3d844922	0.064592615
182	0xbd4816d3	-0.048849892
183	0xbd9f656e	-0.07783018
184	0xbe44f6ce	-0.19234774
185	0xbe6d5c2d	-0.23179694
186	0xbdaae65f	-0.08344721
187	0xbcfcd2a3	-0.030862158
188	0x3c750416	0.014954587
189	0x3b84d563	0.004053758
190	0x3b8cde0b	0.0042989305
191	0xbcb3d8dc	-0.021953993
192	0xbe0f9ae7	-0.14023934
193	0xbd88118e	-0.06643973
194	0x3d291edd	0.0412892
195	0x3d207514	0.039174154
196	0xbd6b7695	-0.057486136
197	0xbe1ecf91	-0.15508868
198	0xbdbe79b8	-0.0930056
199	0xbc2057d0	-0.009786561
200	0xbe62add6	-0.22136626
201	0xbd2eabd7	-0.042644348
202	0x3d1316d3	0.03591044
203	0x3d2ebbfc	0.042659745
204	0xbc1a4742	-0.009416403
205	0xbe0e0890	-0.13870454
206	0x3d043c55	0.0322841
207	0x3c8f7693	0.017512595
208	0xbdc0d958	-0.09416455
209	0xbd0888af	-0.033333477
210	0x3c6176af	0.0137612065
211	0xbda536a0	-0.080670595
212	0x3b8cc9d1	0.0042965193
213	0x3d17b069	0.037033472
214	0x3c7fd1ea	0.015614012
215	0xbd54c3dd	-0.051944602
216	0xbd977c30	-0.07396734
217	0x3daf43f6	0.085578844
218	0x3d8ac68f	0.06776153
219	0xbd8621c9	-0.06549413
220	0x3d293d6e	0.04131835
221	0x3cae2e04	0.021262176
222	0x3da3b6e1	0.07993866
223	0x3d0ecfbf	0.03486609
224	0x3b98e5a6	0.004666048
225	0x3b61fcf0	0.0034483038
226	0x3d4f4dee	0.05061143
227	0xbdb682ae	-0.08911644
228	0xbd040de5	-0.032239813
229	0xbc5fb778	-0.013654582
230	0xbd91b16c	-0.07113919
231	0xbcc3ab02	-0.023885254
232	0x3c8453c3	0.016153222
233	0xbd44aff8	-0.04801938
234	0xbd658d86	-0.05604317
235	0x3cd37d7e	0.025816675
236	0x3d9bccac	0.076073974
237	0x3da73adb	0.08165523
238	0xbe0447fe	-0.12918088
239	0x3d68748f	0.056751784
240	0x3e21c487	0.15797625
241	0x3e73983e	0.23788545
242	0x3eac4e42	0.33653456
243	0xbe90b494	-0.2826277
244	0xbd810b3b	-0.0630097
245	0xbcc7d609	-0.024394052
246	0xbd332e08	-0.04374507
247	0xbd02df90	-0.031951487
248	0xbd1f8724	-0.03894724
249	0xbeb79cf2	-0.35861927
250	0x3ca0757c	0.01958727
251	0xbe094f36	-0.13409123
252	0x3d4f8d22	0.050671704
253	0x3ea048b1	0.3130546
254	0x3cd1a6df	0.025592266
255	0x3c9b1ad3	0.01893369

bias f4 [36]
0	0xbe31cb22	-0.17362645
1	0xbe1cbc45	-0.15306194
2	0x3dd74356	0.1051089
3	0x3dd0c120	0.10193086
4	0xbdd7a979	-0.10530371
5	0xbddbffd9	-0.107421584
6	0x3d2fda83	0.042933
7	0x3c79a826	0.015237844
8	0xbd7d47ea	-0.06183616
9	0x3d29e180	0.04147482
10	0x3ddd8079	0.1081552
11	0x3d8ebae1	0.06969238
12	0x3d0dfb65	0.034663577
13	0xbdfcbd49	-0.12340791
14	0x3d24d5ab	0.040242832
15	0x3da8f288	0.08249384
16	0x3e242c3e	0.16032502
17	0xbd8d8dd3	-0.069118164
18	0xbcb7af1f	-0.022422371
19	0x3de6276c	0.11237988
20	0xbda45793	-0.08024516
21	0xbd08a566	-0.03336086
22	0x3df5d8cc	0.12004241
23	0xbd0315ec	-0.03200333
24	0xbdc0635b	-0.093939506
25	0xbcf3790e	-0.02972081
26	0xbd479398	-0.04872474
27	0x3d42bd36	0.047543727
28	0x3d6e95cb	0.058248322
29	0xbc001667	-0.007817841
30	0x3dd29676	0.102826044
31	0x3e439be8	0.19102442
32	0x3da3b1d3	0.07992902
33	0xbc9869c8	-0.018605128
34	0x3c3f1fb0	0.01166527
35	0xbdb8e1a4	-0.090274125
